model/model.pt (torch, 297805 bytes, 72 tensors)

encoder.conv1.materials__links__concepts.att_src f4 [1, 1, 32]
00000000: be76 65be 1ded 223e 3039 58bf 934a d9be
00000010: 47a5 bf3e 2a95 1f3e 7733 34be bbb1 59be
00000020: 4684 6a3e 9046 c13e 64f3 7e3e 7831 92be
00000030: 5d0c 96bf 8041 4bbf 6ec5 45bf f40c 7d3e
00000040: fe2a 9ebf 0c9b 79bd 722f 1f3d f41c 143f
00000050: cffc 7f3e 5a01 f9bd 7573 9dbe 174f 493e
00000060: 5e43 82bf 4204 663e 545a b53d 4eec cdbe
00000070: 6398 113f 5705 3dbf b29e 3abe b6f4 90bf
-0.22408578 0.15910764 -0.8446226 -0.42439708 0.37430784 0.15584245 -0.17597757 -0.21259205
0.22902021 0.37749147 0.24897534 -0.28553367 -1.1722523 -0.7939682 -0.7725438 0.24711972
-1.235687 -0.06093888 0.038863607 0.5785668 0.24998783 -0.12158461 -0.3075215 0.19659077
-1.0176809 0.22462562 0.08855119 -0.4021935 0.5687315 -0.7383627 -0.182246 -1.132468

encoder.conv1.materials__links__concepts.att_dst f4 [1, 1, 32]
00000000: fa29 06bf 3b54 46be 7ceb 51bd cf73 92be
00000010: ba8f 103e 1a39 82bd 3802 55be 588e c03e
00000020: a809 903e fd8e c83e e285 873e 7fb5 82be
00000030: 69de 783e 6e28 5c3e aa5f 96be c103 bb3e
00000040: 7598 cebd 6db0 773e 1560 e5bc 0316 023e
00000050: c54a b53c 5692 63be 756e 853e bad3 92be
00000060: 6479 703e ca0e a8be a016 843e 6323 553e
00000070: c849 0bbe f78b 833e c072 4bbe d713 37be
-0.524078 -0.19368069 -0.051249966 -0.2860398 0.14117327 -0.063585475 -0.20801628 0.376086
0.28132367 0.3917159 0.26469332 -0.25529096 0.24303593 0.21499798 -0.2936986 0.36526302
-0.100876726 0.24188395 -0.027999917 0.1270371 0.02213038 -0.22223791 0.26060835 -0.2867716
0.23483807 -0.32823783 0.25798512 0.2081428 -0.13602364 0.25692722 -0.19867992 -0.17878662

encoder.conv1.materials__links__concepts.bias f4 [32]
00000000: 5211 0bbd 5fbd 65bc 0691 8cbe 2a10 81bd
00000010: 1f7a bfbd a749 37be 65ca e33e dacc 05bc
00000020: 3dc8 a6bc f05b 19be df80 a73d 370c a2bd
00000030: 6dee 14be 2b0c a7be 834f 843c 8f6c 32bd
00000040: bf8b 1dbe 92ad 00be fb1e 6fbe ca55 91bd
00000050: 8f6a 87bd bf2b 87be 375d 8fbe 7369 4cbe
00000060: b311 93be 14d8 c1bd 4768 c23d aad7 d7bd
00000070: 6441 97bd 3cc8 a4be b0e4 06be edda 09be
-0.033952065 -0.0140222 -0.27454394 -0.06301911 -0.093494646 -0.1789919 0.44490352 -0.008166516
-0.020359153 -0.14976478 0.08178877 -0.07912486 -0.14544077 -0.3262647 0.016151195 -0.04356056
-0.1538534 -0.12566212 -0.23351662 -0.07096441 -0.06612121 -0.26400563 -0.28000805 -0.199621
-0.2872444 -0.09465042 0.094925456 -0.105391815 -0.07385519 -0.32184017 -0.13173175 -0.1346242

encoder.conv1.materials__links__concepts.lin_src.weight f4 [32, 128]
00000000: 90ad 133d 3e98 f03d c593 bb3d d39b d1bd
00000010: 0106 edbd e6e0 89be 0fa9 0e3e 1242 cabc
00000020: 1eaf 16be f000 183e b773 9cbb 9226 a0be
00000030: 10a8 08bc 15e3 b8bd 29f2 85bd 8e27 3abe
00000040: 785c 023d a44f b33d 2dc7 96bd 6c71 743d
00000050: ee1c 803e cecc 69bd 0601 ec3c 9d9b 643e
00000060: 909a e0bd 7136 9b3e 0cab a13e ef4c cd3d
00000070: a401 633d 6993 d73d 1bad 9ebe b34d dabd
00000080: 7eee c5be c76d 0cbe 6d4c 2a3e c69a 8a3e
00000090: 00a9 ebbd a36e ad3d 8fe4 4f3e a302 67be
000000a0: e0c5 483e 6a57 bc3e 85a6 8f3d c5e4 8b3e
000000b0: 68d1 02be 6c22 88be f2e5 1e3f 8793 82bd
000000c0: b84c 94bb 4232 823e c8d4 f2bd 5046 7d3e
000000d0: 01fe 213c 4a22 61be 4849 98bd b72e 93be
000000e0: f4fa 503e a60b 9e3e be48 1abe 0860 36bb
000000f0: 9cf1 81bb 6b7f 893e 86ec 963e ec64 c93c
00000100: 35e9 39bd ff55 3bbe a551 91bc 84e8 173b
00000110: 459e 883e a5ff 90be bc62 053e 2aea fabd
00000120: cd2b 29be e2b0 b3bd a23a 58bd fa3c 0f3e
00000130: bfb0 a93d e36f 5ebe 21c2 ffbd 1f1b a3bd
00000140: 4179 83bc 227b 243d 0510 093d e7d9 3c3d
00000150: 539d c23d 1601 a23d aba8 bbbc abf9 143d
00000160: b65e 203e 4381 87bc 4f75 043d 0096 933e
00000170: 4f95 d53d b48d 0a3e 841b 05bd efeb 3c3e
00000180: f71a 303d 1e43 6cbd ef4b 393e 268c 59be
00000190: 66bb ccbc 0c87 f23d db1f 1abe 32f8 cfbd
000001a0: 7fb8 6abe ef60 c5be 82aa 8ebe 610b 053e
000001b0: f045 62be 1d0f a23e f9ee 27bd 99e2 8a3c
000001c0: 89ae eabd 59ba 443e 2b0e 38be 1871 113f
000001d0: b194 8bbd 2e85 473e 2897 c53c e986 243e
000001e0: 9343 ef3d da47 793e e928 7ebd 4eca 1cbe
000001f0: 1d72 373e 47aa 8ebe c0ec 18be 30f7 8ebd
00000200: 77ce 0e3e adef c73d a7bb a4bd 7108 27be
00000210: 852d 573e e1bb c3bc bf07 fa3d 4f3b eb3d
00000220: 1115 923d 1dab 693d f5d1 e9bd f7a5 54be
00000230: 3085 b1be bf47 373e 318f 5b3e 24f1 85be
00000240: e507 773e 7119 3e3e a0d5 183e 3210 843e
00000250: b7a4 d83d 53bd 3dbe acdf 0f3e 6309 593e
00000260: c29a 0dbe 4dc4 d13e 559f 363e 1293 803e
00000270: 34b5 803e ffb8 2fbe d9fb ecbd d4f8 6a3d
00000280: 2bbc 42bf 0cda 163e 465f 433e bc00 553e
00000290: 2983 c9bd da10 07bd 71cb 86bd 18bc c2bd
000002a0: 2a11 083e 232e d63e 9d92 79bd f65f fb3c
000002b0: 28a2 fd3c 984a ebbd 1ce8 333f b34e c5bd
000002c0: b019 973e cf23 fd3d d0e4 0bbe 07ed 12be
000002d0: 8d2f fd3d 111e 8cbe 3e77 b6bd cd8f 79bc
000002e0: c515 743e 6e05 b73e 75e1 a1bd dca2 c6be
000002f0: 6824 943e 7342 df3e 8400 3a3e 01cf 463d
00000300: acc5 e13d a1b1 54be b9e4 3d3e 11c1 36be
00000310: 13c4 3f3e 28f7 d73c af47 743e 4f84 4cbe
00000320: 577f dcbd ca9d 04be 6109 a2be d3de 493e
00000330: 7b62 263e 9c2a cabd af0a b8bc 5394 e33c
00000340: 2a75 613d da02 66bd 9181 ad3c bc0f 8fbd
00000350: 7d79 3ebd 1942 5a3c 593b 51bd a675 473d
00000360: dde7 063c b9c2 febc df96 10be c1f9 0f3e
00000370: 0199 3f3d b86d 143e c89c 83bd aaad 91bd
00000380: 5153 f2bc ce2c 29be ac4b 253e b2dc dfbe
00000390: 652e 34be 7094 863d 24d0 123e 6ab9 9cbd
000003a0: 2199 b53d 8ec8 c6be 2bc7 87be bdfc c9bd
000003b0: fdc3 83bb c7b6 0b3d b25f 0b3e d688 4cbe
000003c0: 93fd 15be f30b 893e 73c1 a8be 99d5 0c3f
000003d0: 4d2b 42be 0bd2 fd3b 1079 57bd 8987 37bd
000003e0: caca c33d 2eb1 a4bb 9103 a5be 368e f7bc
000003f0: 97bd eabd cdd3 203e 0504 20be ef50 3cbe
0.036054194 0.11747788 0.09159044 -0.10234799 -0.11573411 -0.26929396 0.13931678 -0.024689708
-0.1471524 0.14844108 -0.0047745365 -0.31279427 -0.0083408505 -0.090276875 -0.06540329 -0.18179151
0.031826466 0.087554246 -0.073622085 0.05967848 0.25022072 -0.057080083 0.028809082 0.22324987
-0.109669805 0.30314973 0.3157581 0.100244395 0.055421486 0.10526163 -0.30991444 -0.10659351
-0.38658518 -0.13713752 0.16630717 0.27071208 -0.115068436 0.08468368 0.20302032 -0.225596
0.19606733 0.36785442 0.07014183 0.27322975 -0.12775195 -0.26588762 0.6206962 -0.06375795
-0.004525747 0.2542897 -0.11856991 0.24733853 0.009887219 -0.21985736 -0.07435852 -0.28746578
0.20408231 0.30868262 -0.15066811 -0.0027828235 -0.0039655697 0.26855025 0.29477328 0.024584256
-0.04538842 -0.18294524 -0.017739126 0.0023179362 0.2668325 -0.2832004 0.13025945 -0.122516945
-0.16520615 -0.08773972 -0.05279029 0.13988104 0.08285665 -0.21722369 -0.12488199 -0.07964157
-0.01604903 0.04015649 0.033462543 0.046106245 0.095026635 0.079103634 -0.022907576 0.036370914
0.1566113 -0.016541129 0.032338437 0.28825378 0.10428869 0.13530618 -0.032496944 0.18449377
0.042994466 -0.057681195 0.18095373 -0.21244869 -0.024991702 0.118421644 -0.15051214 -0.101547614
-0.22921942 -0.38550517 -0.27864462 0.12992622 -0.22096992 0.31652156 -0.040999386 0.016953753
-0.11459071 0.19211711 -0.17974155 0.5681319 -0.0681547 0.19484398 0.024119928 0.16067089
0.11682811 0.24343815 -0.062050734 -0.15311548 0.17914625 -0.27864286 -0.14934063 -0.06980741
0.13945948 0.097625114 -0.08043604 -0.16311814 0.21013458 -0.023893299 0.12208509 0.114859216
0.07132924 0.057047952 -0.11416999 -0.20766436 -0.34671926 0.17898463 0.21441342 -0.26160538
0.24124105 0.18564393 0.14925241 0.25793606 0.10578292 -0.18529253 0.14050168 0.21194987
-0.13828567 0.40970078 0.17834218 0.25112206 0.25138247 -0.17160414 -0.11571474 0.057366207
-0.7606837 0.14731616 0.19079313 0.20801061 -0.0983947 -0.032975055 -0.06581772 -0.09508532
0.13287798 0.41832075 -0.060930837 0.030685406 0.030961111 -0.11488837 0.70276046 -0.09634151
0.29511786 0.123603456 -0.13661504 -0.14348231 0.12362585 -0.2736669 -0.089094624 -0.015232039
0.2383643 0.3574633 -0.07904331 -0.38796127 0.28934026 0.43605384 0.18164259 0.048537258
0.11024031 -0.20770885 0.18544282 -0.17847086 0.1872714 0.02636297 0.2385547 -0.19972347
-0.10766476 -0.12950817 -0.3164778 0.19713907 0.16248505 -0.09871408 -0.022466032 0.027780687
0.055043377 -0.056155063 0.021179946 -0.06985423 -0.04650258 0.013321423 -0.05108199 0.048696183
0.008233991 -0.03109871 -0.14120053 0.14060117 0.046776775 0.1449498 -0.06426388 -0.07113202
-0.029580744 -0.16520998 0.16142148 -0.43723065 -0.17595823 0.06571281 0.14337212 -0.076525524
0.08867098 -0.38824886 -0.2651914 -0.09862659 -0.0040211664 0.034109857 0.13610724 -0.19974074
-0.14647512 0.2676693 -0.3296009 0.55013424 -0.1896183 0.0077459863 -0.05260569 -0.04480699
0.09560163 -0.0050260043 -0.32229283 -0.030219179 -0.11461943 0.15705796 -0.15626533 -0.18390249

encoder.conv1.materials__links__concepts.lin_dst.weight f4 [32, 128]
00000000: 8f94 84bd a498 4e3c cd9e 583d c85a 4bbe
00000010: 13d7 b43c 5421 c23a 0188 543e cf91 15be
00000020: 9562 3fbd 177f 0cbe aea5 c63c fb06 16be
00000030: cdd3 01bd 3e53 6d3e 6ace 03be dc91 0fbe
00000040: d35d 803e 1417 b1bd 9890 183e 2356 af3d
00000050: c83d 90be bcaa 83bd 5fd8 8cbc ba55 c13d
00000060: 0c6d 97bd 80d3 b03d e7a3 d2bd 8a38 13be
00000070: b9b9 3ebe 2d58 afbd 7b76 843e b020 d83d
00000080: 1855 0f3e a408 493d 50ac c4bd 3a99 adbd
00000090: 5269 fe3d 14a7 f03c 2bb3 e03d 3e7d 83bd
000000a0: 5630 22be efdf 5f3d 41a5 f4bd fb0f 4cbe
000000b0: 3470 88be 5753 283d 32c4 5c3e e8fa 32be
000000c0: 88b1 0cbd 9b35 b9ba 4c51 773c 4f6e e4b9
000000d0: 67a8 233e 9c50 e4bd 5973 09be f059 b33d
000000e0: 7ac0 7ebd 1831 8abe 66ce 883d a892 6f3d
000000f0: 9dc3 d7bd 0adb 123e a935 36be 2c6e ec38
00000100: cf98 a3bd 1c5b 383a 5047 31be 3629 23bd
00000110: ac19 403d 1393 0dbe 4bb1 133e 8633 5bbd
00000120: fc9e 043e cd1b 723e 3dce 0e3e 27ae 3dbc
00000130: f762 3b3d 11c8 b73d 7f67 febd 3a96 4f3d
00000140: f50b 38be 105a 2fbd 9c98 5abd 7af3 dabd
00000150: c26f 893e 7619 363e fa32 84bd d1ca 67be
00000160: 7d12 be3d b3a2 893e c01a 8d3d d0db 693c
00000170: e576 ce3d f13b 1a3e 3b1d 833c 571c 0abd
00000180: 918c 92bd 3700 403e 8c12 f6bd 893c c53d
00000190: 76af 363d dfb6 22be 959f 5d3e 9cc5 cfbd
000001a0: 48d8 eebc f7d3 45bd be06 2b3c e246 1f3c
000001b0: 753e 693e ce48 4e3e 9533 4d3e 6edd 29bd
000001c0: c12b 0d3e 7274 2ebd 4512 e93d aebe 573e
000001d0: 56c9 623d 1bc8 403e a82e 71be e7a1 f8bd
000001e0: 3ab8 dbbd 24d3 513d c43a a9bd 1e83 0a3e
000001f0: 46e6 303e 7b7d ed3d 3907 173e 335f 9cbe
00000200: ce47 373d e44c 15bd 9710 83bd 9a0c 40bc
00000210: 5faf 283e 0c85 e33d dc22 db3c aa7a 3e3e
00000220: 1edb 183e b637 d4bd f776 133e 2ca1 2d3a
00000230: 2c93 fd3d 1ad3 623e 8454 86be 88e5 8739
00000240: b520 ccbc 6173 293c 6c86 083e 05a9 2abe
00000250: 9c66 d0bc 33e4 1d3e 0715 b23c 8d83 57be
00000260: 1469 74be e493 423e 0a6b 48bd 6b51 243e
00000270: 28bf fa3d 0f04 f3bd e680 193c 4bfb bf3d
00000280: e7ad 28be b762 50be 0a90 353d d102 a13d
00000290: 1069 e7bd 4f36 00be d0ec 92bd 26b3 653d
000002a0: bf01 b2bd 7f29 ad3d 89ac 2a3e 384d 8cbd
000002b0: e613 86bd e843 243e b93d ac3c d342 e3bd
000002c0: bccc 9c3d b92c afbd 0c29 04bd d7e2 3a3e
000002d0: b582 0b3e c923 f0bd e165 03be 4a58 45bd
000002e0: f9fe 353e ca07 5f3c 6343 923d abe4 41bd
000002f0: 3e9c 133c 722b 583d 6ca1 19be b523 323d
00000300: 1530 aebd b3a2 0bbe 1795 84be 4bce 2cbe
00000310: a0dc fbbd 2b60 1f3e 47ac 2dbe 90b9 0dbe
00000320: 0fff 0d3e 1892 15bb a6d6 403d d43d c33c
00000330: 6e69 4bbe 4fd1 b4bd ffb9 d5bd 7830 1b3e
00000340: c998 08be 2604 71bd bb77 423e d792 96bd
00000350: f3a1 023e 1002 0b3e f66e 493e 2eef 19be
00000360: 352e f1bd f729 64bd 9157 bd3d 34e1 2bbe
00000370: fa3a 673e 72e0 b73d 5e12 e03d ce6c 5cbe
00000380: dd2e 4f3e 3464 663e f6bf 01be f5c6 b03d
00000390: b53a 753c f9fd f9bd 3082 1c3e 3260 373d
000003a0: 02f4 7dbe 30fd af3d b06a 07be f33d 1cbe
000003b0: 4f07 6ebc cabc 5a3d 9132 183e 19e7 8dbd
000003c0: cb80 31be 9d4d 99bd e0bc bebd 3dea 513e
000003d0: fbca c3bd 8d11 3b3e 6b1d 5fbe 7055 d7bc
000003e0: 8908 45bd c530 46bd 74c1 1a3e 45fa 22bd
000003f0: 27f3 ba3c f844 acbc a5c3 253b b41a 38bd
-0.06473648 0.012609635 0.05288582 -0.19858849 0.022075212 0.0014810958 0.20755006 -0.14606403
-0.046724875 -0.13720356 0.024248924 -0.146511 -0.03169613 0.23176286 -0.1287171 -0.14020485
0.25071582 -0.0864698 0.14898908 0.08561351 -0.28172135 -0.064290494 -0.017193018 0.09440179
-0.07393846 0.086340904 -0.10285168 -0.14377037 -0.18625535 -0.0856174 0.25871643 0.1055311
0.13997304 0.049080506 -0.096031785 -0.08476491 0.12422432 0.029376544 0.109716736 -0.064203724
-0.15838751 0.05465692 -0.11945582 -0.19927971 -0.26648104 0.041095104 0.21559218 -0.17478526
-0.034348994 -0.0014130356 0.015095066 -0.00043569735 0.15982209 -0.111481875 -0.13422908 0.087573886
-0.06219528 -0.2699058 0.066799924 0.05848947 -0.10535357 0.1434137 -0.17793907 0.00011273878
-0.0798813 0.00070326193 -0.1731236 -0.039834224 0.046899483 -0.13825636 0.144231 -0.053515933
0.12951273 0.23643418 0.13945861 -0.011577166 0.045748677 0.089737065 -0.12422084 0.050680377
-0.17973311 -0.0428105 -0.053368196 -0.10690971 0.26843077 0.1778315 -0.064550355 -0.22635962
0.0928087 0.26881942 0.06889868 0.014273599 0.10081271 0.15061928 0.01600515 -0.033718433
-0.07155717 0.18750082 -0.12015256 0.09630687 0.044600926 -0.15890072 0.21642907 -0.10145113
-0.029155865 -0.04829785 0.010438619 0.00972149 0.22777732 0.2014496 0.20039208 -0.041470937
0.13786222 -0.04259152 0.11380438 0.21068832 0.05536779 0.18826334 -0.23552954 -0.121402554
-0.10728498 0.05122675 -0.08263162 0.1352658 0.17275342 0.11596199 0.14748849 -0.3054138
0.044746213 -0.03645028 -0.06399649 -0.011721754 0.16473149 0.11109361 0.02675002 0.1860148
0.14927337 -0.103621885 0.1440085 0.0006623443 0.123815864 0.22150841 -0.26236355 0.0002592022
-0.02491794 0.01034245 0.13332528 -0.16666038 -0.025439553 0.15419082 0.021738542 -0.21046276
-0.23868209 0.19001728 -0.048930205 0.16046683 0.122434914 -0.118660085 0.009369111 0.09374102
-0.16472588 -0.20350157 0.04432682 0.07861865 -0.11299336 -0.12520717 -0.07174075 0.056079052
-0.08691739 0.084551804 0.1666738 -0.06850666 -0.06546764 0.16041529 0.021025525 -0.1109673
0.076562375 -0.08553452 -0.032265708 0.18250595 0.1362408 -0.117255755 -0.12831832 -0.048179902
0.17773046 0.013612697 0.07141759 -0.047337215 0.009009419 0.052775808 -0.15002984 0.043491084
-0.08505265 -0.13636284 -0.25894997 -0.1687557 -0.1229794 0.15564029 -0.1696025 -0.13840318
0.13866828 -0.0022822674 0.047079705 0.023833193 -0.19864437 -0.08828985 -0.104358666 0.15155208
-0.13339533 -0.058841847 0.18990986 -0.07352226 0.12757091 0.13575006 0.19671234 -0.15032646
-0.117763914 -0.055704083 0.092452176 -0.16785127 0.22581092 0.089783564 0.10941003 -0.2152588
0.2023272 0.22499162 -0.12670884 0.08631698 0.01496761 -0.122066446 0.15284038 0.044769473
-0.24800113 0.085932136 -0.13224292 -0.15258007 -0.01452811 0.0534027 0.1486304 -0.06928844
-0.17334287 -0.07485507 -0.09313369 0.20499511 -0.095602 0.18268414 -0.21788566 -0.026285857
-0.048103843 -0.048386354 0.15112859 -0.039789457 0.022821022 -0.02102898 0.0025293615 -0.04494734

encoder.conv1.concepts__rev_links__materials.att_src f4 [1, 1, 32]
00000000: d60a 4e3e 145b 053e 35f2 b2be cf77 3c3e
00000010: ef4b 1bbe 96a6 9d3d a946 19bd 5295 943e
00000020: 54fa fa3e a8d1 9f3e 88b0 48be 29a5 a7be
00000030: 0d47 d7bc 545d a8be 9071 29be 0877 0dbf
00000040: 67d6 393e b85f d7be 3af3 763e 8443 2ebe
00000050: db9c a3be fab3 8fbc b36d a5be fc98 59be
00000060: d348 473e a121 683e 2d46 0d3c a97b 02bf
00000070: ffb0 7cbe 5e02 933e 4e72 ddbe 1e5d babb
0.20121321 0.13023025 -0.34950414 0.18405078 -0.15165685 0.07697789 -0.037420902 0.29020172
0.4901911 0.31214643 -0.19598591 -0.32743195 -0.026278997 -0.32883704 -0.16547227 -0.5525975
0.18148194 -0.42065215 0.24116221 -0.17017943 -0.3195561 -0.017541874 -0.32310256 -0.21249765
0.19461374 0.22669078 0.008622688 -0.5096994 -0.24676894 0.28712744 -0.4325127 -0.00568737

encoder.conv1.concepts__rev_links__materials.att_dst f4 [1, 1, 32]
00000000: 41a5 853e 9874 f3bb 2d38 133e ea90 a1be
00000010: 2ed4 23be d496 033f 709e 643e f563 033e
00000020: 5a8a babe 2a1e 84be f7b7 733e c253 a43e
00000030: 96a3 4dbe 1eb1 2abe 5c65 cb3e 8966 bb3e
00000040: a6e3 acbc 55ff 2abe 18eb 83be 616d cd3e
00000050: 536b 9abe 3894 d2bc 07d0 1bbe 6ef6 a33d
00000060: 6191 a6be 57f5 e4be b41c 39be 787f 3e3e
00000070: b653 11be 3d3c d8be abdd 453c 1bd1 24be
0.2610264 -0.0074296705 0.14376898 -0.31555873 -0.15998909 0.5140202 0.22326064 0.128311
-0.3643368 -0.25804263 0.23800646 0.32095152 -0.20081934 -0.16669127 0.3972577 0.36601666
-0.021104645 -0.16698964 -0.257653 0.40122512 -0.30160007 -0.025705442 -0.15216075 0.08005987
-0.3253279 -0.4471843 -0.18077356 0.18603313 -0.1419209 -0.42233458 0.012076776 -0.16095392

encoder.conv1.concepts__rev_links__materials.bias f4 [32]
00000000: 4bef 10be 3fe1 ba3d c26b bd3e 8152 0ebd
00000010: 9d3a b7bd 7b3f 8c3d 066f 8d3d 94bb 2d3d
00000020: 488d 323d 514c 853b 7b1c 123d 9fdd 563d
00000030: dd17 b1bd 9ed7 6a3b 6bb7 8d3d d14a 093e
00000040: c71a a73d 4e53 163c 8d92 42be c876 833d
00000050: 0d96 a4bd 7113 21bc e3a4 483f 88a4 203e
00000060: ca2e 2ebe c9e2 bfbd b404 ab3d 600c f53d
00000070: 1a6c 97bd d934 673d 9a6b b43e 24d2 a5bd
-0.14153783 0.091249935 0.36996275 -0.03474665 -0.089467265 0.068480454 0.06905942 0.042415217
0.043591768 0.0040679355 0.035671692 0.052457448 -0.0864713 0.0035834084 0.0691975 0.13407446
0.08159404 0.009175135 -0.19001217 0.0641914 -0.080364324 -0.009831295 0.783766 0.15687764
-0.17010036 -0.09369428 0.083505064 0.11965251 -0.073936656 0.056446884 0.35238343 -0.08096722

encoder.conv1.concepts__rev_links__materials.lin_src.weight f4 [32, 128]
00000000: aa55 8f3e e190 aabd 1778 193d 8ed6 bd3e
00000010: 8330 4c3e 1eba cebd 2f84 4b3e afd5 153d
00000020: 9a10 2c3e 9878 59bd 67cd 0d3e 5d00 103e
00000030: f54e 46be c230 1cbe 6397 b2bc 3466 51bd
00000040: ffbb be3e 5be2 323c 8932 c93d 85e6 c4be
00000050: 63d6 0fbe eb64 633d 8138 7b3e c709 9bbd
00000060: 1bb4 e4be b5b1 7a3d 708c 98be 5a56 9e3e
00000070: cad0 183e 9ccd 233e 3d7e 083d dd82 813e
00000080: 7325 a1bc b8aa 33be 23a5 613d bf09 9ebc
00000090: 9858 35be 0580 7f3d 1528 03bd 740c a1bd
000000a0: d016 a7be 1b16 893c 606d 49bd 1a56 82bb
000000b0: d9aa e6bd 5840 9bbe 8ce1 ab3d 9322 78be
000000c0: ed8d 313e a651 33be 4594 41be b857 503e
000000d0: 0a0f 223f 90a6 d9be d8a7 923e aed0 a63c
000000e0: 3ee5 6dbe a857 523e fb1f 2abd ed6e 08bf
000000f0: 5182 89be 7cf6 16be ff1d f9bc d2be 9abd
00000100: 6953 9f3d 0765 913d 8cd0 103c 6d2f 18bf
00000110: 542e 90be 9371 46bd e8dc 863d 1277 53bd
00000120: 99af c33e 5ca7 a23e 0791 9abd 6825 babd
00000130: 7c19 a13e 1f58 563d fd1c 0bbe 9c36 663b
00000140: 061e 8f3e d394 8a3c ed10 0b3e b011 0a3c
00000150: a734 513e aac9 1bbc cb88 223d 90a1 6fbe
00000160: cd31 463e 0afc 0a3f 537e 44be 7ea7 63bd
00000170: 2f7e b93e bed7 903d 09f3 213e 1fb5 823e
00000180: 46a7 f03d 12fe c83d 4b46 d73d 0625 083e
00000190: 23a6 793d 7dbf 99be 0f35 1ebd 12cc 80be
000001a0: 6f2a cebd b9a2 153e 2be6 b53d 7c72 b2be
000001b0: 4fc7 24be fa23 a63e 21e0 a13d f109 883d
000001c0: 37eb 013e fa45 0bbe ebbf 1bbd d15b 2f3c
000001d0: 3f93 8f3d 6b66 86be 0f2d 6dbe 35c7 113e
000001e0: 38c2 0abd 770c 993c f4c2 263e 6fb5 113d
000001f0: ae15 9ebc 7216 9ebd 1148 563d d49a 9d3e
00000200: ca37 0fbe 86a6 23bb d9d2 0cbe 735c 1d3d
00000210: 823c dbbc 1413 163d 1e4a dbbd b352 4d3c
00000220: 389b aebc 7e30 973d e9f3 3bbe 05d2 603c
00000230: 386d 16bd 76b8 ffbe 1331 28bd ef20 3fbd
00000240: af16 53be 0e05 d7bd 153e 963d c16b 71ba
00000250: 3ab1 023e 4b92 e7bd 2595 0a3e 24ae 0ebd
00000260: e0c4 5ebe 3b9a 5cbd 0188 80bd 1876 ab3d
00000270: 1554 923d 8469 613c cd0f 073d f4d0 2ebb
00000280: 6ea2 5b3b 4e83 243e 8b38 2a3e 8b11 83bc
00000290: 4b7a 943e 40b8 b1bd dd03 3a3c 93b9 44be
000002a0: 4079 3d3d 41a1 30bd fe7a f3bd 497f 0abe
000002b0: e2c2 933e ba5c 613e 3fae 2c3d cd1e cf3d
000002c0: 75dd 5e3e 85c7 683e 86ea a3bd 9ae2 bcbc
000002d0: 1afb 493d 0926 793d 1915 0a3d 5d7b 05be
000002e0: 6fd5 efbd de36 3a3e e135 683d 0aa5 babd
000002f0: a8ee eebd 4508 2d3d 50a1 cbbd 08a6 9dbe
00000300: dc24 753e c679 163d 8ef9 d6bd e8e3 4d3e
00000310: 243d 993d c17c 7d3d 6e86 723e c96e 71be
00000320: 6b7a 02be 5cab 92bd 70e6 74bd f04f 6ebd
00000330: 553f 22be 42d1 8fbd 303c 553e 12c0 c63d
00000340: 1006 b23d e7dd d63c 611c 92be 6ee2 003e
00000350: d517 23bd 1d3b 99bc c519 163e 50ae 963e
00000360: bc80 3dbe 94b4 3d3d 9c11 ef3d 446f 133e
00000370: 5070 a03d 5464 3d3c 633e 0fbe 01c1 883d
00000380: df26 99bd 799d 01be 07bc b7be 09ad 2cbd
00000390: fdee 8fbe 2b42 4f3e d2f5 a4be de10 d33d
000003a0: 03cc 603e 2c5c 1bbe 3562 a8bc 56d4 893d
000003b0: f2dd 86be 42f1 613d 656d 82bd 833b d2bc
000003c0: 929b 12be b62e ab3d c785 863d bd21 80be
000003d0: f132 623c 0ddf 083e d489 e0bc 5f08 e43d
000003e0: ff42 01bd 11c7 253e 4d1c 7fbd d82a 043e
000003f0: 9a8e ccbe f8d5 1abe c116 353d f5f4 c1bd
0.27995044 -0.08328415 0.037468042 0.37077755 0.19940381 -0.10094093 0.19874643 0.036580738
0.16803208 -0.053093523 0.13847886 0.14062639 -0.19366057 -0.15252975 -0.021800702 -0.05112286
0.37252805 0.010918225 0.09824092 -0.38457122 -0.14046626 0.055516165 0.24533273 -0.07570224
-0.4466866 0.06120463 -0.29794645 0.30925256 0.14923397 0.15996403 0.033323515 0.25295153
-0.019671177 -0.17545593 0.055089127 -0.019291757 -0.17709577 0.06237795 -0.032020647 -0.07863703
-0.32634592 0.016734174 -0.049176574 -0.0039775493 -0.11263055 -0.30322528 0.08392629 -0.24231939
0.17339297 -0.17511615 -0.18904217 0.20345962 0.633042 -0.4250989 0.2864368 0.020363178
-0.2323198 0.2054125 -0.041534405 -0.5329426 -0.26857236 -0.14742464 -0.030409811 -0.07555927
0.07779581 0.070993476 0.008838784 -0.59447366 -0.28160346 -0.048448157 0.06585103 -0.051627226
0.38219908 0.3176831 -0.07547193 -0.09089166 0.31464756 0.052330133 -0.13585277 0.0035127765
0.27952594 0.016916668 0.13580675 0.008427069 0.20430242 -0.00950853 0.039681237 -0.23401475
0.19354935 0.5429083 -0.19188814 -0.055579655 0.36229083 0.070723996 0.15815367 0.2552881
0.11750655 0.09814085 0.10511454 0.13295373 0.060949456 -0.30028906 -0.03862482 -0.25155693
-0.10066687 0.14612855 0.08881792 -0.3485297 -0.16091655 0.32449323 0.07904077 0.06642521
0.12687384 -0.13600913 -0.038024824 0.010703043 0.07010507 -0.26250014 -0.2316172 0.14236148
-0.033876628 0.018682702 0.16285306 0.03557342 -0.019297447 -0.07719125 0.05231482 0.30782187
-0.13986126 -0.0024971082 -0.13752307 0.038418245 -0.02676225 0.036639288 -0.10707496 0.012531924
-0.021314248 0.07382296 -0.18354763 0.013721948 -0.036725253 -0.4994542 -0.041062426 -0.046662267
-0.20614122 -0.10499011 0.0733606 -0.0009209477 0.12762919 -0.113072 0.13533457 -0.034834042
-0.2175479 -0.053858023 -0.06275941 0.08372134 0.071449436 0.013758067 0.032974053 -0.0026674839
0.0033513564 0.16065714 0.16623132 -0.015999576 0.28999552 -0.08677721 0.01135346 -0.19211416
0.04625821 -0.043122534 -0.11888693 -0.13525118 0.2885962 0.22008029 0.04215836 0.10113297
0.21764167 0.2273236 -0.08003716 -0.02305727 0.049311735 0.06082729 0.033711527 -0.1303534
-0.11710631 0.18184993 0.056692008 -0.0911351 -0.11666614 0.042244215 -0.09942877 -0.30790734
0.23939842 0.036737226 -0.104968175 0.2010647 0.07482365 0.061886553 0.23684093 -0.23577417
-0.12742011 -0.071615905 -0.059790075 -0.058181703 -0.15844472 -0.07022335 0.20823741 0.09704603
0.086925626 0.026228858 -0.28537276 0.12586376 -0.03981765 -0.018704945 0.14658268 0.29429865
-0.1850614 0.04631479 0.116732806 0.14397913 0.07833922 0.011559565 -0.13988642 0.066774376
-0.07478117 -0.12657727 -0.3588564 -0.042157207 -0.2811202 0.20240085 -0.32218796 0.103059515
0.21952824 -0.1517188 -0.020554641 0.06729953 -0.26341206 0.055161722 -0.063685216 -0.025663143
-0.14317158 0.08358519 0.06568485 -0.2502574 0.013806091 0.13366337 -0.027409472 0.11134409
-0.031558033 0.16189219 -0.06228285 0.12906969 -0.39952546 -0.15120685 0.044211153 -0.0947055

encoder.conv1.concepts__rev_links__materials.lin_dst.weight f4 [32, 128]
00000000: 867a 94bd 27c2 1dbe c0cd bc3d 2591 5cbd
00000010: 6901 7ebd ffe9 0fbe 2895 ccbc 386a 9d3c
00000020: 516d 1f3d 4302 593e f895 b2bd 868c 1b3e
00000030: 5108 1fbd 2449 ec3d e858 38bd fcff debc
00000040: c9cb 343d de62 c13d 6e35 cfbd feed 72bd
00000050: 4ede 6abd 7768 073e 29b8 5fbe bd48 f0bd
00000060: 7e5c 1bbe 3617 ebbd 6da5 dc3d bcd1 82bc
00000070: 510c 813e d463 5ebe c418 4a3e 3b48 81bd
00000080: 7cb2 9ebd a243 743d 8d28 293e 5aaa 6cbc
00000090: 683a 703e e31a 493d 81da 093e f26d ec3d
000000a0: 6e5b 7cbe c095 b1bd 8da1 9b3d a85f 413d
000000b0: d6c7 1dbd bdfc d5bb a8ad 00be fe6b eabd
000000c0: 75aa f23d 46e2 dabc 4bb8 3a3e b919 9e3c
000000d0: 1a4c bfbd 8e29 403e 83c1 86bb f27c f8bd
000000e0: eaa7 5cbd c569 bcbd 0655 64be 9f0c d6bd
000000f0: e750 313e 78fa 99bd 7557 af3d 4f66 183d
00000100: 5f6d 3b3e d7bf 29be 51eb 583e dce6 2f3e
00000110: 128f 45be 28c2 2fbe af5d 90be ad05 9cbd
00000120: 417e a2bc 1c9b 30be 9db2 953e 0a30 4a3e
00000130: f4b6 01be 6ee2 9d3b 107d c7bd 6c05 6abd
00000140: f683 babd 8707 98bc f05c fe3d cec2 833e
00000150: 7305 aa3d a5d8 483d bf18 d6bd d887 a0bd
00000160: 9a2c 8f3c a374 4a3e 3fff e3bc f32d 903e
00000170: 2cd0 9fbd 939b 47bc ae4d 243e f1ae 31bd
00000180: 0b7b 32bd bbe7 3dbe 9617 0bbd dd8e 0b3e
00000190: 6d81 813d ff2e 273b 0be2 063e 02de da3d
000001a0: 15f9 8dbe 294b 1e3e 968a aabc 23ec a6bd
000001b0: 8a28 203d 14bd 833e 1486 3fbd 18c7 ff3c
000001c0: 900b 51be 2771 61bd be63 03bc f880 ed3d
000001d0: 9be9 ca3c edbf 8ebd dee4 4a3d e59f aebd
000001e0: 7a11 c63d b103 d73c 2533 69be 8264 193e
000001f0: e821 57bc b605 543c 237a 043e f223 d13d
00000200: 604e 353c 8e7b dcbc f644 f3bd fe0a 51be
00000210: d31f 793d 496d cbbc 3663 933d 89c8 373e
00000220: 9652 3ebe 9241 33bd 0c1b 89bd 4c6b 7cbd
00000230: 0cd6 48be 518d 0cbd f43d 02bd ba15 073d
00000240: 0db8 1b3e fc6c bc3d fb06 26be cbe4 523e
00000250: 57d7 ac3b 3289 633e 6e65 b4bd f8bb aa3d
00000260: 2d81 afbb 0348 4f3e d70a 0f3e be8b dfbd
00000270: fc45 e03c 5a56 aa3d 1663 d6be 7c32 5f3d
00000280: fd17 3fbd 791a 43bd 50ca ed3d 615f fe3d
00000290: 8d48 c63d 2ed9 1d3e 21b8 cd3d e433 be3d
000002a0: 6969 0dbe 5c53 c4bd d076 953e b2f2 193d
000002b0: 5b3c 1ebe 9919 783c 3cc3 003e 9f9e 3c3b
000002c0: 3cc1 18bd 8ef2 5f3e 239f 153c cea3 8a3c
000002d0: 9f69 b4bd 0448 9a3d 7c4c 3d3e f34d e83d
000002e0: 569d d23d eea7 c33d baa1 55be 2a95 c2bd
000002f0: 9ce2 c43a 4155 32be bc8a 1cbe 4062 d73c
00000300: 09c0 b0bd a146 9abd a0df 1cbe 17df 0ebd
00000310: f699 583d 4964 f73d fece 363e 5a99 d2bd
00000320: 50ee ff3d 149a 94be 496f 733d b90c bdbd
00000330: 946a 73bd 54a2 123e 1cdb 0f3d c5c8 12be
00000340: 5877 d33d 5919 013d 29ed a63d 6698 05bc
00000350: 59ab 6e3d ad6c b9bc 35d7 f53d 5049 1f3c
00000360: f17a c03c f649 d4bd 2840 a3bd c586 b1bd
00000370: 9bed 3b3e aff7 cbbd fa8f d03d fa59 1bbe
00000380: 153e cc3d 7988 d13d 57a8 d23b c685 f13c
00000390: e33d 0abe 729b 1abd 0ea3 853d d289 1e3e
000003a0: 5382 f33d b866 a1be e4aa 223e 0bdc 87be
000003b0: 56b1 263e ecdd b9bd f4e9 55bd c066 4f3d
000003c0: 7a9b 373e 95b1 c13d fb46 7d3d 6b1b 013e
000003d0: 7ce2 cd3d 4723 a83d cdcb 30be 43d1 9cbc
000003e0: b3cf 243e 1bc1 fb3c 45ab 27be 4022 873e
000003f0: 7795 6d3b 7d4c a3bd ca8a 353e e99b 2bbe
-0.07249932 -0.15406094 0.09218931 -0.053849358 -0.062013064 -0.14054106 -0.024973467 0.019215688
0.03892261 0.21192269 -0.087200105 0.15190324 -0.03882629 0.11537388 -0.045006663 -0.027221672
0.044139657 0.094426855 -0.10117613 -0.059309 -0.057340913 0.13223444 -0.21847595 -0.11732624
-0.15172002 -0.114790365 0.1077374 -0.01596915 0.2520471 -0.21717769 0.1973601 -0.06312605
-0.07748887 0.059634812 0.16519375 -0.014444912 0.2345978 0.049097907 0.13462259 0.11544408
-0.24644253 -0.08671141 0.07599173 0.047210366 -0.038520657 -0.006530373 -0.12566245 -0.11446379
0.11848918 -0.026719224 0.18234365 0.019299375 -0.09340687 0.18765852 -0.004112424 -0.121332064
-0.053871073 -0.091998614 -0.22298059 -0.10451626 0.17316018 -0.07518476 0.08561603 0.037206944
0.1830344 -0.16577087 0.21183516 0.1717791 -0.19292858 -0.17163908 -0.28196475 -0.0761827
-0.019835593 -0.1724667 0.29237834 0.19744888 -0.12667447 0.0048182523 -0.09740651 -0.057134077
-0.09107201 -0.018558277 0.1242007 0.25734562 0.083018206 0.049034733 -0.10453939 -0.0783841
0.017477322 0.19771056 -0.027831672 0.28160056 -0.078033775 -0.012183088 0.16045257 -0.043379728
-0.043574374 -0.1854543 -0.03395804 0.13628717 0.06323514 0.002551019 0.13172166 0.10686876
-0.27729097 0.15458359 -0.020818036 -0.08150508 0.03910116 0.25730193 -0.046758726 0.031222865
-0.20414567 -0.05503955 -0.008019386 0.115968645 0.024769595 -0.06970201 0.04953467 -0.08526591
0.09671302 0.026246877 -0.22773416 0.14979747 -0.0131306425 0.012940815 0.12937216 0.10211934
0.011066049 -0.026914384 -0.11878388 -0.2041435 0.060821366 -0.024832385 0.07196657 0.17947592
-0.18586192 -0.043763705 -0.06694612 -0.061625764 -0.19612902 -0.034314457 -0.031797364 0.032979704
0.15206929 0.092004746 -0.162136 0.2059509 0.005274694 0.22220305 -0.08808409 0.083366334
-0.005355975 0.20242314 0.13968979 -0.109153256 0.027377121 0.083172515 -0.41872472 0.054491505
-0.046653736 -0.04763267 0.11610854 0.12420536 0.09681807 0.15414879 0.100448854 0.09287241
-0.13809742 -0.09586212 0.2919221 0.037584968 -0.15452711 0.015142822 0.12574476 0.002878107
-0.037293658 0.21869871 0.009132179 0.016923811 -0.08809208 0.07533267 0.18486208 0.11342993
0.10283916 0.095535144 -0.20862475 -0.09501107 0.0015021148 -0.17415334 -0.15287298 0.026291966
-0.08630378 -0.07533003 -0.15319681 -0.034880724 0.052881204 0.12079675 0.17852399 -0.10283156
0.124966264 -0.29023802 0.0594323 -0.09230942 -0.059427813 0.14319736 0.03512107 -0.143344
0.103254974 0.031518314 0.081507035 -0.00815401 0.05826888 -0.022634828 0.12003938 0.009722069
0.023496123 -0.103656694 -0.07971221 -0.086682834 0.18352358 -0.09959351 0.10183711 -0.15171042
0.09972779 0.10231108 0.006428759 0.029482733 -0.1350017 -0.0377459 0.06525241 0.15482262
0.11890092 -0.3152368 0.15885502 -0.26535067 0.16278586 -0.09075531 -0.05222507 0.0506351
0.17930403 0.09457699 0.06183527 0.12608115 0.10052964 0.082098536 -0.17265244 -0.019142753
0.16094856 0.030731728 -0.16373928 0.26393318 0.0036252418 -0.07973573 0.17728725 -0.16758694

encoder.conv2.materials__links__concepts.att_src f4 [1, 1, 32]
00000000: 4373 1ebe 3736 3ebf 09e0 86be d027 003e
00000010: e272 2e3f 4eb9 4c3f ab27 8cbd 0a08 49bf
00000020: 3d4d 2ebe d596 b13e fbac 1fbf 0a7c ddbe
00000030: b1b4 a13e 0db4 8fbe e569 11bf 9b24 233f
00000040: d2d8 123e 4d7f 073e d188 bebe ca4d 5f3f
00000050: 8536 37bf 357d 09bf 410a 97be 778e babe
00000060: b604 a73e 6e09 a63d 9c4d 21be 926b 803c
00000070: 25a9 9bbd c8ad f73e df3c 963d 8b84 31bf
-0.15473656 -0.74301475 -0.263428 0.12515187 0.6814405 0.7997025 -0.068435036 -0.7852789
-0.17021652 0.34685388 -0.6237332 -0.43258697 0.3158317 -0.28067055 -0.5680221 0.6372773
0.14340523 0.13232155 -0.37213758 0.8722807 -0.71567565 -0.53706676 -0.2950001 -0.36436817
0.32620782 0.08107267 -0.15752262 0.015676294 -0.07600621 0.48374772 0.07335829 -0.6934287

encoder.conv2.materials__links__concepts.att_dst f4 [1, 1, 32]
00000000: 835d 673d 7115 0e3e b436 aabd fb2d 753e
00000010: 6893 e6bd ab22 9e3e 7420 8f3d 8a9b 25be
00000020: 39f6 463e a565 3c3d 53b3 843e 03b4 8fbe
00000030: 5388 dbbe ebe4 30bb f053 16be 4a65 013e
00000040: 75f5 8abe e049 6c3e cee9 94bd 13fe e53e
00000050: a1ca c03d 3625 763d a784 9fbe 8173 6dbe
00000060: f592 013f e4cc 0cbd 064e 863e 6e92 de3e
00000070: b34b 0cbe e8d7 4abe 3944 ab3d dd37 8a3b
0.056485664 0.13875367 -0.08311215 0.23943321 -0.11258584 0.30885825 0.06988612 -0.16172615
0.19429864 0.045995373 0.25918064 -0.28067026 -0.42877445 -0.0026991914 -0.14680457 0.12636295
-0.27140394 0.23075056 -0.07271157 0.44920406 0.094136484 0.06009408 -0.31155893 -0.23188592
0.50614864 -0.034375086 0.26231402 0.43471092 -0.13700752 -0.19808924 0.08362622 0.004218085

encoder.conv2.materials__links__concepts.bias f4 [32]
00000000: bc63 b6bd 0af1 473d 0a88 da3d 5312 aebd
00000010: cbb6 0fbc a1a6 2e3c 7add 17bd f4af 063d
00000020: ae62 debc 15b5 07bd f686 3abd 9d56 b53a
00000030: a3f4 cbbd fceb 1dbd 9863 14b9 dd20 8dbd
00000040: 7c7a ddbd d2a4 d63c 9f8f 903d 67b7 45bc
00000050: 34eb 7c3d 099b 5cbd 8f91 c1bb 42d8 4dbd
00000060: f2a4 05be d2dd 82bd 5a47 bf3c e7da 77bd
00000070: 7866 8dbd 92eb 9dbd eed0 8c3d b74a 983d
-0.089057416 0.048813857 0.10670479 -0.08499589 -0.008771609 0.010659845 -0.03707645 0.032882646
-0.027146664 -0.033131678 -0.045538865 0.0013835017 -0.0995877 -0.03855513 -0.00014151481 -0.06891034
-0.10814378 0.02620164 0.070586435 -0.012067652 0.061747745 -0.05385879 -0.0059072445 -0.050255068
-0.13051203 -0.06389965 0.023349453 -0.060511496 -0.0690431 -0.07710947 0.06875788 0.07436126

encoder.conv2.materials__links__concepts.lin_src.weight f4 [32, 32]
00000000: d589 b6ba a8ae 0f3d 72d5 39bb e8fb 8c3e
00000010: 9001 53bc 309f 573d ff60 3e3c e89f 523e
00000020: d0ae 893d 21ff 2b3c 6735 613d ca95 243f
00000030: 5000 59be 79a7 6abf 91c5 b53e 26ba 86bf
00000040: 15c1 a43e 5e16 5abf 0fdf 78be 4815 593e
00000050: a25a 223e 2cda 89be 9010 3ebf 8595 eb3e
00000060: b181 bd3e d32d 8dbe be26 d3bc 5329 ed3e
00000070: ebc6 373f 6289 ee3d 5017 953e 2ca5 13bf
00000080: 1986 893e a4d1 7bbc 796f 98be f519 ca3d
00000090: ddc9 78be 07fa eabd 9cf3 503e 5a34 aabe
000000a0: a8e0 51be 7e0d 04be 3055 afbd 1e1c 303e
000000b0: adc5 823e 4b64 b83e 9bd8 a63d b6e9 e2be
000000c0: bfff 52bd 5eb0 60be c2c4 363f f07c 7f3e
000000d0: 345f eabd 15a8 5fbe 6e93 5c3f bb69 113f
000000e0: 6ed7 acbe 06f9 b43e 54a6 f83d fa17 d73e
000000f0: 6a9d b13e 463d 293e df6f 43bf 6e6c a03e
00000100: 8a0b 2d3f 8395 78bd 8ee7 67bf 60d4 a0be
00000110: 0f30 5b3e aa8e 163e 2037 44bd 82af c1bd
00000120: 27aa 1bbe 3b06 17be 6c43 fcbe 29ed 65be
00000130: b659 353e 4af0 1f3f 264a 0bbd 5f1a e9be
00000140: 64b4 26be c158 0a3f ed41 1a3f 999e 6ebd
00000150: 6673 cd3d a3ec 513f c5c9 c53f ab08 8bbd
00000160: 9621 0ebf 6618 2f3f 4faf c2bc 4d0f 15be
00000170: 8831 adbe 947d 75be ffc4 40bf 06a2 7d3f
00000180: 54eb 623e f786 913e 93cb a83e 4e3c 633e
00000190: f12f 88bd e592 a13d bfd0 3cbe ec7d cb3e
000001a0: 1ec2 9a3e 92e4 c23e 5cc5 4f3e 4c78 973e
000001b0: a29e 3dbe f539 30bf 6c1f 12bd d915 1fbf
000001c0: c211 613e 0109 b4be 58bf cabc 7859 8bbd
000001d0: 6fc1 d43c 2b27 a4be 2169 22bf 3bae 453e
000001e0: 6b2f f53e 375d c4be bc54 253e 3b0c d93e
000001f0: 9ebb dd3e f2cc 5c3e fe69 c6be c5a3 2fbf
00000200: 2d08 65be 616a 21be 8c66 cf3e 1691 ee3c
00000210: 3fcd de3d 55da 9b3d bbd8 18bd ff17 663e
00000220: c701 c63e 36ce aa3e 90ea 943e c5ea ef3e
00000230: 0c78 f0bc d5ff c7be 59d4 0c3f 905c 83be
00000240: 6b7e cabd d080 8ebe 4cd1 31be d497 363e
00000250: af72 053e c69e 30be f0bc 48bf f000 e73e
00000260: c963 db3e b50a febe 849e 1b3f 2e37 f23e
00000270: f194 253f 7e88 953e 6135 783e c347 7abd
00000280: 3134 0d3e df22 623e 4b2f 303f 2a49 a43e
00000290: 7aba 88be 20d8 7bbd 63c7 94bd 1ca1 9b3e
000002a0: ef53 9d3d 7aa6 c83e 68de e63e 6e35 173f
000002b0: abb8 06be 9170 9cbe 272e ab3e 1306 783e
000002c0: d8b1 a13e 90dc 8aba f4b0 06bb ae58 68bd
000002d0: e50c 3ebe f19f 7c3e a004 59bf 9cd8 2f3f
000002e0: 2654 273f c9e3 24bd 4d35 eb3e 0057 4e3e
000002f0: 1b8b 3e3e 32f0 efbd fb3d 133e 36e5 0dbf
00000300: 78f9 f03e e9f2 08be 97a3 d63d c6fc 8fbd
00000310: d95b a93e e5ec 893e 80f8 583e 6af1 cabe
00000320: 6803 9f3c b0b1 72be dcc0 613e 0f2b 2d3e
00000330: cb9a 383e 82d6 603f 8f3b dfbd 13aa 9dbe
00000340: f5d1 a9bd ed02 3c3e b806 05bb 39b0 ec3d
00000350: 0f86 b43d 69ad c73e d02e b33e 72ac 85bc
00000360: 05df b0be 4051 d73e 30fc 31be 2ecc c13e
00000370: 96fa 663c 69ea 5e3d e48f 0dbf b191 323e
00000380: c73c 053f 0907 97be 518e b4be 1cc4 a03e
00000390: 2673 9ebe c14c 863e 78d6 233e 7d9f 38be
000003a0: 6d56 4abe 0758 06be 4506 21bd f158 99be
000003b0: c90f 3ebe 52da c23e e893 6abe 06ed 373e
000003c0: 9f26 6b3e d44a a63e bebc b6be 4786 303e
000003d0: 2e3f 3bbe 24b7 73be 15c9 fd3e f29f 88be
000003e0: 03c2 953d 9db7 e5bd 7c50 9dbe b360 9e3d
000003f0: 39c8 88be d620 3f3e cbf6 7d3f 1905 153e
-0.0013926575 0.035078675 -0.0028355983 0.2753594 -0.0128787905 0.052642047 0.011619805 0.20568812
0.06722796 0.010497839 0.05498257 0.6429106 -0.21191525 -0.91661793 0.35502294 -1.0525558
0.3217856 -0.8519038 -0.2430384 0.21199524 0.15854886 -0.26924264 -0.7424402 0.46012512
0.3701301 -0.27574024 -0.02577531 0.4632059 0.717879 0.116472974 0.2911935 -0.5767391
0.2686012 -0.015369806 -0.29772547 0.09868232 -0.24295755 -0.1147347 0.2040543 -0.33243066
-0.20495856 -0.12895772 -0.0856117 0.17198226 0.2554144 0.36014017 0.08146783 -0.44318932
-0.05151343 -0.21942279 0.7139398 0.24950004 -0.1144394 -0.21841462 0.8616246 0.56801957
-0.3375811 0.3534624 0.121410996 0.4201048 0.3469041 0.1652728 -0.76342577 0.31332725
0.6759573 -0.06068946 -0.905877 -0.3141203 0.21405052 0.1470286 -0.047904134 -0.094573036
-0.15201627 -0.1474847 -0.4927019 -0.2245375 0.17710003 0.62476027 -0.03400626 -0.45527932
-0.16279751 0.5404168 0.60256845 -0.05825672 0.10031776 0.82001704 1.54522 -0.06788763
-0.5552 0.68396604 -0.023765234 -0.14556618 -0.33826852 -0.23973686 -0.7530059 0.99075353
0.22160083 0.28423283 0.32967815 0.22190973 -0.06649769 0.07889346 -0.18439005 0.39744508
0.30226225 0.3806501 0.2029013 0.29583967 -0.18517545 -0.68838435 -0.035674497 -0.6214271
0.2197943 -0.3516312 -0.024749443 -0.06804174 0.025971143 -0.32061133 -0.63441664 0.19304745
0.4788774 -0.38352367 0.16145605 0.42392144 0.43307203 0.21562555 -0.3875274 -0.6860927
-0.223664 -0.15763237 0.40507925 0.029121917 0.10878991 0.07610003 -0.037316065 0.22470091
0.3867323 0.3336045 0.29085207 0.46858802 -0.029354118 -0.39062372 0.55011517 -0.25656557
-0.098873936 -0.2783265 -0.17364997 0.17831355 0.1303203 -0.17248067 -0.78413296 0.45117903
0.42849568 -0.49617544 0.6078875 0.47307724 0.6468039 0.29205698 0.24239112 -0.061103594
0.1378944 0.22083615 0.68822163 0.3208707 -0.2670477 -0.06148541 -0.072645925 0.30396354
0.07682025 0.39189512 0.45091558 0.590659 -0.13156383 -0.3055463 0.3343365 0.24221067
0.31580997 -0.0010594297 -0.002055225 -0.056725197 -0.18559606 0.24670388 -0.8477268 0.68689895
0.65362775 -0.040256295 0.45939103 0.20150375 0.18607752 -0.117157355 0.14379112 -0.55427873
0.4706533 -0.13373913 0.10480421 -0.070306346 0.33077887 0.2693855 0.21188545 -0.3963731
0.019410804 -0.23700595 0.22046226 0.16910957 0.18027799 0.8782731 -0.10900032 -0.3079382
-0.08291999 0.18360491 -0.0020298194 0.11557049 0.08814632 0.3899949 0.34996653 -0.01631758
-0.3454515 0.42054176 -0.17381358 0.3785109 0.01409783 0.05442277 -0.55297685 0.1743839
0.52045864 -0.29497555 -0.3526483 0.3139962 -0.30947226 0.26230434 0.15999782 -0.1802959
-0.19759531 -0.13119517 -0.03931262 -0.2995067 -0.18560709 0.3805719 -0.22907984 0.17961511
0.22963952 0.32478964 -0.35690874 0.17238723 -0.1828582 -0.23800331 0.49567476 -0.2668453
0.073123954 -0.11216662 -0.30725467 0.07733288 -0.26715258 0.1866487 0.992047 0.14552726

encoder.conv2.materials__links__concepts.lin_dst.weight f4 [32, 32]
00000000: 903a 8ebd d43d 023e 6865 00be 231a d73c
00000010: 3689 0b3e a284 4d3c 2bdc 6e3e 1291 ce3d
00000020: 53dd 793e 5962 873e b131 bf3d 9bad 3d3b
00000030: c045 a7bc 2d20 adbd 40fb 9fbb 3cb8 a1bd
00000040: df28 863e da0d 95be b950 6fbd 8a5d 633e
00000050: d009 61be 40ca 3a3d d12d 7c3e ad80 3a3e
00000060: a88e e83d 0878 893e 533a 2cbe f7de 953d
00000070: 82f7 133e 6f80 21be 8909 33be 3866 263e
00000080: 0d01 863e 2a9d c63e c530 673e 9e9f aa3e
00000090: 1f73 ae3c 0ce3 a63e 1cb6 22bd c757 943c
000000a0: a683 7f3e f3a9 65be 634f 89be ad35 f83d
000000b0: 4ff4 96be e48f d2bd 149d 993d f050 53be
000000c0: 6ff0 633e d2d0 4cbe 5023 3c3e 717d d23d
000000d0: 6d75 cd3d 5ac6 003e e81a 333e 696c 1f3e
000000e0: e0f6 3c3e 0136 ed3c ac23 6bbe 45d8 5ebd
000000f0: 3564 13bd 9f95 92be b8da 89be 69cc 8cbe
00000100: 8427 103e 0097 003d a34f eebd ee75 0fba
00000110: c5f9 1e3e 83e2 9c3c 581e 4c3d 562d 113e
00000120: bb07 623e fb2d 5f3d 9919 c33d aede 403e
00000130: d362 6d3e 0295 a4bd 976c 27be 6105 723d
00000140: 7657 873e 493f f13d 4cc1 643e 35b5 37be
00000150: d8cd 18bd 7e11 b33e c4fe 673e bbd6 3ebe
00000160: 2595 76be 31f1 c43d 6006 6ebe ca40 25be
00000170: db73 62be 2040 23be 2195 b33e c2c3 9cbe
00000180: 5ae2 ecbc 5c7e b43e 3cd7 743c 2a22 963e
00000190: 2a3e 873d 4158 ccbd 250f aa3e c33b 22be
000001a0: 573b 503e ec31 763d c92e fe3d e00a f7bb
000001b0: 3cab 58be 5bf2 063d 7ce0 13be b9bf 9d3e
000001c0: c762 52be b20f 6c3d 7b53 f3bd ff31 803c
000001d0: ad76 0ebe 1f6f 8fbd 09a9 abbe 624f a33e
000001e0: 24eb c43c 5e7a 613d 8f00 66bd f789 9ebe
000001f0: 2f49 92be 1420 9a3e 3690 93bd 0c60 d33d
00000200: 4e82 6f3e b3a9 3d3d a898 1e3e 4ec5 2dbe
00000210: c7be d53d 5eaf dc3d ace0 92be de63 35be
00000220: 3ea7 223e 1f9f 983d e8c9 5b3e c4d2 db3d
00000230: e984 c4bb cc81 893e 56b9 70be 7567 9cbe
00000240: a036 973d 8c9d 5a3e d954 2d3e 7f8d 1fbe
00000250: faf6 46be 156b a43e 8be8 213e 66d4 f53d
00000260: ee70 7bbe 5e3e 97be 341c b3be 977e 87be
00000270: 1d53 5bbe 95cc 043e a1d2 71be f299 74be
00000280: 84ee 3c3e 3d20 b3bd f06e 4abe 0682 7e3d
00000290: b349 193e a8db 6d3e 3b4e 993d 18c9 81bc
000002a0: 9e84 2cbe 20aa 903e 72e5 4abe 0249 d03c
000002b0: 4ac5 9abe 17ad 3cbe 9817 9fbd 7efc 2dbe
000002c0: db5e 9a3e 1e55 2d3e 9600 86be 98ff 96be
000002d0: 8860 653c a3de 8fbe 0fb4 9ebd 025c 8f3e
000002e0: d22c 6abe b9ae 0abe ba89 953d 783d bb3d
000002f0: 0c0b 403e d867 8fbe 51d0 80be 206d 25bd
00000300: 03b5 febd 0130 c63e 6f28 2ebe 02ad 13be
00000310: 2da0 6d3e b873 c8bc 5892 2d3e d909 223e
00000320: 93a7 313e 95f1 71be 7d86 253e 81aa 4cbe
00000330: 0b10 46be ae22 84be 59d9 1ebe 9093 933e
00000340: 148d 253e f13f ac3e 5952 2e3e 8354 b2bd
00000350: 870a 65be d0bf eabd b57c 88be c604 16bd
00000360: 4ca4 88be fab7 b13a a386 af3e 08a9 883e
00000370: e7e2 3abe 4c4c 2fbe 6957 9ebe 5d31 8bbe
00000380: 1f57 87be 45d9 d6bd 69fa 07bd d0e3 7a3d
00000390: d305 99be 1608 86be a2a7 8a3d f281 95be
000003a0: bb15 683e cced abbe 7b28 423e e197 4abe
000003b0: b676 7fbc 2c72 213e c07a 623d 8b8c 2ebc
000003c0: 7f2f 833d 650c 09bd 7b5a 94bd b94f ca3d
000003d0: 97e5 a23d 39fd 333d fbfc e8bc 86ca 5b3d
000003e0: d674 263e d73d 39be 9274 373d 4e41 8abd
000003f0: a13d 99be 4e1e e8bd 9e00 ad3c d099 4dbe
-0.06944764 0.12718898 -0.12538683 0.02625758 0.1362656 0.012543829 0.23326175 0.10086264
0.24400835 0.2644222 0.0933565 0.0028942588 -0.020419002 -0.08453403 -0.0048822463 -0.07896468
0.26203057 -0.2911213 -0.058426592 0.22203651 -0.219764 0.045603037 0.24626853 0.18213148
0.113553345 0.2684939 -0.16819124 0.07317918 0.14449885 -0.1577165 -0.17484106 0.16249931
0.26172677 0.38791782 0.22577198 0.33324903 0.021295128 0.32595098 -0.039724454 0.018108262
0.24952564 -0.22428112 -0.2681838 0.12119613 -0.29483268 -0.10281351 0.075006634 -0.20636344
0.22259687 -0.20001534 0.18372846 0.10277832 0.10032163 0.12575665 0.17490733 0.15568699
0.1845355 0.028956415 -0.22962826 -0.05440547 -0.035984237 -0.28629777 -0.26924682 -0.27499703
0.14077574 0.031394005 -0.11636283 -0.000547259 0.15524967 0.019150978 0.049833626 0.1417745
0.22073261 0.05448721 0.09526367 0.18834946 0.2318223 -0.080362335 -0.16350017 0.05908716
0.26433915 0.11779649 0.22339362 -0.17940219 -0.037305683 0.34974283 0.22655779 -0.186366
-0.24080332 0.09616316 -0.2324462 -0.16137996 -0.22114508 -0.1594243 0.35074714 -0.306181
-0.028916527 0.35252655 0.014943894 0.2932294 0.06603654 -0.099777706 0.3321468 -0.1584311
0.20335136 0.060106203 0.12411267 -0.007539138 -0.2115907 0.032945972 -0.14441103 0.30810335
-0.20545493 0.057632156 -0.11881157 0.01564884 -0.13912459 -0.070036165 -0.335274 0.31896502
0.024037905 0.05504834 -0.056152876 -0.30964634 -0.2857146 0.301026 -0.072052404 0.10321054
0.23389551 0.046304416 0.15487921 -0.16969797 0.104367785 0.10775636 -0.28687036 -0.17713878
0.1588411 0.07452225 0.2146374 0.1073356 -0.0059972894 0.2685684 -0.235082 -0.3054768
0.07383466 0.21349162 0.16926898 -0.1558132 -0.19430152 0.32112947 0.15811364 0.120034024
-0.24554798 -0.2953977 -0.34982455 -0.26463768 -0.21418424 0.12968667 -0.23615505 -0.2388685
0.18450361 -0.08746383 -0.19768882 0.06213572 0.1496952 0.23228323 0.074856244 -0.01584296
-0.16847464 0.28254795 -0.19814089 0.025425438 -0.30228645 -0.18425404 -0.07768172 -0.1699085
0.30150494 0.16927001 -0.26172322 -0.29491878 0.014000066 -0.28099546 -0.07749187 0.27999884
-0.2286866 -0.13543214 0.0730166 0.091425836 0.18754214 -0.28008914 -0.25158933 -0.040387273
-0.12436869 0.387085 -0.17007612 -0.14421466 0.23205633 -0.024469241 0.16950357 0.15824069
0.1734908 -0.23627312 0.16164584 -0.19986917 -0.19342057 -0.25807709 -0.15512599 0.2882352
0.16167098 0.33642533 0.170236 -0.087075256 -0.22367297 -0.114623666 -0.26657644 -0.036625646
-0.2668785 0.0013558858 0.34282407 0.2669146 -0.18250619 -0.17118949 -0.30926064 -0.271861
-0.26433656 -0.104906596 -0.033197794 0.061252415 -0.29887256 -0.26178044 0.06770255 -0.29200703
0.2266454 -0.33579862 0.18960755 -0.197845 -0.015592268 0.1576621 0.055292845 -0.010653625
0.064055435 -0.033459086 -0.0724382 0.09878487 0.07953947 0.043942664 -0.028440943 0.05365994
0.16255507 -0.18089996 0.044788904 -0.06750737 -0.29929832 -0.11333905 0.021118458 -0.20078206

encoder.conv2.concepts__rev_links__materials.att_src f4 [1, 1, 32]
00000000: d99e 86be 1c8f 4dbb 95e3 40bd 093c b9bd
00000010: c441 8bbb 0b05 db3c 07d1 acbe c48c 8a3b
00000020: a9ca c7be 01c9 933e 9a2c 153e 30d3 0dbe
00000030: e370 afbe 08ca 8ebe 0ec2 2d3e c976 993d
00000040: b38b 083e 4c78 e03d 8b6c 7abd 3833 5f3e
00000050: c716 22be 2062 063f 29cd d13e 423a 1b3d
00000060: f3de 143e 7135 91be 2ec9 3abb 9c10 9b3e
00000070: 8225 acbe 0d5a b83d e60a 55be fbd8 cebd
-0.26293066 -0.0031365817 -0.04709204 -0.09044654 -0.004249783 0.026735803 -0.33753225 0.0042282064
-0.39021805 0.2886429 0.14567795 -0.13850093 -0.34265813 -0.27888513 0.16968557 0.074933596
0.13334541 0.10960445 -0.06113867 0.21796882 -0.15829001 0.52493477 0.40976837 0.037897356
0.14538173 -0.28361085 -0.002850126 0.3028611 -0.33622366 0.09001551 -0.20804939 -0.100999795

encoder.conv2.concepts__rev_links__materials.att_dst f4 [1, 1, 32]
00000000: 8721 b03e 4cef 3bbd 69b8 b83e 7d71 8e3e
00000010: 0ae2 493e 1aad 25bc 0b3e e5be db81 14bd
00000020: afe0 84be dd3f 4f3e 3b52 b3bd 3d35 cebe
00000030: 3785 13be 408f b13d eee8 0e3e a5ff 1c3d
00000040: ee24 573e eca9 97bd 71f6 373e 26bb 133e
00000050: 30b1 a93e 2afb 723d 9085 51be 7ae2 a03e
00000060: ace3 113e 17fb 533e b0f4 a5be 7430 29be
00000070: b01d f0bd 84cf 28bc 113f a6bd fce4 42be
0.3440058 -0.04588251 0.36078194 0.2782096 0.19715133 -0.010112071 -0.44773898 -0.036256652
-0.2595267 0.20239206 -0.087559186 -0.40274993 -0.14406286 0.08669901 0.13956043 0.03832974
0.21010181 -0.07405457 0.17965104 0.1442686 0.33142996 0.05932156 -0.20461106 0.31422788
0.14247006 0.20701252 -0.32413244 -0.1652239 -0.117244124 -0.010303382 -0.08117498 -0.19032663

encoder.conv2.concepts__rev_links__materials.bias f4 [32]
00000000: 1429 afbb 1bf8 3e3e 8877 a33d 8ab2 5d3e
00000010: addc 413c 5b86 1d3e db81 113d 5e74 37be
00000020: f16d 2e3e 74c6 d23d 1dc8 313e 8291 323c
00000030: 5527 d63d cc25 02bc ccbe 1dbd 21b5 213e
00000040: 78fe 953e 8aa9 1239 cb60 9dbc b196 883e
00000050: fd3b 7c3d 3c81 dcbd f96f 4abd 9472 413e
00000060: 5eba 09be 45fc d23d dd32 94bd eacd 8f3c
00000070: 48fb 15be 2bbf 3ebe 7c0c 603d a556 e83a
-0.005345473 0.18649332 0.07981783 0.21650138 0.011832398 0.15383284 0.03552423 -0.17915484
0.17034127 0.10291758 0.17361493 0.01089895 0.10456721 -0.007943582 -0.038512036 0.15791751
0.29295707 0.00013986803 -0.019211194 0.26677468 0.061580647 -0.10766837 -0.04942319 0.18891364
-0.1345 0.10302023 -0.07236264 0.017554242 -0.14646637 -0.18627612 0.054699406 0.0017726017
