model/model.pt (torch, 534101 bytes, 48 tensors)

encoder.conv1.materials__links__concepts.lin_l.weight f4 [64, 128]
00000000: 544a 1e3e 4597 0cbe d7d0 10bb 47bc 853e
00000010: 09f9 6dbd f31d 3f3d 7504 83bd f736 c23c
00000020: 2f20 4a3d d909 a83c 5d28 2a3e 4007 8a3d
00000030: 5089 18be 7459 95bd 7546 223e 61e8 ad3d
00000040: b7e2 a13e 0509 adbe 54bf 4fbc d249 733d
00000050: 4a38 e13d 8f8f cdbc ab74 20be e157 21be
00000060: 6736 013d 3882 cfbe 9d81 743c ba2e 0abe
00000070: 3088 4f3d 4eae 053e 0e38 4d3e 4f18 0b3e
00000080: 219d ce3e d413 2f3e 0aef 26be d353 37bd
00000090: 10bf 86bb 2864 023e edfc a3bc 221a f13d
000000a0: 3f74 c4bd ca83 7d3e 72d0 d83e a5dc 1bbe
000000b0: 25a6 67be 4d8a e7be 5c75 73bd d108 943c
000000c0: a022 cdbc fa1b 65bf 10b8 1d3e f570 42be
000000d0: b7a7 23be d5d5 1d3d 6c1b 283e d704 a63d
000000e0: fc6a f13d 60d4 76bf 4ab5 2dbc e63a d0be
000000f0: b762 31bd d2da 23bf f174 aebe bd1a 20bd
00000100: c615 703b 0090 633e 19ff d0bd b0e0 763d
00000110: bf7e 40be de7b cf3c 26ab 38be ef3d 633d
00000120: d406 d0bd 2037 af3c 8fef cabd e388 823e
00000130: c3a1 e9bc 04ec 4f3b 1e7d 95be 33c1 f9bd
00000140: 6022 10be 7ab0 963e 39dc 4b3e b9d1 26be
00000150: 5642 eabd 97bd 8abd feb9 6a3d c922 383d
00000160: 982b e9be 383c 543e f520 2bbe c03e d53e
00000170: f92c 87bc 0a6e 2bbc a085 0b3e 3999 febd
00000180: 4d3a a4bd db3b 313d 4f36 a33c fb9a ce3d
00000190: 7130 1e3d 7317 e1be 33a5 67bd 126a 81be
000001a0: 0b8c 55bd f94d 1f3e 5123 703b 0c03 1fbd
000001b0: 3458 1b3e eb44 22bb b3df fd3d 8e6f ac3d
000001c0: 5c44 99bd af4c af3d ac3c af3e 39ab 933e
000001d0: 356e c8be c11e 0b3d a371 c83d c8fc bc3c
000001e0: 934b db3e 9e5d 03be 3775 d13e 87a8 18be
000001f0: 1a2a babd de9b 28bd 809a 5b3e 9ca8 e1be
00000200: b81d 8ebd 6797 153e 7f37 64bd cb6b 9a3d
00000210: 774c 4fbd 4328 ac3d fb1b e03d 2119 27bc
00000220: 1648 003d de0c c3bd ba84 d9bc a6bf b53d
00000230: 0718 543e 178f 99bd a2ad ffbd f012 06bd
00000240: 87ff 1abd df63 73be 385d c13c d275 c6bb
00000250: 78db a4bd 7b46 97bd dc27 a53d 4b21 ac3c
00000260: d3dc dcbc 2579 f3be 59a8 0b3e c09a 48be
00000270: 513f 16be f3f5 99bc 16a6 463e 96ef 453d
00000280: eab9 34be 628b d1bb 51e0 45bd 9439 a3bd
00000290: a7b2 1fbe 59a0 1b3e d55b 86bd a777 a03d
000002a0: 56d4 e83d 2448 fdbd d732 a23d 9adb 03be
000002b0: 12af b93c 4ce7 bc3e 33ae 64be eb0f ccbd
000002c0: 660c 933e 7ede 67be e95a 193d 13a8 4d3d
000002d0: a5bc 96bd 6005 2bbd 5aa5 09be 4e7e cf3c
000002e0: c1f8 f8bd 161e 543e e3d1 923d 89b3 bc3c
000002f0: 6e26 0dbe 4d29 56bf d39b edbd 1e77 d0bd
00000300: fa41 033d cb5b 793c 4ed7 793d ec1c 1ebe
00000310: 99e6 2e3d ded3 9b3d 3c90 ca3c 404b d73d
00000320: 1af0 af3d cec1 413e 8480 223e 0e3d 9cbd
00000330: 69b6 02bc e37b 7cbc a84b bd3d 1d30 3bbd
00000340: 8fde bebd 3188 1cbc 8cf2 803e 3496 a7bd
00000350: fcd4 61bc e2de cf3c 9102 25bc d221 233e
00000360: 205a 57be 06b8 783c fae2 dcbd d9d7 533f
00000370: 20ad e13d 5b4a a33e ed1e 85bd 5d00 3e3d
00000380: 9704 7abb 4b6f 773d 1ddb 1ebe effd 5abc
00000390: 9886 1a3d 3b45 a73e 3f12 7d3d 2082 43bd
000003a0: 523d fe3d fff3 28be 8c0a f43c 5d24 363c
000003b0: 4a88 8b3d 3597 00bd c1bb 8fbd 980f 2c3e
000003c0: a681 19bd b9aa acbd ca5b bdbd cac6 a33e
000003d0: 7a0b ee3d c854 aa3d 2bb3 a93c efe1 dc3b
000003e0: 90a9 04bd 33cf b8bd a00b d13b 0645 aabd
000003f0: a414 903e 763d 4b3d c85f b0bd b589 d63b
0.15458041 -0.1372958 -0.0022097134 0.26120207 -0.058098827 0.04665942 -0.063973345 0.02370785
0.0493471 0.020512508 0.1661696 0.06739664 -0.1489613 -0.072924525 0.1584719 0.084915884
0.31618282 -0.33795944 -0.0126798935 0.059396572 0.109970644 -0.025092868 -0.15669505 -0.1575618
0.031546023 -0.40529037 0.01492348 -0.13494387 0.050666988 0.13054773 0.20040914 0.13583492
0.40354255 0.17097408 -0.16302124 -0.044757675 -0.004112132 0.12733519 -0.020018065 0.117725626
-0.09592485 0.24757305 0.4234653 -0.15220888 -0.22621973 -0.45222703 -0.059438094 0.01807061
-0.025040925 -0.89495814 0.15402246 -0.18988402 -0.15981947 0.038534004 0.1641671 0.08106392
0.11787984 -0.9641781 -0.010602305 -0.40669936 -0.043307032 -0.6400577 -0.34073594 -0.039088
0.0036634072 0.222229 -0.10204906 0.060272872 -0.1879835 0.02532762 -0.18034038 0.055478986
-0.10157552 0.02138859 -0.099089734 0.2549506 -0.028519517 0.003172637 -0.2919702 -0.12195053
-0.14075613 0.29431516 0.19908227 -0.1629094 -0.11438434 -0.06774443 0.057306282 0.04495505
-0.45541072 0.20726097 -0.16711791 0.41649437 -0.016500937 -0.010463247 0.13625193 -0.12431569
-0.080189325 0.043269973 0.019923357 0.10088154 0.038620416 -0.43963203 -0.05655403 -0.25276238
-0.05213551 0.15557088 0.0036642144 -0.038821265 0.15170366 -0.0024760317 0.12396183 0.08419715
-0.07483742 0.08559548 0.34225976 0.2884157 -0.3914658 0.033964876 0.097872995 0.023069754
0.42831096 -0.12828681 0.4090974 -0.14908038 -0.090900615 -0.04116427 0.21445656 -0.4407395
-0.06939262 0.14608537 -0.055716988 0.07540091 -0.050610032 0.08406117 0.10942837 -0.010198862
0.031318747 -0.095239386 -0.026552547 0.08874445 0.2071229 -0.07497995 -0.1248429 -0.032732904
-0.037841346 -0.23768567 0.02360402 -0.0060565257 -0.08049673 -0.0738649 0.08064243 0.02101197
-0.026960766 -0.47553363 0.13638438 -0.19590282 -0.14672591 -0.018794036 0.19399294 0.04832419
-0.17649046 -0.0063947896 -0.048309628 -0.079699665 -0.15595494 0.15197887 -0.06560484 0.07835322
0.11368625 -0.12367275 0.07919853 -0.1287674 0.022666488 0.36895216 -0.22332077 -0.099639736
0.28720397 -0.22643468 0.037440214 0.050209116 -0.073602 -0.041753173 -0.13441983 0.025328781
-0.12156821 0.20714602 0.07168939 0.023034828 -0.13784191 -0.8365677 -0.11601987 -0.1017897
0.032045342 0.015219639 0.060996346 -0.1544072 0.042700384 0.0760877 0.02472698 0.105124
0.085907176 0.18921587 0.15869337 -0.07628833 -0.00797806 -0.015410396 0.09242946 -0.04570018
-0.093197934 -0.009553955 0.2518505 -0.08182946 -0.01378369 0.025374833 -0.010071413 0.1593087
-0.21030474 0.015180593 -0.1078548 0.8275123 0.11019349 0.31892666 -0.06500039 0.046387065
-0.0038149708 0.06040887 -0.15513273 -0.013366207 0.037726015 0.32670006 0.06178498 -0.04773152
0.1241404 -0.16499327 0.029790185 0.011117068 0.068131045 -0.031394202 -0.07018233 0.16802824
-0.037477158 -0.08431 -0.09246023 0.31987602 0.11623283 0.08316952 0.020715317 0.0067408006
-0.03238827 -0.09023895 0.0063795596 -0.083139464 0.28140748 0.04961916 -0.08612019 0.0065471777

encoder.conv1.materials__links__concepts.lin_l.bias f4 [64]
00000000: 4d15 2d3e 31e9 8cbd 7dd6 263d f384 443d
00000010: b796 b5bc 692c 11bd 2491 b83d 1393 6f3c
00000020: 1153 293e e9cd 0cbe ee9a a03d b6ae b43d
00000030: 6021 2dbe 1249 4dbe 5f30 c53d d16e 06be
00000040: 87c5 153d 3081 1ebd bb86 7e3d 4491 193e
00000050: 185f a4bd a733 5a3d 3f18 16be 9318 a7bd
00000060: 240c 2bbd 5076 07be 362d d3bd cf1a 90bd
00000070: 79d1 623d 15de 87bd 00c6 e63d d75f bb3d
00000080: fd55 433d 458e 0bbd 9294 37be 56b1 bdbd
00000090: 24b5 48bc 099a f0bd 17a7 2d3d 1956 463d
000000a0: 682e d83d e469 1e3d d0bf 8abc b392 1f3e
000000b0: fc32 24bd 578b 8ebd 9164 3bbd 2428 2c3d
000000c0: 819a e03d 0667 2a3e d7cc 1f3e fa78 193e
000000d0: e519 4c3e 6b55 36bc 496a 5fbd 77e7 3fbd
000000e0: 7aad e7bd c0bf 913d 1ec2 92bd dea8 263c
000000f0: a7a1 4e3e 1d9c 573c 5cfb 0e3e eb63 ffbc
0.16902657 -0.06880415 0.040731896 0.047978353 -0.022166593 -0.035442743 0.090120584 0.014622468
0.16535594 -0.13750423 0.078420505 0.08822386 -0.16907263 -0.20047405 0.09628367 -0.1312821
0.03656533 -0.03869742 0.062140208 0.1499682 -0.0802595 0.053271916 -0.14657687 -0.08158984
-0.041759625 -0.13228726 -0.10311358 -0.07036363 0.05537555 -0.06634156 0.11268234 0.091491394
0.047689427 -0.034071226 -0.17927769 -0.0926234 -0.012250219 -0.1174813 0.042395677 0.048421953
0.10555726 0.038675204 -0.016937166 0.15583305 -0.040087685 -0.06960171 -0.045750204 0.04203047
0.10966969 0.16640863 0.15605484 0.14987555 0.19931753 -0.011128764 -0.05454472 -0.0468516
-0.11312385 0.071166515 -0.07165931 0.010172097 0.20178853 0.013159779 0.13963073 -0.031175574

encoder.conv1.materials__links__concepts.lin_r.weight f4 [64, 128]
00000000: 8c1d 523e 278a 86bd 291d 43bd 5aa5 6bbe
00000010: 991a 4ebd d876 65bc 718b cd3e 4d72 24be
00000020: c3a5 adbc 3ad7 dd3e 942f 07be 2ea1 c83e
00000030: 92d5 7e3a bf3f 1c3d 72d5 073f 0b61 18be
00000040: 56d2 4cbd c2e5 023d fa96 383e 8c3b ef3c
00000050: 5d0a e8bb 10de 0b3e 1a74 6fbd 4760 a9bd
00000060: 3bfd 9a3d dc81 ec3b f312 c13d 6dbd 36be
00000070: a2aa 4dbe f743 70be 3f5a 733c c3c0 53be
00000080: 12d5 b93c 7adf b1bd b7b7 bbbe f77e 0dbd
00000090: 80f5 9bbe 3169 4ebd 1f6d c63e 494c a63d
000000a0: 5d3a 38be a6a3 103d 91ce 1cbe 6093 2b3c
000000b0: f73c 22be 438b 06bc e4e9 60be 9cec 07be
000000c0: 2780 893e 39b2 3fbe 8517 033e d89d 37be
000000d0: d6b2 afbd 78c7 eb3e 172e 49be 7bee 603d
000000e0: 5cef 253c 4228 673c 1691 e23d 8598 e63d
000000f0: 4753 d1bd 616d b7be 85c4 a8be b6b9 af3e
00000100: 98d8 13be cc93 a1bd 807b b4bd a9fc 993d
00000110: 0217 073e fd6a a03d 96fb 9dbd 1f11 003d
00000120: bf47 a53e aa35 de3c 51a5 8abd 4337 963e
00000130: a2f7 bf3d 3cec de3e af90 843d 0ce5 2abe
00000140: d9fa b8bc a27e a9bd a0bc 1d3d 1a68 e23c
00000150: e06d 5ebd 505e 2f3e c131 913e 5ee6 33be
00000160: 5afd c7bd f05c 893e 15de 0f3d 5fcb 683d
00000170: fa6d 1abe cfcc 4ebd 50a8 b83e 5bb0 c73c
00000180: 50df d6bd dc75 88be c5b3 5a3d eaa7 603e
00000190: 63b7 3a3e 33ec 5dbe 2ca8 323e a612 213e
000001a0: ccdb bbbd fd0f 4f3d feb9 16be 8e7f 753d
000001b0: 66d6 d53d c7f1 b3bd eb25 dcbd af40 863c
000001c0: 343c c73c 17a7 833e 1c75 8a3e e56c 663c
000001d0: 41bc 45be e179 8a3d 5555 0abd c8fd d0bd
000001e0: dad4 b4be 86b6 503e af77 d7bd 9b90 d5bd
000001f0: 1720 83bc 3ed2 8abd 8ade 303e 57cb fcbd
00000200: 623a 8bbd 944c 87be cccc 793c bd5f 53bc
00000210: 598c ba3d d52e 2f3d fdd8 a13c 3512 c43d
00000220: 6675 983c c684 16be 0524 33be b28c 2bbe
00000230: df0d 91bc b83b 963d 9e47 5ebd c364 9fbe
00000240: 5f73 acbe 683e 353e 141e a23d 26c3 993d
00000250: fa37 42be 701e 1dbe 1f27 943d 4011 dc3e
00000260: 982b b03d af7f ba3d 1183 153d b51c efbd
00000270: 107e 57be c3cf ffbc 4bd7 903e a278 7cbe
00000280: 9b11 853d ec12 833d 57ec 653c 34dc 2f3e
00000290: c04c 613e 1871 ea3e fd45 1b3e 06a7 53be
000002a0: da2c 1cbd 5b44 19bc 83b7 ccbe e114 c1bd
000002b0: 7263 ad3d 9944 103e 2f2d b5bd 919a 33be
000002c0: b2d9 8e3d 36e9 933e b89a 17be 1d90 9e3e
000002d0: 67da 99be f902 0abe 8e14 de3d 3d27 3b3e
000002e0: af95 6dbd 0c4c c13d 62f9 7d3c 87e1 bfbe
000002f0: 0f90 09be c9f4 3b3d 800f b73d ccc8 833d
00000300: 6864 1a3e 6a7a 743d 6667 283d f5f4 593e
00000310: 84ed fabd 9aeb 97be f810 a1be cc4b 83bd
00000320: 84ff 43be 6ce2 1d3d 0ae3 c03d d698 b3be
00000330: ae23 c7bc dc69 933d 7623 013d 930d d63b
00000340: eaf5 4e3e a6aa 413e ec1e 243d f09a d33d
00000350: 8ae6 82be da30 593e 708f 19bd ed52 643e
00000360: 6843 343d 64bb f83d 3b1f 013e f887 5f3e
00000370: 0f01 d0bd ac90 eebc 30ed 863e facd a2bd
00000380: 2e63 2d3e 0c8c ec3d c951 1f3d 0092 5c3e
00000390: 6154 013d 2251 9b3e 187d a6be 5a59 96be
000003a0: d946 ccbd d8dc 27be 6c04 b9be 27af 963d
000003b0: 2353 e6bc 8b30 06bb 9b7c 093e bdf4 10be
000003c0: 819e 8b3d 3dcd 2cbc 4402 66b9 24e1 1c3d
000003d0: 62e1 223d 4494 fe3c 9e77 b93b e27b c8bd
000003e0: 7191 ac3e 686e 3b3e 1b89 563d d5cf abbd
000003f0: 125c 903e ffdd aabd 039d b73e 5d2c 69bd
0.20519084 -0.06569319 -0.04763523 -0.23012295 -0.050318334 -0.014005385 0.40145448 -0.16059227
-0.021197205 0.43328267 -0.13201743 0.3918547 0.00097211555 0.03814673 0.53060067 -0.14880769
-0.05000528 0.031957395 0.18026343 0.029203199 -0.0070813135 0.13658929 -0.058460332 -0.082703166
0.07567831 0.007217629 0.094274424 -0.17845698 -0.20084623 -0.23463427 0.014853059 -0.20679002
0.022684608 -0.08685203 -0.366636 -0.03454491 -0.3046074 -0.050393287 0.38755128 0.08120019
-0.17991014 0.035312317 -0.15313174 0.010472149 -0.15843569 -0.0082119135 -0.21964222 -0.13273853
0.26855585 -0.1872033 0.1280194 -0.17931306 -0.08579032 0.4605062 -0.19646488 0.054914933
0.0101278685 0.014108719 0.11062829 0.112595595 -0.10220962 -0.35825637 -0.32962433 0.34321374
-0.14438093 -0.07889518 -0.08812618 0.07518894 0.1319237 0.078329064 -0.07714002 0.031266328
0.322813 0.027125198 -0.06769813 0.29339036 0.09373404 0.43539608 0.06472909 -0.16688937
-0.022580551 -0.082761064 0.038509965 0.02763753 -0.054304004 0.17125821 0.28358272 -0.17568347
-0.0976512 0.26828718 0.035123903 0.056834575 -0.15081015 -0.05048829 0.36065912 0.024376085
-0.10491812 -0.2665242 0.053394098 0.21939054 0.18234019 -0.21672134 0.17446965 0.1572977
-0.09172782 0.050552357 -0.14719388 0.0599361 0.10441284 -0.0878635 -0.1074942 0.016388265
0.0243207 0.25713417 0.27042472 0.014064048 -0.19310094 0.06761528 -0.033772785 -0.10204655
-0.35318643 0.20382127 -0.10520875 -0.10427972 -0.016006513 -0.06778382 0.17272392 -0.123434715
-0.06798245 -0.26425612 0.015246581 -0.012901244 0.091088004 0.042769272 0.019756788 0.09573785
0.018610667 -0.14699087 -0.17494209 -0.1675289 -0.01770681 0.07335609 -0.05426752 -0.31131563
-0.3368177 0.17699587 0.07915893 0.07507925 -0.18966666 -0.15343642 0.07234024 0.4298191
0.08602065 0.09106385 0.036501948 -0.11675397 -0.21044183 -0.031226998 0.28289255 -0.24655393
0.064974986 0.064000934 0.014033399 0.17173845 0.22001934 0.4578941 0.15163417 -0.20669183
-0.03812871 -0.009354676 -0.39983758 -0.094278105 0.08466233 0.14088668 -0.08846509 -0.17539431
0.06975116 0.28888863 -0.14805114 0.30969325 -0.3004944 -0.13477696 0.10843764 0.18276687
-0.058004078 0.09438333 0.015501352 -0.3747675 -0.1343386 0.045887742 0.08938503 0.06434783
0.15077364 0.059687056 0.041114233 0.2128485 -0.12252334 -0.29671937 -0.3145826 -0.064109415
-0.1914044 0.03854601 0.09418304 -0.35077542 -0.024309006 0.071979254 0.03152796 0.00653238
0.20210996 0.18912753 0.040068552 0.10332286 -0.25566512 0.21210042 -0.03749031 0.22297259
0.044009596 0.12145117 0.1260957 0.21829212 -0.10156452 -0.02912172 0.26352835 -0.07949443
0.16932365 0.11550149 0.038896356 0.2154007 0.03157461 0.30335337 -0.32517314 -0.29365045
-0.099744506 -0.16392839 -0.36136186 0.073576264 -0.028115815 -0.0020475711 0.1342644 -0.1415586
0.068173416 -0.0105469795 -0.00021935353 0.03830065 0.039765723 0.031076558 0.0056600114 -0.09789254
0.33704713 0.18303835 0.052376848 -0.0838925 0.28195244 -0.08343124 0.35861978 -0.056927074

encoder.conv1.concepts__rev_links__materials.lin_l.weight f4 [64, 128]
00000000: ac79 cebd 5f74 a3bd d097 f03d 17a4 92bd
00000010: 1ae0 95bd fc89 bc3c 7c5c 90bc aed0 e6bd
00000020: 4de2 27bd 0091 303d 3310 82be c555 fabc
00000030: 587a 123e 3b8d fd3d a1cd c0bd d08c abbe
00000040: 9faf 973e ab0d 3e3d 03b5 3ebe d025 2ebe
00000050: 6dc1 69bd 5fa1 4fbe d3f8 0b3e 9de4 363e
00000060: eb18 e53d e9c1 adbe 9388 9f3c 3416 5d3d
00000070: 0097 c6bd 348b e73d d066 3d3e 6bba ea3c
00000080: 664b 143e b793 333e 82e3 aabd 4653 93bd
00000090: 331e b73d eb68 be3e 1404 a6be b858 373c
000000a0: ae00 11bd de14 2fbe a841 62be c240 97ba
000000b0: d34d 2e3d 8c9b 673c 247c 303e 6fa3 3b3e
000000c0: 99ca 843e 364f eabe faa3 20be 6878 a93e
000000d0: 678b 433c 8dad b53d dc54 99bd 0479 e6be
000000e0: 19ce 93bd 18b4 1b3e 1b5e e2bb bf26 593e
000000f0: b5a7 b33c 84e7 20bd 71d1 68be d6e3 01be
00000100: 68b8 b63d de97 e53e ed61 053d 2b79 343e
00000110: 8cb7 20bd fb66 67bc af48 05bd 2255 08bd
00000120: 3b10 dbbe 7d81 af3c 74f8 923c 67d6 8ebe
00000130: 78b0 123e 6eb2 10bd 6214 013e cd29 bbbe
00000140: 9f9b 973a 7a4a 12bd c404 91bd 1a47 b03d
00000150: 9863 47be e846 f6bd d659 773e 3006 56bd
00000160: e5e9 f8bd d3fb e13d 057a 91be 32bb 1e3d
00000170: 44b1 0cbe f6a9 56bd 5f0d 103e 2229 a43d
00000180: 78bb af3c 1c00 debc 2ea7 b13d f415 02be
00000190: b103 a0bd 84f8 ebbe 8f3e a63d 26e4 ce3d
000001a0: 16a7 91bd f1f1 91bc 4f8c 18be 7206 853d
000001b0: 0fbe 94be fd98 8abc 6fdb 7d3d 29ac 16be
000001c0: b11d 4ebd 0873 183e 45f0 13be 0239 6abc
000001d0: 4d6c 11be 0c01 c4bc c6d4 433d 8079 023d
000001e0: f0a1 ce3d a203 8c3e f360 6dbd 0fd7 dfbd
000001f0: 519d bdbd 24fa 943d 8085 683e 0805 83bd
00000200: 41c9 aebd b54b b2bc fc01 44bd a486 ccbd
00000210: 48b0 023c 04e5 153d eae6 533c 33a8 c1bc
00000220: 0885 6f3c fbd3 153d 35ba af3d 045a 10bd
00000230: 0519 fcbd 0844 683d f922 9abd 4d06 10bd
00000240: 133f 4e3d f420 cfbd 5963 3a3a cc48 69bd
00000250: 6bba ea3c ce0c 863d 689b ee3d 340f b13c
00000260: fc4b b9bd 8f41 f1bc 09cf 433d 279e c83d
00000270: 0013 b53c 2ae9 963d 45b5 863d fcf9 f9bd
00000280: 3757 20bd 8311 e5bd a240 18be c41e c53c
00000290: 9842 bebc 0fd8 bb3d 01da a4bd f52e 81bd
000002a0: f403 083e b808 34bd eead 5b3d bf50 e23d
000002b0: 4dcc dbbc d374 99bd c996 56bd 886b a1bd
000002c0: 3806 2a3d 3b96 fcbc b82c ff3d 0af8 16be
000002d0: ceb2 a13d 44cf f73d fc71 bb3d 3fb1 833d
000002e0: 7ade 0a3d d153 a2bc 2868 0a3d c4a0 28bd
000002f0: b0f2 debd 1d1e f5bd 23b7 a83d d2af 343c
00000300: 434c eabd bc9c 23be 000c 08be 5a92 9ebd
00000310: 95e7 81bd 0584 c8bd a52b cd3d 95bb 143e
00000320: d01a e0bc 9273 f23d d9d0 c53d 9c62 bc3d
00000330: 7392 07bd 8512 77bc a3c1 c53c ba83 47bd
00000340: 197f a73d a8dd 18be d765 2a3d c048 acbd
00000350: 4f11 08bd 266c bf3d 4f01 febd 3fa5 13be
00000360: c3cd 82bc d360 a13c c132 153e d595 1d3e
00000370: 5a9e 8f3d c91a 453d ae29 bebc 85b3 9ebd
00000380: 4074 cc3c 68a6 653c d646 0d3e 8ac4 393c
00000390: fc9a e23d 3781 12be e864 3c3d 3a4d 343e
000003a0: f5fa f0bd 2b49 b6bd c901 20be f2da 81bc
000003b0: f98b 223c ec33 6d3d be0f 4c3d e5a7 e53d
000003c0: a4d0 e93d 8d5b 8f3c 5cff d73b 54f4 cb3d
000003d0: d88b 6f3d 3660 433d 95d3 f4bc 1210 87bd
000003e0: f7dd f3bd a170 24be 05b6 a43d a050 c03d
000003f0: 9bb1 40bd d914 4b3d fa6b b63c 880d 8cbd
-0.10081801 -0.079811804 0.11747706 -0.07160204 -0.073181346 0.023015015 -0.017622225 -0.11270271
-0.0409873 0.043107033 -0.25402984 -0.030558476 0.14304483 0.12380453 -0.094142206 -0.3350587
0.29626176 0.046399754 -0.18623738 -0.17006612 -0.05706923 -0.20276402 0.13669138 0.17860647
0.11186393 -0.33937004 0.019474303 0.053976253 -0.0969677 0.11305848 0.18496251 0.028653344
0.14481887 0.17536817 -0.08344175 -0.071936175 0.08941307 0.3718942 -0.32424986 0.011190586
-0.03540104 -0.17097804 -0.22095358 -0.0011539685 0.042554688 0.014136206 0.17234856 0.18324064
0.2593582 -0.45763558 -0.15687552 0.33099675 0.011935092 0.08870993 -0.07486889 -0.45014203
-0.072170444 0.15205419 -0.006908191 0.21206187 0.021930555 -0.03928329 -0.22736146 -0.12684569
0.089218915 0.44842428 0.032564092 0.17624347 -0.039237544 -0.014123674 -0.03254002 -0.033284314
-0.4278582 0.02142405 0.017940737 -0.2789795 0.1432513 -0.035326414 0.12605432 -0.3655533
0.0011566764 -0.035715558 -0.07080987 0.086073115 -0.19471586 -0.12025243 0.24155363 -0.052251995
-0.12153987 0.1103436 -0.28413406 0.038752742 -0.13739496 -0.05240818 0.140676 0.08015658
0.021451697 -0.027099662 0.08674465 -0.12703687 -0.07813204 -0.4608804 0.08117401 0.101021096
-0.07111947 -0.017815562 -0.14897273 0.0649537 -0.29051253 -0.016918654 0.061976846 -0.14714111
-0.050321285 0.14887631 -0.14447124 -0.014295818 -0.1420147 -0.02392628 0.04781034 0.031854153
0.10089481 0.27346522 -0.057953786 -0.10929691 -0.09258521 0.07274273 0.22707176 -0.06397444
-0.0853448 -0.021764616 -0.047853455 -0.09986618 0.007976599 0.03659536 0.012933472 -0.023639774
0.014619119 0.036579113 0.08580438 -0.035242096 -0.123094596 0.056705505 -0.07526202 -0.03516226
0.05035312 -0.10113707 0.0007110141 -0.05695419 0.028653344 0.06545411 0.11650735 0.021613695
-0.09047696 -0.029450206 0.047804866 0.0979579 0.022103786 0.07368691 0.06577543 -0.12205884
-0.039145675 -0.11184981 -0.14868405 0.024062522 -0.023225114 0.09172069 -0.080493934 -0.063077845
0.13282758 -0.043953627 0.05363267 0.11050557 -0.026830817 -0.074929856 -0.052389894 -0.07881838
0.041509837 -0.030833354 0.12459701 -0.14743057 0.078954324 0.1210008 0.091526 0.064302914
0.033903576 -0.019815357 0.033790737 -0.041168943 -0.10886133 -0.11968634 0.082380556 0.011028247
-0.11440327 -0.15977758 -0.13285828 -0.07742758 -0.06342999 -0.09790806 0.1001809 0.14524682
-0.027356535 0.118384495 0.09658975 0.09198496 -0.03309865 -0.015080099 0.024140185 -0.04870961
0.08178539 -0.14928305 0.04160103 -0.084123135 -0.03321963 0.093467996 -0.12402593 -0.14418505
-0.015967255 0.01969949 0.14570142 0.15389188 0.07012625 0.048121247 -0.023213234 -0.077490844
0.024957776 0.014016725 0.13796553 0.0113383625 0.11064717 -0.14307104 0.04599467 0.17607585
-0.11766616 -0.089006744 -0.15625681 -0.015851472 0.009921067 0.057910845 0.0498197 0.11213664
0.11416748 0.01749971 0.0065917205 0.09958711 0.058482975 0.047699176 -0.029886046 -0.06594862
-0.11907571 -0.1605859 0.0804253 0.09390378 -0.047044378 0.04958043 0.022268284 -0.068385184

encoder.conv1.concepts__rev_links__materials.lin_l.bias f4 [64]
00000000: b76b 8d3a ed93 dbbc b9ca 4b3e b633 b43d
00000010: 9068 13be 77ed a23d bf2d 1b3e b638 9abd
00000020: 1387 08be d533 aabd 3cde 0c3e d073 1dbd
00000030: ec20 fc3d b562 f2bd 10dc 7e3d fa72 423e
00000040: 732d 11bc aa3c 173e dd34 403d 3547 b6bd
00000050: 5b0a 3b3e 6676 1cbe b1c3 26bd b531 e03d
00000060: f796 67bd 0063 3dbd 783c b4bc 3fc5 733d
00000070: 8590 2f3d b412 1b3c eff9 cfbd 90b9 7dbc
00000080: 6b03 6f3e cb1c 8fbd 1860 a2bd 439b 583e
00000090: 7277 5c3d 0dcb d8bd 908a bdbd 8c71 22bd
000000a0: 9917 e23e 3be3 033e 58c3 43bd 2753 723e
000000b0: 5095 e83c bb1b 7cbd ea7d f8bd 5594 173d
000000c0: b31a a0bd 6d28 be3d 61ac a3bd 7297 9c3d
000000d0: dd5b 053d aeba ddbd d7b0 5d3b 2ee1 6ebb
000000e0: fdf8 8bbd d7cc 8b3e 6899 4a3d f9c7 553e
000000f0: b0cd 1c3d 22f8 263d f2ee a0bd 6b3a bc3e
0.0010789548 -0.026803935 0.19901551 0.087989256 -0.14395356 0.07955449 0.1515417 -0.07530348
-0.13332777 -0.083106674 0.1375665 -0.038440526 0.12310967 -0.11835233 0.062221587 0.18989173
-0.008860934 0.14769235 0.046925414 -0.089003004 0.18265669 -0.1527954 -0.04071397 0.10946981
-0.056540456 -0.046236992 -0.02200149 0.05951428 0.042862434 0.009464908 -0.10155093 -0.015486136
0.23341148 -0.06987914 -0.07928485 0.21152978 0.05382485 -0.10585604 -0.09254944 -0.039659068
0.4415863 0.1287965 -0.047793716 0.23664533 0.02839151 -0.061549883 -0.12133391 0.037006695
-0.078175925 0.09285054 -0.07991863 0.076460734 0.03255831 -0.10826622 0.0033827329 -0.0036450136
-0.068346 0.27304718 0.049462706 0.20877065 0.038282096 0.04076398 -0.07858075 0.3676332

encoder.conv1.concepts__rev_links__materials.lin_r.weight f4 [64, 128]
00000000: 411b cc3d d5ee 803d 6286 c7bd 38a1 883d
00000010: 9b17 08bd 0cfb ba3b a3a1 bfbd fa9c c2bd
00000020: daee 853c 8706 1fbc d22a 223c 29c3 873d
00000030: dbf0 a13d c1d4 39bd 7d0b c33c d0fa 863d
00000040: eadf 23bd b20a b8bc 2a4c d4bc 65a8 c93d
00000050: 1b6c 3abc 5dc6 d53b c938 8abc b3be 3d3d
00000060: a3bc 9d3d c7b4 403e bbe7 2dbd 3857 ebbd
00000070: 452e cbbd 3620 0abe af79 3e3d 95e7 55bc
00000080: 6d71 8d3e 9ac4 9cbd a5e4 9d3b b4cd 373c
00000090: 4b04 803b daec 003e 2419 b4bd 537a 943d
000000a0: a49e 7abd d5f9 18be d504 5e3b a296 96bd
000000b0: 7c63 b33d 14ca 853d c984 90be 5419 2a3e
000000c0: 9c7d 42be d516 da3d f6d5 55bb 0fef a43d
000000d0: e0e0 8d3c 4b19 db3d d5ef 45bc 299b 4d3d
000000e0: 60b1 cebd ae7f f1be 3f7f 233e 2396 0ebe
000000f0: 7fc7 94bd 7a21 05bd ae4a a4bd 883b 843d
00000100: d3d4 15bd 73a2 8a3d 0f5d 0abe dc28 07be
00000110: 9647 813d 0e43 4d3d 2a49 47bd 832d 57bc
00000120: ae12 42bc 9d34 20bd 04a8 57be 9c75 64bb
00000130: 7da1 4d3d 5400 61bd e7a1 3fbd 7c2f d2bd
00000140: a8b1 e0bd 2c86 a23e 467e ebbd 7000 9b38
00000150: 6a3d 8a3a 0168 673d 2385 a13d a7ed 7a3d
00000160: a8a2 543c 55d6 fabc 10ba bfbd dde9 d53e
00000170: 1ee6 813d 7064 e33d 926a 1bbc c92b f1bc
00000180: bb7f 28bc 801a de3d 4591 a5be e330 4d3b
00000190: f456 673d 2975 c9be 1c19 983b 1fab 83bd
000001a0: 2f8a af3b cecb 913d d1dc 1dbc c811 013d
000001b0: 1397 b9bd 7d04 8f3c 2cee f83c 0f73 23bd
000001c0: b857 fd3b 9eb2 bebd 3b87 c1bb adce adbe
000001d0: 1cd1 98bd df87 7fbd 4d03 f83c 1a5a 323d
000001e0: e1a7 9b3d 782e 85bd 2509 e6bd 3154 153e
000001f0: 18e8 fc3c 61d8 883d 8f8e 853e fcec 153d
00000200: 5055 53bd b127 4cbc 5fae 9c3c 526b b8bd
00000210: 558c 2c3d f9c2 a23c e925 633d 5896 68bd
00000220: 434f e33d 5d07 dcbd ed0d 72bd 0367 8a3d
00000230: 1662 b23c d3c7 813d 1c8a 74bd a989 13bd
00000240: 9973 6a3a 9422 d73c d608 b63d 2310 1c3d
00000250: 988f 22bd 2bc2 7cbc 376e 0b3e f848 4f3d
00000260: 0a00 8f3d d0da 663c d819 18bd bca1 fbbc
00000270: 8eb3 27bd e9c4 923d 6ce8 a63d b5c1 d93b
00000280: e7aa 2dbd a42a b4bd 2863 d0bb 0075 973b
00000290: 3388 113d 27fb 1e3d e619 34bd 6824 833b
000002a0: 091e f03d a592 83bd 6582 60bd 67c7 f43c
000002b0: 5989 0cbd bc29 0d3c 053a b6bd e06b 53bd
000002c0: 1a5a 44bd 6ce4 b2bd 2b27 5e3d 64f4 05be
000002d0: 8172 4f3c 8767 abbc a00b 83bd e3d1 023e
000002e0: 1b16 92bd 5452 053e 8292 2cbd 6b5f b13d
000002f0: 11d0 6b3b 9f78 28be 8a1f 083d ab1d c6bd
00000300: 2b75 f7bc 30c8 203d e7e1 debd 5432 dfbd
00000310: 9e4f 973c 0a1e e53d 561c 673b 6842 c03d
00000320: de6f 41bd 39c7 a53d 4148 aa3a 1259 7ebd
00000330: f996 62bd 29c1 023c 8b67 913d 6911 72bd
00000340: 33df 08bd c9a3 f6bc 076c 023a 066c c03b
00000350: cdd4 6bbd e1b5 553d 4f25 f93c 2340 c53d
00000360: 77b4 923c 7796 74bd f679 a53c 49a0 e8bc
00000370: 9595 f63c 61f9 a23d 9888 11bc db77 55bd
00000380: c144 c6bc 6cab c93d 8c70 82bc 9fae dcbd
00000390: d62e b4bc 20fb e03d 40df 723c a5f7 e9ba
000003a0: 1cf5 463d 9f84 3b3c 98e5 053e 5d9b f53b
000003b0: d0b3 31bd cb76 483d 487b 1c3d 5808 f5bc
000003c0: 444d b4bc f207 07be 81c2 823b ac55 023d
000003d0: 497b b93d 492d 773d 8229 153d 4782 873b
000003e0: f39b febc d877 acbd d245 3dbd e271 b0bc
000003f0: 165b f7bc 1ce2 023b 4089 0e3d 5d45 8ebb
0.09966136 0.062955536 -0.09742428 0.06671375 -0.033225637 0.0057061967 -0.09357002 -0.09502597
0.016349245 -0.009706146 0.0098979045 0.06629021 0.07907268 -0.045368914 0.023809189 0.065908074
-0.040008463 -0.022466037 -0.025915224 0.09846572 -0.011378313 0.006523891 -0.01687278 0.046324443
0.07701995 0.18818961 -0.042457324 -0.11491245 -0.099209346 -0.1348885 0.046502765 -0.013055702
0.276256 -0.07654686 0.0048185163 0.011218477 0.0039067618 0.12590352 -0.08793858 0.07249894
-0.061186448 -0.14939053 0.0033877392 -0.0735295 0.087592095 0.06532684 -0.28226307 0.16611224
-0.18993229 0.10648886 -0.0032628751 0.08053409 0.017319143 0.106981836 -0.012081106 0.0501968
-0.10092425 -0.47167724 0.1596651 -0.1392446 -0.07264613 -0.03250263 -0.080220565 0.06456667
-0.036579918 0.06769266 -0.13512062 -0.1319918 0.06312482 0.050112776 -0.04865376 -0.013133409
-0.011845274 -0.039112676 -0.21060187 -0.003486014 0.050202835 -0.054931954 -0.04678526 -0.10262963
-0.10971385 0.3174299 -0.11498694 7.3910574e-05 0.0010546867 0.05649567 0.07886722 0.0612618
0.012978233 -0.03061978 -0.093616605 0.41779986 0.063427195 0.11103141 -0.009485858 -0.029439824
-0.01028436 0.10844898 -0.32337394 0.0031309656 0.05647941 -0.393472 0.004641665 -0.06429123
0.005357049 0.07118951 -0.009635166 0.0315111 -0.09062018 0.017458195 0.030387007 -0.03990465
0.007731404 -0.09311412 -0.0059060133 -0.33946744 -0.074617594 -0.062385436 0.030275011 0.04354296
0.0760038 -0.06503004 -0.11232213 0.14582898 0.03087239 0.06681896 0.26085326 0.03660296
-0.051595032 -0.012460635 0.019126115 -0.09004845 0.04212602 0.01986836 0.055456076 -0.056784004
0.11099102 -0.10743592 -0.059095312 0.06757929 0.021775287 0.063369416 -0.059702024 -0.036019955
0.0008943617 0.026261605 0.08888404 0.038101327 -0.039687723 -0.015427153 0.13616262 0.050606698
0.06982429 0.014090255 -0.03713402 -0.03071677 -0.04094272 0.07166464 0.081498 0.006645406
-0.042399313 -0.087971956 -0.0063594766 0.004622102 0.03553028 0.038813736 -0.04397001 0.0040021427
0.11724479 -0.064244546 -0.054811854 0.029880239 -0.034310672 0.008615907 -0.08897785 -0.05161655
-0.04793749 -0.08734974 0.054236572 -0.13081509 0.012661577 -0.02092339 -0.06398702 0.12775378
-0.071331225 0.13019687 -0.04213191 0.08660778 0.0035982172 -0.16452263 0.033233203 -0.096736275
-0.030207237 0.039253414 -0.10882931 -0.10898271 0.018470582 0.1118737 0.0035264692 0.09387666
-0.047225825 0.08094639 0.0012991504 -0.062096663 -0.05531976 0.007980623 0.070998274 -0.059098635
-0.033415984 -0.030107396 0.0004975204 0.0058722524 -0.05757599 0.052175406 0.030413298 0.09631374
0.017908318 -0.059713807 0.020199757 -0.028396742 0.030100623 0.079577215 -0.008882664 -0.052116256
-0.024202706 0.09847149 -0.015922807 -0.10775494 -0.02199499 0.10985398 0.014823735 -0.0017850293
0.0485736 0.011445194 0.13075864 0.0074953274 -0.043384373 0.048941415 0.038203508 -0.029911205
-0.0220095 -0.13186625 0.003990472 0.031819984 0.09056718 0.06034592 0.036416538 0.0041354033
-0.031080222 -0.08421296 -0.046209164 -0.021538679 -0.0301948 0.0019971197 0.03479886 -0.004341765

encoder.conv2.materials__links__concepts.lin_l.weight f4 [32, 64]
00000000: 27b1 70be dbde 013e c08c 723e 3599 7a3d
00000010: 071e babd 3de7 a0bd 4596 fb3c 03b8 3ebe
00000020: 2eda 183c 3e7d 0d3e 86f8 bfbc b626 133e
00000030: 3a61 ca3d d026 03bd 97fe 8cbe 711d 543e
00000040: fcfe 5e3c b2a1 7cbd 72ce 8d3d 4860 9bbd
00000050: 6d8c f3be 8624 8a3d 3762 8a3d 0fc7 68bd
00000060: 8cce 26be dfc1 97bc cd64 f53c 4370 9f3d
00000070: 965d 8abc 38ad c03b 82f8 fc3d 7b2e f7bc
00000080: 5230 e3bd 7167 8dbd 8bbf a8be b48d 48bb
00000090: dbe0 e0bc 43b4 15bd 8898 363b 6f82 e93c
000000a0: b843 0cbe ff7c a0be bf56 62be ac8a 9bbc
000000b0: 8b6f 0f3e 3627 5ebd f79c 08be d587 c0bc
000000c0: 9629 083e d650 3f3e 81df c4bc 276a db3d
000000d0: c43a 94be 3682 b23d 41ce bdbd 81fd 093e
000000e0: c0b0 d4bc 5b98 043e ea67 8e3d a4c0 18bd
000000f0: ad8c 693d fd3e 6abe 45c7 9bbd a34f bebd
00000100: 4198 483d 2e34 a93c 3ba4 183e 8646 2f3e
00000110: 4501 343e a76a 4b3e b05f b13e a924 39bb
00000120: fda7 f0bb 5d69 1e3e 5899 6b3e 97a3 01be
00000130: 2277 133e 17b2 7d3d 9245 7abc 5ec4 1e3e
00000140: ef6a e5bd 7139 a33e 0002 113e 1db5 223c
00000150: f3a8 523e b21f cdbd 4abb 013e 6fa5 063e
00000160: 50e8 c03d 2917 043e b27d c03a 019c 893d
00000170: 67f6 943e 40ae 55bd 9573 a0bc 0a5f 3d3d
00000180: cd32 0e3f c36f 933d 30cc c53d 72e8 ed3d
00000190: 70e9 113e 88a2 37bd 1842 033e f74e ee3d
000001a0: 95d6 b63e 3ed9 c73d 4a57 a33e 8724 bd3d
000001b0: d618 b3bd 50eb 1fbe 8b1c 1ebe 0981 d33c
000001c0: bc9f 4d3e 4eb9 663d 8b67 5f3c 1fba a43d
000001d0: ca52 d13d f7d5 3abb 9123 07be 6677 f23c
000001e0: 095e c0bd 855f 313e 04b0 e1bd dd37 c23e
000001f0: 224d 153e 0172 75bd eb29 423d 53ef 953e
00000200: e062 66be 59b3 71bd 9f55 ed3c fb9b 28bc
00000210: cf7b 1e3e 353f 83be 7a07 c23c 73f7 5dbe
00000220: 55e2 bc3d cf89 0bbe 0fad db3d d5fd b73d
00000230: 5555 f23d 0cb4 623d 02aa 0dbe 439c 1fbd
00000240: 162d c63c d4f0 d2bd 9a98 6e3e 8de9 93bc
00000250: 15e0 08be 959d 423d b36b 8dbb 0efe b5bd
00000260: 452f 89bd efb7 923d b995 923d 8f48 f73e
00000270: a282 f53d f683 26be bb47 bebd d32f 07bc
00000280: 1f5e 253e d424 dbbc c4a3 38be 45f3 bfbd
00000290: 5991 1dbe 3ca7 0ebe 2871 44bd c4c4 20be
000002a0: 6633 05bd 0455 78be 57eb dcbd 1639 52be
000002b0: d28c d43b 2203 883c be20 363e 70d7 87bc
000002c0: d6e0 acbd 5410 023e c118 1c3d ba85 a5bd
000002d0: c057 7dbe ed42 fdbd bc9e 3d3e a10c 2f3e
000002e0: 5a67 283d 6fba 123d 4fff 42be 031a 35bc
000002f0: cea8 56be 1ffe 11be 6f99 2dbe 91f5 ab3e
00000300: 83d7 f13d a809 403d fc43 87be f84e debd
00000310: b9f9 3cbe f3ce 55be f4f7 02be 1127 da3d
00000320: 3cd6 84bd 0317 52bd 29aa 6fbc 9db9 a53c
00000330: dc16 a8bd f414 92bd 1c6c d6bd 8901 32bd
00000340: 74a0 0dbd 1d52 393b feef 75be 1a49 163d
00000350: 3658 523c ed6a 26be 3da2 13bc 4fd6 893e
00000360: 3fdb 90bd 106b 30be 4df5 88be b73f 913e
00000370: 62a5 af3c dd0e 03be 1285 e3bd 7cc2 1cbe
00000380: 1cff 11be 3fdb 2dbe fdd7 423e b6c6 aebd
00000390: e6eb d5bd a183 f0bd 7b7c 07bd a122 3dbd
000003a0: 0e0a 173d d641 a83d eb05 54bd 03fd 9bbd
000003b0: 6b6b febd 4f25 10be 57d9 a33d 21fd f53b
000003c0: aed1 bdbc eeed 78be 4076 4f3b 1143 05be
000003d0: 668b 9c3e 2971 003c a54c 2d3d e092 6b39
000003e0: 7eac f4bb 2b50 86be fb79 d33c 7c84 1dbd
000003f0: 85ad 02bd 75e2 08be f708 1f3d 2d29 b03c
-0.23505078 0.12682669 0.23686504 0.061181266 -0.090877585 -0.07856605 0.030711303 -0.18624882
0.009329362 0.13817307 -0.023433935 0.14370236 0.09881826 -0.032019436 -0.27537987 0.20714356
0.013610598 -0.061677642 0.06924142 -0.075867236 -0.47568074 0.067452475 0.06757014 -0.056830462
-0.16289729 -0.018525062 0.029955292 0.07785084 -0.016890328 0.0058800243 0.123520866 -0.03017353
-0.11093201 -0.069044955 -0.32958636 -0.003060204 -0.02745097 -0.036548864 0.0027861912 0.028504578
-0.13697708 -0.31345364 -0.22103404 -0.018987022 0.14007394 -0.054236613 -0.13341127 -0.02350227
0.13297114 0.1868318 -0.024032356 0.10713606 -0.28951085 0.08716242 -0.092678554 0.1347561
-0.025963187 0.12948744 0.06953414 -0.03729309 0.057018925 -0.2287559 -0.07606367 -0.09292533
0.048973326 0.020654764 0.14906399 0.17116746 0.1757861 0.19864903 0.34643316 -0.002825061
-0.0073442445 0.1546988 0.23007715 -0.12660061 0.14400914 0.061937418 -0.015275376 0.15504596
-0.112020366 0.31879762 0.14160919 0.009930876 0.20572262 -0.10015811 0.12669101 0.13149045
0.0941931 0.1289946 0.0014685898 0.067192085 0.2909424 -0.05216813 -0.019586364 0.046233214
0.55546266 0.07199051 0.09658086 0.11616601 0.14249206 -0.044832736 0.12818182 0.11636155
0.35710588 0.097582325 0.31902534 0.09235483 -0.087449715 -0.15617108 -0.15440576 0.025818365
0.20080465 0.056329064 0.013635526 0.08043312 0.10220869 -0.002850888 -0.13197161 0.02959795
-0.09392936 0.17321594 -0.110199004 0.37933245 0.14580205 -0.059923176 0.047403257 0.29284152
-0.22498655 -0.05900893 0.028971491 -0.010291095 0.15476917 -0.2563416 0.023685206 -0.21676426
0.09222857 -0.13626789 0.10726368 0.089839615 0.11832682 0.055347487 -0.13834384 -0.038967382
0.02419142 -0.102998406 0.233004 -0.018055702 -0.1336673 0.047513563 -0.0043158173 -0.08886348
-0.06698469 0.07163989 0.071574636 0.48297545 0.11987807 -0.16261277 -0.09291025 -0.008251148
0.16149186 -0.02675096 -0.18031222 -0.09372572 -0.15387477 -0.13930982 -0.047959477 -0.1570006
-0.03251972 -0.24251181 -0.10787075 -0.20529589 0.0064865137 0.016603056 0.17785928 -0.01658222
-0.084413216 0.12701541 0.038109545 -0.08082147 -0.24740505 -0.12366281 0.18517584 0.17094661
0.04111419 0.03582233 -0.19042705 -0.011053565 -0.20962831 -0.14257096 -0.16953062 0.3358579
0.11808684 0.04688421 -0.26419055 -0.10854906 -0.18454637 -0.20879726 -0.12789899 0.106519826
-0.064861745 -0.051291477 -0.014627972 0.020230109 -0.08207485 -0.07132903 -0.10469839 -0.043458495
-0.03457685 0.0028277703 -0.24017331 0.03669081 0.012838414 -0.16251726 -0.009010849 0.26921317
-0.07073068 -0.17228341 -0.2674965 0.28368923 0.021441165 -0.12798639 -0.111093655 -0.15308565
-0.14257473 -0.16978167 0.19027705 -0.08533995 -0.10445385 -0.11743856 -0.0330777 -0.046175603
0.036874823 0.08215682 -0.051763456 -0.076166175 -0.12422832 -0.14076732 0.08000439 0.007506982
-0.023171272 -0.24309513 0.0031656176 -0.13013865 0.30575103 0.0078394795 0.042309422 0.00022466062
-0.0074668517 -0.26233038 0.025815 -0.038456425 -0.031903762 -0.13367637 0.03882691 0.02150401

encoder.conv2.materials__links__concepts.lin_l.bias f4 [32]
00000000: e4cd c7bd c429 38be 2447 b43d 33d2 9d3d
00000010: 6023 b3bd 46f6 b33d 0181 0b3e 435c 4e3d
00000020: 0c53 ab3c f33c abbc cf17 4abe f0ab a53d
00000030: 5ca1 15be 078e 403d 1c1d 1abd 117b f53d
00000040: d3a7 493b 5c92 193d 8389 153e 98a9 bb3b
00000050: afea d8bd e87d 7c3d 2385 c73d 3450 113d
00000060: ccf9 b9bd 9512 2d3e 52f9 483e ea98 1f3e
00000070: 0de4 00bd 9447 0abe 526d fc3d d19f 64be
-0.097560674 -0.17984682 0.088026315 0.07706108 -0.087469816 0.08787207 0.1362343 0.050380956
0.020913623 -0.020903086 -0.19735645 0.08089435 -0.14612335 0.047010448 -0.037625417 0.11986364
0.0030770197 0.037493095 0.14603238 0.0057270043 -0.10591637 0.06164351 0.09742191 0.03547688
-0.09080848 0.1690162 0.19626358 0.15585676 -0.031467486 -0.13503867 0.12325539 -0.2232659

encoder.conv2.materials__links__concepts.lin_r.weight f4 [32, 64]
00000000: 8dd9 933d 3324 88bd 87c3 c53d 9a47 c4bd
00000010: 2930 513e 33d8 35be 2c4f 983e 6718 c5ba
00000020: 99a0 bebd 8bd6 a33d 7c73 ca3d 10b1 de3b
00000030: d3fa 223d d0ac 3a3e c291 43bc 5db3 9b3d
00000040: 5b3f 08bd 9815 0fbe 0dc6 783d d579 2dbe
00000050: 87ba a4bb d48a 443e 8a66 2bbe 38ff c13d
00000060: da0b 6ebd c9cf 593d c647 03be 5d2a 2c3e
00000070: ab0a b53d f72c 2fbe 86d4 033e d943 9bbc
00000080: 5aea c5be 9570 b53d 9385 66bd 73ab 1ebe
00000090: b351 0cbd b323 22be 6604 3d3e f5ea f83c
000000a0: fdae 233e f1b2 b6bd edf5 b4bd 13e8 8f3d
000000b0: 11eb a73d 6100 9fbd 5cf5 34be 898d 46bd
000000c0: 93bf 813e a967 ccbc f5c2 20bd 442d ec3d
000000d0: b5ea 8a3d 52e0 0bbe b26a 003e b3a9 e33d
000000e0: 4d11 98be 4626 e43c fd40 e7bd d548 dfbd
000000f0: 1c0e 903d 1e96 4e3c 206e 873d dcb4 ad3d
00000100: 5c12 1ebc d9e8 2f3e eda6 bebc b241 1d3e
00000110: eb55 82be 5467 4f3e cfc7 9fbd 9a3e 5dbe
00000120: fee4 83bd f929 093c f262 a03d fbaa 1e3e
00000130: d934 263e 7517 c73e 1c8a b73d 6e7e bb3d
00000140: 96bc b9bc 956b f73d 06d3 153c 4123 b03a
00000150: 125a 0b3b dbc9 b4be 0927 543c 759d e53d
00000160: 8794 433c 819d 8fbd 4f58 f23d 346a 6abd
00000170: ad87 f2bd 0c39 933e 26dd 05be 7cd5 1cbe
00000180: 51c4 593d 1a2f 0e3b c7d0 763e 3c72 943e
00000190: 0144 243e 4fca 323e dac4 14bd 023a a73b
000001a0: 65ad b4bd 526e 0abd 3ae1 9c3d 4a9f 3abe
000001b0: e7bd 1a3e ce03 5b3d 092b a63d 2b31 4cbd
000001c0: 405b 803d 6f34 e9bb 0e41 75bd 5173 bbbc
000001d0: 02eb c4bd d1fe cb3b d46d 5b3c 6724 e83d
000001e0: 61e6 993e 7424 31be d85c c4bd fe41 dc3d
000001f0: 3b20 abbd fc13 7dba 6b40 a53c 54c7 95bc
00000200: ffb1 a1bd 8b18 dabd 4982 b93c cec8 30bd
00000210: 8918 563e d408 30be bc67 493d 2f10 013c
00000220: ed20 253e daf3 5d3d 3b32 0b3e 43bf 8f3d
00000230: afd3 413c 8453 623e 7f9f c43c afe6 1dbe
00000240: 1d51 c3bd 71da 34be 1968 53bd cb05 773d
00000250: 6888 13bc 4496 7c3e 689e 683d 79ae 0dbe
00000260: d58d cfbd 94d9 18bd 6ff8 813d 08be c63e
00000270: 927d 193e d90b b6be dcff 223e 4fd6 213e
00000280: bd0b 29be 091e 9fbc 51fe a1bd c386 223c
00000290: f569 3f3d 1c0f 99bb 5989 f83d c6b3 fe3d
000002a0: 7df7 8a3e 59a9 313d 625f abbd b78c 5c3e
000002b0: 8adf e13b 807c f9bd e424 afbd 66e0 d33b
000002c0: 65d0 203e 7216 4abd 4f55 273d 2c6d 803e
000002d0: 5c90 5a3e 80a8 c2bc fa36 5b3c b169 083e
000002e0: 6da4 28be 6b64 c23d b0ce 1a3e 042c 20be
000002f0: 6b12 eebc 37b9 ddbc 68fc f53d 5bde 34bd
00000300: f87a dbbd d602 2a3c ff69 a8bd 0730 19bd
00000310: 230d 293c 5152 a33d 24a4 1bbe 3e48 56bd
00000320: 2305 1d3e c3e5 acbc 7532 bfbd b45b 89bd
00000330: f985 3cbe 7c70 66be 14ad 85bd 5fe3 65bd
00000340: 3c18 a63c ec00 593d 7365 20bc d461 0d3d
00000350: 4662 87bd 67d9 483e aa8a 2b3e 268c 30be
00000360: 250e 5e3c 1bb2 173e 041c 753e 521a 3bbe
00000370: 3210 02bb 68ca 1a3c 21f8 173e bbb8 173d
00000380: 7ca6 6a3d 6e98 07be b859 52be b3ce 21ba
00000390: f335 473d 9518 a4bc 5182 8c3d 340e 283d
000003a0: 177b ce3d 0215 283e 5f34 613d 700b a9bd
000003b0: 03d9 f83d ff32 d8bc 0c2d 033e 415c 673d
000003c0: 96a2 16be 3e11 d03c 1df7 fb3b eeaf b9bc
000003d0: dc26 0c3b 1cb8 fd3d ee75 443d de3c c0bd
000003e0: 5a00 ecbb 1ef2 ed3d 99cb 023e 8d3f ec3d
000003f0: 8915 f83d f7f9 c03a 2aab 37be 4817 47be
0.07219229 -0.066475295 0.096564345 -0.095839694 0.20428528 -0.17758255 0.29747903 -0.001503718
-0.09307975 0.07999905 0.09885308 0.00679601 0.039789986 0.18229985 -0.011936607 0.0760257
-0.033263545 -0.13973081 0.06073575 -0.16941006 -0.0050271186 0.19193584 -0.16738334 0.09472507
-0.05811677 0.053176675 -0.12820348 0.16813035 0.088399254 -0.17106996 0.1287404 -0.01895325
-0.3865536 0.08859364 -0.05627973 -0.1549509 -0.034257602 -0.1583393 0.18458709 0.030385474
0.15984721 -0.08920849 -0.08835969 0.070266865 0.08199132 -0.07763744 -0.17671722 -0.048474822
0.25341472 -0.024951773 -0.039248426 0.11532071 0.06783048 -0.1365979 0.12540701 0.11116352
-0.297007 0.027850281 -0.112916924 -0.109025635 0.07033941 0.012609033 0.066128016 0.08481762
-0.009647932 0.17178668 -0.023272956 0.15357092 -0.25456175 0.2025426 -0.07801782 -0.21605912
-0.06440161 0.0083718235 0.07831372 0.15494911 0.16231097 0.38885084 0.08961889 0.09154974
-0.022672933 0.120810665 0.00914455 0.0013438241 0.0021263403 -0.35310254 0.01294876 0.11211673
0.011937267 -0.07012463 0.1183325 -0.05723019 -0.11842284 0.2875446 -0.13072643 -0.15315813
0.053165738 0.0021695555 0.2410308 0.28993404 0.16041566 0.17459987 -0.036320545 0.0051033506
-0.08822135 -0.033796616 0.07660146 -0.18224826 0.15111504 0.053470425 0.08113677 -0.049851578
0.062674046 -0.0071168463 -0.059876494 -0.022882136 -0.09615137 0.006225445 0.013392884 0.11335068
0.30058578 -0.17299062 -0.09588021 0.107547745 -0.08355757 -0.0009654162 0.020172318 -0.018283524
-0.07895278 -0.106492124 0.022645133 -0.043160252 0.20907797 -0.17190868 0.049171194 0.007877394
0.16125841 0.054187633 0.1359338 0.07018902 0.011830254 0.22102171 0.024001835 -0.1542003
-0.095369555 -0.17661454 -0.051612947 0.06030826 -0.00900469 0.24666697 0.056791693 -0.13836087
-0.10134474 -0.037316874 0.06346213 0.38816857 0.14989308 -0.35555914 0.15917915 0.15804408
-0.16508384 -0.019423502 -0.07909835 0.009919825 0.046731908 -0.0046709906 0.12135572 0.12436633
0.27141944 0.043374393 -0.08367802 0.21538053 0.006893103 -0.121819496 -0.08551958 0.0064659594
0.15704496 -0.04933781 0.04085284 0.25083292 0.21344131 -0.023761988 0.013379807 0.13321568
-0.16468973 0.094918095 0.15117908 -0.1564179 -0.029061517 -0.027065856 0.12011033 -0.044157367
-0.10716814 0.010376653 -0.08223342 -0.037399318 0.010318073 0.07974685 -0.15199333 -0.05231499
0.15333991 -0.021105653 -0.09335796 -0.06706944 -0.18410482 -0.22503847 -0.06527153 -0.05612504
0.020275228 0.052979395 -0.009789812 0.034517124 -0.06610541 0.19614182 0.16752115 -0.17240962
0.013553177 0.14814036 0.23936468 -0.18271759 -0.001984608 0.0094476715 0.14840747 0.037041407
0.057287678 -0.13241741 -0.20542037 -0.0006172463 0.048635434 -0.020031253 0.068607934 0.04102917
0.10082071 0.16414264 0.054981586 -0.08254135 0.12150767 -0.026391504 0.12810153 0.056484465
-0.14710459 0.025398847 0.0076893703 -0.022666898 0.0021385467 0.12388632 0.04796403 -0.093866095
-0.0072021903 0.11618446 0.12772979 0.11535559 0.121134825 0.0014722933 -0.17936388 -0.19442475

encoder.conv2.concepts__rev_links__materials.lin_l.weight f4 [32, 64]
00000000: b118 1abd b29f 44bb 7f94 53bc e36e 81bd
00000010: 8b4e 033e d65b cfbd e1b9 3b3e b0af 993c
00000020: 4393 de3d 56b5 69bc 6cc7 18bd 0299 07be
00000030: ab32 973d fab3 80be 28c5 f03d 3d68 fe3c
00000040: 76ed 73bd 0b50 1f3d bfd3 bf3c 60c7 6a3e
00000050: fb84 a23d 892c cc3c edbe 133e 4ce6 ecbc
00000060: f4a2 cc3d 611e 283e f116 03be 124e 893e
00000070: 958c 1a3d fb64 4fbd f496 14bd f371 2b3d
00000080: 8b11 173e 85fc d4bc de55 56b7 a72f 8e3d
00000090: f5f4 5abe 476a 0c3d d13d a03e 782d 91bd
000000a0: 5d09 533b 052d 85bc e66d c6bc c401 0a3b
000000b0: 9498 10be 10c2 6ebd 7f4c b83d 3d1e c0bb
000000c0: 92c8 b93d 3a8a 90bc c061 eb3d 99f0 3b3e
000000d0: 2d65 733e 04bf c5bb 824e 843d dc55 033e
000000e0: bd84 23be ae03 c4bd 4289 ecbd 8a8d 1f3d
000000f0: 689b 91bd 7797 4abd a8e8 cc3d 05e5 7dbd
00000100: de17 1abe c99e 75bd 7d63 1f3d fdd2 98ba
00000110: d40e 11bd 1ead f0bd 7d29 1fbe 9636 46be
00000120: c177 b5bd 1111 29be 9775 09be ec8a 10be
00000130: 1b3b dd3d 01f1 3a3e 7775 e5bd 05b5 7d3d
00000140: 109a 35bd ebb3 8e3d 8d05 18be 1ef4 09bd
00000150: 6eac d6bd f16b b43d e628 703c 5073 a23c
00000160: 8049 9bbc 47aa 70bd f353 b13d e6cd fbbe
00000170: d04c 213d 4789 d3bc 9613 5cbc 9e77 5abd
00000180: 4713 54be 0c95 6bbd 68d0 3f3c a81d 953d
00000190: 1556 df3c 6887 14be 4911 3ebe 537c 6dbe
000001a0: 4175 44be 9a0f 4dbe 7b16 bdbb fff6 24be
000001b0: e143 d53d 2643 febc 996b 00be 9912 57be
000001c0: 59fb afbd 4873 01bd 7474 31be 2db3 a63c
000001d0: 905e 9fbd a36b 0dbd 4a01 70bd 12e0 8dbe
000001e0: 618d 44bb 856c 4fbe 0ff1 2bbd a5a5 1dbe
000001f0: d78e f7bd 25bb e1bc 8a7d 46be 424e debd
00000200: 33ad 34be 6b21 2b3e 8c0f d0bd 7fa9 823d
00000210: 8921 25be 8862 9bbd ad9a 79bc 71d6 253d
00000220: a4eb f63b b8c1 113d 2c35 00be 6c0f e7bd
00000230: 39a0 2e3e 949c bb3e 74b8 83bd fdd6 703d
00000240: 9d58 53bd 409c 83bd a189 cc3b 9bc5 0cbd
00000250: bd97 e7bb 0241 d53d 1834 dabc 7dd1 06bd
00000260: bab9 de3c bd54 10be 0bd4 1b3d 300e 883c
00000270: 3927 51bc e404 03bd eb58 f2bd 7f71 01bd
00000280: 5ab9 09be b95b c53d abdc b93d 7764 9cbd
00000290: bbaf 3abd 433a 333c f91d 58be ccf7 613d
000002a0: 6da6 04be 7c4f d43c cd66 c9bc fb0d 3c3d
000002b0: dea1 113e 372e e73d 778e 27be 0b86 153d
000002c0: b58a 73bd a17e afbd 129d 27be f0e6 82be
000002d0: 3bb6 1f3c d53f 26be ff19 aa3d 7960 06be
000002e0: e25c 55bc 2787 bd3d 0872 a0bc 62dc 35be
000002f0: b4b8 bd3d f9a9 0abe 822f 4c3c ab44 5b3d
00000300: e090 a6bd f1e7 3d3e 76d1 f4bc 12e9 2bbd
00000310: 76ef bb3a 6a82 863d 560e 1fbe 83c9 a93c
00000320: cffb 44be a7ec 95bd 595f 713d 54d4 9ebc
00000330: c05c 1b3e 5d99 6b3d 6112 0abe 4c3b 82bc
00000340: 54d8 a2bd 0507 80bd cbe4 89ba ee99 34bd
00000350: 0def 013e fd58 e8bc 587a 28bd 0d48 b13d
00000360: 9340 d6bd 33d8 68bd ee58 1d3e cd66 b9be
00000370: 96d6 93bd 4d90 c33b 2852 4cbd 2af6 003e
00000380: 7503 75bc 82b3 1bbe ff9f 4d3d cf69 343d
00000390: 9b02 d13d c39a 32bd 3a87 57bd 2953 b6bd
000003a0: a4a4 01bd 3e0e 8fbd e47f 383e 1198 cdbd
000003b0: 2b91 013d 137a 043e 5a65 893d 48bf 9ebd
000003c0: cd46 4f3d 01d5 a83c a4da 04be d7af 26bd
000003d0: fa24 9abe a3d6 923c 271c 53bd 5e84 55be
000003e0: bc2d 56bc 2a1c 9c3c f9c6 2cbd 198b 50bd
000003f0: 7a53 6abd 71d9 18be 03b4 3f3d b9bb 2dbd
-0.037621204 -0.0030002412 -0.012913822 -0.06319978 0.1282293 -0.10124938 0.18332626 0.018760532
0.10867932 -0.014264425 -0.03729956 -0.13241962 0.07382711 -0.2513731 0.117563546 0.031055564
-0.059552632 0.038894694 0.023416398 0.22927618 0.0793552 0.02492358 0.14428301 -0.028918408
0.09992018 0.16417839 -0.1280172 0.26817375 0.037731726 -0.05063341 -0.036276773 0.041856717
0.14752786 -0.025999317 -1.27753865e-05 0.06942683 -0.21382506 0.03428104 0.31297162 -0.070887506
0.0032201626 -0.016256819 -0.024222326 0.0021058181 -0.14120704 -0.05829054 0.089989655 -0.0058629797
0.09071459 -0.017644037 0.11493254 0.183535 0.23769064 -0.0060347337 0.06460287 0.12825722
-0.15968604 -0.09571014 -0.11549617 0.03895334 -0.071097195 -0.049460854 0.10005313 -0.06198599
-0.15048167 -0.059965882 0.03891324 -0.0011659559 -0.03541453 -0.117517695 -0.1554317 -0.1935676
-0.08860732 -0.16510417 -0.13423763 -0.14115494 0.10802289 0.18255998 -0.11204045 0.06194021
-0.04433638 0.069679104 -0.14845867 -0.033680074 -0.10482107 0.08809651 0.014658188 0.019830376
-0.018955946 -0.05875614 0.0865859 -0.49180526 0.039379895 -0.025822295 -0.013432404 -0.053336732
-0.20710479 -0.05751519 0.011707403 0.07281047 0.027262727 -0.14504778 -0.18561281 -0.23191957
-0.19185354 -0.20025483 -0.005770502 -0.16109847 0.104133375 -0.031037878 -0.12541045 -0.21003188
-0.08592863 -0.03160408 -0.1732958 0.02034911 -0.07781708 -0.03452648 -0.05859498 -0.27710015
-0.0029991495 -0.2025624 -0.04197794 -0.1539522 -0.120877914 -0.027555058 -0.19383827 -0.1085477
-0.17644195 0.16711967 -0.10159215 0.06379985 -0.16126074 -0.07587153 -0.0152346315 0.04048771
0.007535415 0.035585135 -0.12520283 -0.11282238 0.17053308 0.36642897 -0.06431666 0.05879878
-0.05159818 -0.06426287 0.0062419926 -0.03436814 -0.007067649 0.1041279 -0.026636168 -0.032914627
0.02718817 -0.14094825 0.038044017 0.016608328 -0.012765699 -0.031987086 -0.11833366 -0.03160238
-0.13449612 0.09636635 0.09075292 -0.0763635 -0.045577746 0.010939184 -0.21105184 0.05516796
-0.12954111 0.025916807 -0.024585152 0.04591177 0.14221904 0.11288112 -0.1636294 0.036504786
-0.059458453 -0.085690744 -0.16368511 -0.25566816 0.009748037 -0.16235287 0.083057396 -0.13122739
-0.013022633 0.09254294 -0.019585624 -0.1775985 0.09263745 -0.13541402 0.012462499 0.053532284
-0.081331015 0.1854551 -0.029885035 -0.04197032 0.0014338333 0.06567843 -0.15532812 0.020725971
-0.19236682 -0.073205285 0.05892882 -0.019388355 0.151721 0.057519305 -0.13483573 -0.015897416
-0.079514176 -0.06251339 -0.0010520456 -0.04409211 0.12688847 -0.028362745 -0.0411323 0.08656321
-0.10461535 -0.05684681 0.15365955 -0.36211243 -0.072186634 0.0059681297 -0.049883038 0.12593904
-0.0149544375 -0.15205196 0.050201412 0.04404622 0.10205575 -0.043604624 -0.052619196 -0.0890258
-0.031651154 -0.06985138 0.18017536 -0.1003877 0.031632584 0.12937193 0.067087844 -0.07751328
0.05060463 0.02060938 -0.1297403 -0.040695038 -0.30106336 0.017924612 -0.05154052 -0.20851275
-0.013072427 0.019056398 -0.042181943 -0.050913904 -0.057208516 -0.14926697 0.046802532 -0.042415354

encoder.conv2.concepts__rev_links__materials.lin_l.bias f4 [32]
00000000: f086 623d 98b0 573d b333 663b b60c babc
00000010: d637 3dbe 8b13 d63d 3b7f 86bd adbb ad3c
00000020: a9de 07be c5e9 d83d d0a7 0d3d 0291 2db9
00000030: 5380 f73d a599 04be 9406 80bd 25d4 72bc
00000040: 9b27 433d 87c9 1d3e 33fc 6b3c e186 86bd
00000050: c4af d13b a964 5bbb ec96 45be a6bc 8d3d
00000060: 6287 83bd cbe6 083e 95a7 d6bd da06 1abd
00000070: 0883 a73d 80fb 93bd 367f b73c 9ed0 74bd
0.055304468 0.052658647 0.003512603 -0.02271114 -0.18478331 0.10452946 -0.06567236 0.021207655
-0.13268532 0.10591463 0.034583867 -0.00016552585 0.12085023 -0.12949236 -0.06251255 -0.014821087
0.047645193 0.15408908 0.014403391 -0.06568695 0.0063991267 -0.0033476746 -0.19295853 0.069207475
-0.064223066 0.1336929 -0.104811825 -0.03760419 0.08179289 -0.07225704 0.022399526 -0.059769265
