model/model.pt (torch, 534101 bytes, 48 tensors)

encoder.conv1.materials__links__concepts.lin_l.weight f4 [64, 128]
00000000: 1b11 ba3d 1187 0dbd 1ca4 e7bd 2564 513d
00000010: b019 2f3d bb31 a8bd 4519 d2bd 7e14 233d
00000020: fa98 a1bb c12c c13c 88e6 f73c 7b1e 1bbc
00000030: e922 41bd eaff 56be 157c f73d 5921 1abd
00000040: cadf 7d3e a9ba 46be 3347 24bd cdad 063e
00000050: b7c6 1c3e 575e 3a3e 513f 913b 69ac 5dbe
00000060: 6539 11bb 91b4 233e 4a6b 97bd 588e 27be
00000070: 36ca c9bc 1d75 85bd e4f3 73be d254 b83c
00000080: 0372 b43d 5725 d2bc 0883 4bbd 9abd 1abc
00000090: e7b9 593d c840 913c 2f51 ab3c 7729 15bd
000000a0: e5f8 16bd 2d61 3a3e 447d 943e db3d 713d
000000b0: 2bd0 3ebc c805 17bf 2ca5 8cbe a776 92bc
000000c0: 77cf 893d f6ec 87be 0c58 d83d 8785 0bbc
000000d0: dc1a 403d 636b 5b3d f8c0 5d3e a7a0 51bd
000000e0: db2b f7ba fee8 2bbf b600 d1bc 0612 f03b
000000f0: 3bb9 1b3d 36af 0bbf daee 333d d885 4c3d
00000100: e63c c53d 2654 783d 9290 113e 362b d53c
00000110: 39e2 72bd 409e f33b b460 84bd d06f 35bd
00000120: 0d62 4cbc 5e8c fbbd 0133 e3bd eb51 9b3e
00000130: 7210 293d 48bd 15bd cf71 97bc cfac 5abd
00000140: aa55 e8bd 937f 473e 486e 303e 0cc1 2dbd
00000150: 9bab 67bd 276e 543e bfed 8b3d 53a6 6f3d
00000160: fcfc ee3d 502b 863d e612 953d 6b9b 153e
00000170: c950 d1bd 486c 7f3e d643 cfbc 7446 f73d
00000180: a6e5 cebd d85a a6bd 20f7 6abf 2de5 033e
00000190: edb2 8b3b 3ae1 2d3e dc43 953c 1bec e73e
000001a0: 7a37 573e 0e6f 96bb 108c ae3c c814 babd
000001b0: ce37 9d3d c8a7 023e f23b 01bd fedc fc3d
000001c0: b044 523d daef 5b3d e10e bbbd c6d3 59bd
000001d0: 1512 a53d 108d d83d 59b2 0ebd ecee 7c3d
000001e0: 032a b43e bfc1 d5bd f392 0b3e 5296 473e
000001f0: 2f25 e03b ad4b 273d 40e6 753c 858c 5cbd
00000200: 5109 073e e061 c3bb a5f2 573d e1b9 983e
00000210: 2917 543d da59 b9bc aafe 30bd 430f 9fbc
00000220: 8776 5f3d 0a2f 20bd 2266 9dbd 14f1 94bb
00000230: 089e 143e 8b97 79bd 0977 b8bb 723d 49bc
00000240: 7b9c a13d b175 1ebe 3864 4f3d 3152 2d3e
00000250: 9229 a13d cea6 083e 4338 40be c0dc 69bd
00000260: e4c7 46bd 73d6 02bf 3580 883d bd33 883c
00000270: 6851 a73d fb37 debd 836a 2b3e 75b0 8c3d
00000280: 664f 0b3f 8fa2 f83d 6993 323e 44ac 9bbd
00000290: c767 cfbd 294f 06be 20f5 a6bd f581 603d
000002a0: db9b 34be 98a0 823d 8339 723c f547 00be
000002b0: 7719 0e3e a352 993d 01df a93c cd89 403e
000002c0: b420 1fbe 56ac d1bd a380 62bc 83a5 053e
000002d0: 1d91 c23c bbf0 f23d 4eea 05bc d9fd fe3c
000002e0: 5c0f 46bd bd3a 72bb f236 123e 0f65 56ba
000002f0: 43e1 0dbd 9a03 b2be 6d8d d93b abf7 c83d
00000300: 7a2e a3bc 9ff2 0f3e 3e70 743c 92bb 143d
00000310: 0d20 b2bd 968d b23d 05bb 2ebe 67f1 aa3d
00000320: cd40 473d 0b4d 9c3d 1f57 9f3d cc46 1a3e
00000330: 6879 1dbd 25b6 cd3c 4063 13be 4df6 a0bd
00000340: af72 38be 1c41 003f 9208 7d3e be6c 283d
00000350: 3255 433d 5fa1 02bd 9f33 35bc 13bc bbbc
00000360: dbee cabd 67b3 d93d ccc5 59be 588e 523f
00000370: c957 53bd e6e6 723c 2b42 9a3c 2cd9 bdbc
00000380: 54b1 2dbd 64dd 8c3d 5e43 01be 7ca6 353e
00000390: 98c8 a3bc 201e 6e3d 65ac 86bb 940e 87be
000003a0: 96eb 44be 977f bf3e bf18 b2bd 9e58 533e
000003b0: 7587 883d 37ee f93d 0256 67bb 64ce cabd
000003c0: 3690 a3be 4425 213c 7a94 203d 4c22 873d
000003d0: 1447 b8bd 9e76 7abe 97cc 5f3d abef 4e3d
000003e0: 35d2 aebc 2c9e 1b3e 8d1a 0bbe 0ede 1c3d
000003f0: ea9c be3e 7f7e 0a3d 40e8 3f3d d7da cbbd
0.09085294 -0.034552637 -0.11310598 0.051120896 0.042749107 -0.0821261 -0.10258726 0.039814465
-0.0049315663 0.02358091 0.030261293 -0.009467716 -0.047152434 -0.20996061 0.12084214 -0.03762946
0.247924 -0.19407143 -0.040106963 0.13152237 0.15310179 0.1820005 0.0044325967 -0.216478
-0.0022159454 0.1598685 -0.07393511 -0.16362894 -0.024632555 -0.06516478 -0.23823506 0.022501383
0.088108085 -0.02565257 -0.049685508 -0.009444619 0.053155806 0.017731085 0.020912735 -0.036416497
-0.036858458 0.18201132 0.2900182 0.05889688 -0.011646311 -0.58993196 -0.27469766 -0.017878843
0.06729024 -0.26547974 0.105636686 -0.008515722 0.046900615 0.05356921 0.21655643 -0.0511786
-0.0018857674 -0.6715239 -0.025513034 0.0073263673 0.038018446 -0.54564226 0.04392896 0.04993233
0.09630756 0.060627125 0.14215305 0.026021581 -0.059297774 0.0074346364 -0.06463757 -0.044296086
-0.012474549 -0.12282632 -0.110937126 0.30335936 0.04127545 -0.036557466 -0.018486885 -0.05338746
-0.11344464 0.1948226 0.17229569 -0.042420432 -0.05656014 0.20745145 0.06832456 0.05850823
0.11669347 0.0655123 0.07278995 0.14610069 -0.10220487 0.2494365 -0.025300901 0.12073985
-0.10102396 -0.08122796 -0.9178333 0.12880392 0.004263273 0.16980448 0.018220834 0.45297322
0.21017256 -0.0045908755 0.021307021 -0.09085995 0.076766595 0.12759316 -0.03155131 0.123468384
0.051335037 0.053695537 -0.09133697 -0.05318048 0.080600895 0.105737805 -0.034838054 0.06175129
0.35188302 -0.10437345 0.13630275 0.19490936 0.00684037 0.040843654 0.015008509 -0.053844947
0.13187148 -0.0059625953 0.05272164 0.29829314 0.0517799 -0.022625852 -0.043211617 -0.019416457
0.054556396 -0.03910736 -0.07685496 -0.0045453403 0.14513409 -0.06093554 -0.0056294245 -0.012282716
0.078911744 -0.15474583 0.050632685 0.16925885 0.07869257 0.13344881 -0.18771462 -0.05709529
-0.048530474 -0.51108474 0.066650786 0.016626233 0.08169824 -0.10850521 0.1673985 0.06869594
0.5441803 0.121403806 0.17439045 -0.076012164 -0.10127216 -0.13116135 -0.08152223 0.054811437
-0.17637579 0.06378287 0.01478422 -0.1252745 0.13876902 0.07486465 0.02073622 0.18802567
-0.15539819 -0.102379486 -0.013824615 0.13051419 0.023750836 0.11862322 -0.008173538 0.031126903
-0.04835449 -0.003696128 0.14278772 -0.0008178511 -0.034638654 -0.34768373 0.0066391737 0.09812864
-0.019919623 0.14057396 0.014919339 0.036311693 -0.086975195 0.087184116 -0.1706353 0.08346825
0.048645783 0.07631882 0.07780289 0.1506607 -0.03844586 0.025111267 -0.1439333 -0.07859478
-0.18012498 0.5009935 0.247103 0.04111933 0.04768867 -0.031892177 -0.011059671 -0.02291683
-0.09908839 0.106299214 -0.2126686 0.8224845 -0.05159739 0.014825558 0.01883038 -0.023174845
-0.04240544 0.068781644 -0.12623355 0.1773929 -0.019993111 0.0581342 -0.0041099065 -0.2637831
-0.19230494 0.3740203 -0.08696126 0.20639274 0.066664614 0.12203639 -0.0035299067 -0.09902647
-0.31945962 0.009835545 0.0392041 0.065983385 -0.08997932 -0.24459311 0.05463847 0.050521534
-0.021340469 0.15197057 -0.13584347 0.038297705 0.3722909 0.033812042 0.04685235 -0.0995385

encoder.conv1.materials__links__concepts.lin_l.bias f4 [64]
00000000: 2078 213e 1bb2 f63d 33a6 173e 8868 ca3c
00000010: 1fac b6bc 043a 3c3d dc4c ddbd 61f8 c0bd
00000020: 1df5 e23d 0f91 ce3d 30b3 193e 4607 43be
00000030: 6854 c83d 0250 083e 2f15 f4bc 1f4a 8bbc
00000040: c34e d6bd e54a 87bd 9fe7 22be a004 01bc
00000050: 1ad1 85bd ac84 963d f96c 1c3d 3a47 03bb
00000060: 031b 0c3e 357b 9cbc 3add b9bd 6ca6 73be
00000070: 92b8 22be 72b1 993d 89fd 15be 05aa 0b3e
00000080: 8d54 f6bd 0c68 84bd 5c58 cf3d b468 8b3c
00000090: 2093 d9bc 1c6d d0bd d75a 65bd 5642 c23d
000000a0: 8eb9 d0bd f3f3 8a3d 9b02 b4bd 61da fb3c
000000b0: 1136 fe3d ff0b 8bbd a279 393e 1e94 cabd
000000c0: 6549 8b3d 2b3f c23d 4d81 623e aebd 7e3d
000000d0: 72ad 20bd ff57 313d e5c2 8b3e 97f5 3a3d
000000e0: 4edb e7bd 12ae adbd 4e8e aebd 2792 1c3e
000000f0: 9e6f 0a3e 52ee b4bd 605d e2bd 370a 373e
0.1576848 0.1204569 0.14809494 0.024708048 -0.02229887 0.045953766 -0.108056754 -0.094223745
0.11081908 0.100862615 0.15009761 -0.19045743 0.09781724 0.1331177 -0.029795257 -0.017003117
-0.10464241 -0.06606082 -0.15908669 -0.007874638 -0.065340236 0.07349524 0.038189862 -0.0020031468
0.13682179 -0.019101718 -0.09075399 -0.23793954 -0.1589072 0.07504548 -0.14647497 0.13639076
-0.120278455 -0.06465158 0.10124275 0.0170177 -0.026559412 -0.10177061 -0.055994835 0.09485309
-0.10191642 0.06784811 -0.087895595 0.03074378 0.12412656 -0.067893974 0.18112805 -0.09891532
0.06801108 0.094847046 0.22119637 0.06219261 -0.03922791 0.04329681 0.2729713 0.04564437
-0.11321126 -0.08480467 -0.08523236 0.15290128 0.13519141 -0.088345185 -0.11052966 0.1787499

encoder.conv1.materials__links__concepts.lin_r.weight f4 [64, 128]
00000000: 8d08 7abe 6b47 383e 2bc1 e93d 3281 7f3e
00000010: b312 603e 6ebf d73d 2969 c13d 9210 643e
00000020: 7487 fd3d ec9f 333e 9c38 4e3e b281 343e
00000030: b973 9fbc 5e73 25be f49d 70be 3feb 1abd
00000040: 56b4 b7bc a4ee e83d 902a 30be a48b 3abe
00000050: e7b9 2a3d d27d a1bc 9685 803d 9fe4 46be
00000060: 08b6 4d3d b170 6cbe 3e57 ae3d f101 dabd
00000070: 2c76 0e3e 4229 e0bd efae e03d 55ab 43bc
00000080: 894d 6cbd 5bc4 7abe ef62 cebd bd6b dc3d
00000090: beed 82bd b692 82bd 3548 36be 11a6 1c3e
000000a0: 87c5 9fbd a3f0 8dbd 0092 67bd 4a6b 68bd
000000b0: 9f94 1b3e 0f61 453d a9ea d23d 667d 0c3d
000000c0: 1b5f 4c3d abe3 433d b2d0 c53d a663 02be
000000d0: cb1f c0bd 6e84 413c b8e0 bebb a0dc c43d
000000e0: 6898 3bbc fcd6 0e3e 3bda 913e 551c 153e
000000f0: 9de6 d63d 993e aabe aba7 c63d 9c06 2e3e
00000100: 7de5 f5bd daeb f23d daa0 8ebc 4f0e c6bc
00000110: a071 6d3d 7e31 50bd cc52 883e dd4d 973d
00000120: 2a06 b8be fb34 f9bb 1cc8 06be 69de 4a3e
00000130: 20b5 7bbd de6f 07be fa5a f1bb bfb7 0f3e
00000140: 0ee4 ffbc 14d5 843d cecc febc cb09 ed3d
00000150: 0168 8b3d adbd fa3d e073 643e 014c 513e
00000160: 0a73 723e 96e3 25be f5a6 7a3e dca2 a5bc
00000170: fe68 9b3d 5024 243d 9d8e 5f3d c3db fcbd
00000180: 1d8c 12be 4c62 41be 4123 86bd 99e1 bc3c
00000190: 7002 92bd 1d4b a2bd 4c9f 1c3e 103e c8bb
000001a0: 63f1 1e3e 2351 913e e168 3b3e bca7 cbbe
000001b0: 55f5 e33d fa97 7cbd 179d ccbd 7958 1fbe
000001c0: 5fe4 a0bc 906e adbb f570 1bbe 6665 ce3d
000001d0: 7fa8 aabe 26f7 163e c4d9 17be c44c d93c
000001e0: f9d3 73be 9f8b b23d 9fca 1a3d b141 403d
000001f0: a18b 81bd 284f cabd 461e 423e 0da7 7bbe
00000200: f5cd acbd ee32 943e e0b9 ea3d b7a2 76bd
00000210: ac05 2b3d 77cb 103e 72a5 333e fd89 10be
00000220: 904e d43d 2e79 683d c69e a4bd c4a8 f23d
00000230: d97d cbbc ec84 1bbe 37d6 a6be 0f3b 043d
00000240: 4793 04bc 494f d53d 2270 9dbd fad2 8fbd
00000250: ecfc cd3d 5548 843d 8866 353e 4359 883e
00000260: 1f77 f8bc 3f9c c9bc 0d5a 0e3e 2e17 d2bd
00000270: f6db a43d 5463 d6bd 5d83 0e3e d8bf 7fbd
00000280: 8d53 b7bc 5068 5fbe 0808 a6bd 35db 063d
00000290: 7024 06bf 82fe 6cbe 43c4 65be 2987 723e
000002a0: 4d41 17be f7e2 80be f4f0 1e3e 2123 6d3d
000002b0: 807e 63be c97e 653c fa0a 153e 7242 eabc
000002c0: 88af 7f3d a478 a4be 1d1d e1bc ede6 e4bd
000002d0: cfb4 b2bd 8f2f e23d 2bac f4bd 722a 533d
000002e0: bbea aebc c2d0 483e 48a2 e4bd 1d28 423e
000002f0: 8205 c2bd 8f6d 313d d6cb 023e e07b 33bf
00000300: f4a9 36bd 9f2f 993d b20d 133d 7a32 49bb
00000310: db4e 8d3d 1965 a43d 7905 74be aba6 833c
00000320: 62b7 10bd b5de e43b c18e 353e da07 843e
00000330: 30c1 9e3d 3d6b 3fbd bf63 1a3e ee7c f8bb
00000340: 8a53 d4bd ecf2 45be 58af 8bbd d850 0a3e
00000350: ab6c 03be e069 153e b684 973e 5576 363d
00000360: 3f98 263d 92a2 023e fb01 373e 7004 8c3e
00000370: b2d1 c5bd d679 a4bd 8bf3 0f3e a1aa e9bd
00000380: 5b30 803e edd0 8bbe 59a2 593d 3ba4 823d
00000390: f760 49be 5ad6 b5be 1832 03bd d552 81bd
000003a0: eb70 c0bd bd93 3fbe 5458 0abe bc81 e53a
000003b0: caf6 5bbd a7e2 7a3d 4580 1d3d 1aa8 8dbd
000003c0: ca0f b03d c65f 7d3d 0c14 46be e2f7 b4bd
000003d0: 2539 82be 282e 01be 8aff 27bb 526b 283d
000003e0: 4c88 4dbe ff2f 6dbe 60ce 263d c645 0fbc
000003f0: 892f 2a3d cc30 8cbe 1af3 aebd 11af dabd
-0.24417324 0.17995994 0.11413797 0.24951628 0.21882133 0.10534559 0.09443886 0.22271946
0.12379351 0.17541474 0.20138782 0.176276 -0.01946436 -0.1615729 -0.23497754 -0.037822004
-0.022424858 0.11373642 -0.17203736 -0.18217331 0.041681197 -0.019713316 0.062754795 -0.1942315
0.050222427 -0.23089863 0.08512734 -0.106449015 0.13912266 -0.10945369 0.10970866 -0.011942704
-0.05769113 -0.24488966 -0.10077464 0.10762737 -0.06393002 -0.06375639 -0.17800982 0.15297724
-0.07801347 -0.069306634 -0.05653572 -0.056742944 0.15193413 0.048188265 0.10298664 0.034299277
0.049895387 0.047824543 0.09658946 -0.12733325 -0.09381064 0.011811359 -0.0058251284 0.096123934
-0.011449911 0.13949198 0.2848681 0.14561589 0.10493205 -0.33250883 0.09699949 0.16994709
-0.12006662 0.11861391 -0.017410684 -0.024176745 0.05796969 -0.05082845 0.2662567 0.07387898
-0.35942203 -0.0076051927 -0.13162273 0.19811405 -0.06145203 -0.13226268 -0.0073655816 0.14034937
-0.031236675 0.06485954 -0.031103518 0.115741335 0.068069465 0.12243209 0.22309828 0.2043915
0.23676696 -0.16200098 0.24477752 -0.020219259 0.07588385 0.040073693 0.054579366 -0.12346604
-0.14311261 -0.18885154 -0.06549693 0.023056792 -0.07129371 -0.07924483 0.15295142 -0.006110914
0.15521769 0.28382215 0.18301727 -0.3977641 0.11130778 -0.061668374 -0.099909 -0.15561093
-0.019640146 -0.005292721 -0.15179808 0.10077934 -0.33331677 0.14742717 -0.14829165 0.026525863
-0.2381133 0.08718037 0.03779089 0.04693765 -0.0632546 -0.09878379 0.18956861 -0.24575444
-0.08437721 0.28945106 0.11461234 -0.06021377 0.041753456 0.14140116 0.17543581 -0.14115138
0.10366547 0.05675619 -0.08038096 0.11848596 -0.024840282 -0.15187424 -0.32585308 0.032282885
-0.008091754 0.10415513 -0.07687403 -0.070226625 0.10058007 0.06459109 0.17714894 0.266306
-0.030330239 -0.024610637 0.13901539 -0.102583274 0.08049767 -0.10468164 0.13917299 -0.062438816
-0.022378707 -0.21817136 -0.081070006 0.032923896 -0.5239935 -0.23143962 -0.22438149 0.23684372
-0.14771004 -0.2517316 0.15521604 0.05789483 -0.22216225 0.014007279 0.14554968 -0.028596137
0.06242326 -0.32123291 -0.027479703 -0.11176858 -0.08725893 0.11044227 -0.11946901 0.05155415
-0.021352163 0.19610885 -0.11163765 0.18960615 -0.09473707 0.043317374 0.1277307 -0.70110893
-0.044595674 0.07479786 0.035901733 -0.0030700252 0.06899806 0.08027095 -0.23830213 0.016070684
-0.035331137 0.0069845566 0.17730238 0.2578724 0.07751691 -0.04673313 0.15077113 -0.007583252
-0.10367496 -0.19330949 -0.068205535 0.13507402 -0.12834422 0.1459117 0.29593438 0.044546444
0.040672537 0.12757328 0.17871849 0.27347136 -0.09659137 -0.08031051 0.14057748 -0.11409498
0.25036892 -0.27307835 0.053133342 0.06378981 -0.19665895 -0.355151 -0.032030195 -0.06314627
-0.093965374 -0.18708701 -0.13510257 0.0017509977 -0.053702153 0.06125131 0.038452405 -0.069168285
0.085967615 0.061858915 -0.19343585 -0.088363424 -0.25434223 -0.12615263 -0.002563449 0.041117974
-0.20071524 -0.2316284 0.04072416 -0.008744663 0.04154924 -0.2738098 -0.08542462 -0.106779225

encoder.conv1.concepts__rev_links__materials.lin_l.weight f4 [64, 128]
00000000: 1a6e 2e3e f323 0f3e 726b dbbc 1e34 15be
00000010: f960 76be 500b 6abd 397f 4ebc 425c 00be
00000020: b336 0c3c ae25 36be 4e67 0bbe 63c2 c5be
00000030: ad2d d3bd b831 8c3e 94bc 373e 3d95 29be
00000040: 1d1c c1be cf5d 57be 2fa4 65be 17ff 38be
00000050: 15bc 5bbe c8a6 093e 9213 893e dcb5 433b
00000060: 7503 68be 3aea 0fbd 8aef 3a3e be02 a63d
00000070: aaac 4c3a cc2e c93d 301d 3e3e e5e6 4cbe
00000080: a177 373e bc99 e53d 0dcb 4e3e afdb 1bbe
00000090: 71e2 943e abc8 8abc f8ef 82bf 8477 b8bd
000000a0: eb3c 113e 5a53 2cbe 6097 5d3e 85c7 073e
000000b0: 21d6 ff3d 5c08 65bb 760b 7bbe bfae dbbd
000000c0: cd28 d73c 9fbf 10be e858 a73d 88f7 a53e
000000d0: 96b1 2ebd 637e 223e 284d a93d ca2f 933e
000000e0: 9236 0d3e 8909 e53b 6b78 993d 646a 353e
000000f0: a03d 62bd 3346 1a3e a09d 3dbd ef04 093f
00000100: bc8a 1dbd 3b23 97bc 22c6 3bbe 1bec 883e
00000110: 64b6 25be 2008 12bd 53c6 03bf 74a5 503e
00000120: 0128 7e3e c6f1 043e 8260 383e 1cae b2bd
00000130: bcac 403e f99e f73d e160 e4bd 5a15 0dbe
00000140: d20a a1be 894a 12be 7a68 72bd 5943 87bd
00000150: df01 c0be c0bf 753e 594b 6c3d 82f3 313e
00000160: 5b87 d23d ecfa 163e 0e68 bbbe 037e 423e
00000170: dbe4 bb3c a12d 87bd 502d 9bbc 8d7d ccbd
00000180: 9551 733d 1cb6 bf3e 1481 b13d 2318 eabe
00000190: 9ab8 063e 62b6 b03c 865a 043f 9255 4d3e
000001a0: 65d4 52be d1e8 64bd 7c79 1bbe 8e5e 1cbe
000001b0: 4c62 aabd 8f24 0f3e e624 06be 4dd1 e33d
000001c0: b257 a7ba 31f9 523e 0010 61be 1d60 813e
000001d0: 6fd4 9ebe 22d7 4ebd 4d11 e03d 4e40 9cbd
000001e0: 31b5 abbe 1cc8 8d3e 0b1c 573e 83a5 5a3e
000001f0: 6b9f 9dbd 20e3 343e 19bf 9e3e a6a8 04bd
00000200: a666 113e 4461 f93d 8b05 1abd 12dc 86bb
00000210: 6b8e bd3d 29ad 163e 8ec0 8a3d 754d bcbd
00000220: 9c28 d03d 8ad0 423d 556b e73d 3b5c b03c
00000230: 3ec4 983c b373 ed3d f31f 413d d157 023d
00000240: 4e6b 93bd 8ca3 593b d6ae 0bbe 6dfe dbbc
00000250: e075 06be b8b9 5f3b da59 013e ca9a d33d
00000260: 0b0f 92bd 84c4 633d f64e 153e 8d0a b03d
00000270: a00a b7bd 2a1e c23d bb39 7d3d 4d79 cfbd
00000280: 7ca7 80bd ff1a 9ebd ad79 07be ad80 f13d
00000290: 5b8a 27be 44bc 853b ec0c 2dbd e526 953d
000002a0: 2c29 c2bc edf6 7bbd c133 a83d 088a 6cbc
000002b0: 86b9 cfbb b9b8 4ebd 7694 b1bb 7446 c9bd
000002c0: 4f57 01be ef22 12be 6f53 94bc 4ee5 0fbc
000002d0: 3f97 2f3d 2482 b63d 7a22 903d e98c 2fbd
000002e0: f66d b93d 0a92 ec3c 3cdb b93d 21c0 0cbd
000002f0: 315b 58bd cf3e 29bd e92b bc3b 8427 9dbd
00000300: 18e5 91bb 039a b7bd ab7d 69bd 410e 04be
00000310: 140c f0bd c56a 213c 7e16 1d3e f707 fb3c
00000320: e4c5 d93d b540 593d 7b68 6dbd 0778 baba
00000330: 0645 a1bd c0e8 b53d 7cac e33c cb50 3e3d
00000340: e958 a93c eb5c 53bd 1ae1 abbc d366 9fbb
00000350: 742b 063e 432b eb3d 2076 f2bd 7cff c23c
00000360: 7ac9 c73d 3417 503d 407b 013e 1f76 1e3d
00000370: 3872 b13d b0ab 9f3d 12ab 973d 8ef7 49bc
00000380: 282a ee3b e65b 073d 2dee 993d d39e d93d
00000390: b3ac debc f49c 013e b04f 8b3d 2fe7 fdbb
000003a0: 9815 a0bd 0777 bdbd 0479 e4bd f700 3c3c
000003b0: 306c 023e a1c2 b13d b80a a4bc bcbb f1bb
000003c0: 3faa d23b 0033 61bd 892a 01bc 62a9 5f3d
000003d0: 6c8f 863d 3475 173c 5a4c c7bd 43c9 d8bc
000003e0: aa64 f4bd 864d cfbd a27a 073d c70b 143c
000003f0: 16f5 d63d 6ab2 a1bb 4c76 1abd fbdb a73c
0.17034188 0.13978557 -0.026784632 -0.14570662 -0.2406043 -0.057139695 -0.012603574 -0.12535194
0.008557963 -0.17787811 -0.13613626 -0.38624868 -0.10311446 0.27381682 0.1794303 -0.16560836
-0.3771676 -0.21031879 -0.22425912 -0.18066059 -0.21458466 0.13442528 0.26772743 0.0029863035
-0.22657569 -0.035135485 0.1825544 0.08105992 0.00078077114 0.09823379 0.18565822 -0.20009954
0.17916729 0.11210963 0.20194645 -0.15220521 0.2907901 -0.01694139 -1.0229483 -0.09007171
0.14183395 -0.16828671 0.21639776 0.13259704 0.12492014 -0.003494761 -0.24516091 -0.107266895
0.026264573 -0.14135598 0.081712544 0.32415414 -0.042649828 0.15868525 0.082666695 0.28747398
0.13790348 0.006989662 0.07493671 0.17716366 -0.05523455 0.15065841 -0.0462929 0.53523153
-0.038462386 -0.018449416 -0.183373 0.26742634 -0.16182858 -0.03565228 -0.51474494 0.20375615
0.24819948 0.12982854 0.18005565 -0.08724615 0.18815893 0.120908685 -0.11151291 -0.13777676
-0.31453568 -0.14286245 -0.059181668 -0.066046424 -0.37501428 0.23998928 0.057689045 0.17378047
0.10279723 0.14744157 -0.36602825 0.18993382 0.022936275 -0.066005 -0.018942505 -0.099848844
0.059403975 0.37443626 0.08667198 -0.4572154 0.13156357 0.021571342 0.5170063 0.20052174
-0.20588835 -0.055886094 -0.15183061 -0.15270445 -0.0831953 0.1397879 -0.13100013 0.11123905
-0.0012767224 0.20602871 -0.2197876 0.2526864 -0.3102145 -0.050498135 0.109408 -0.07629453
-0.33536676 0.27691734 0.21006791 0.213522 -0.07696422 0.17664766 0.3100517 -0.0323874
0.14199314 0.12176755 -0.037602942 -0.00411559 0.0925568 0.14714493 0.06775008 -0.09194461
0.101639956 0.04756216 0.11299769 0.021528354 0.018648263 0.115943335 0.04714961 0.03182203
-0.07198201 0.0033209054 -0.13640913 -0.026854718 -0.13130903 0.0034137797 0.12631932 0.10332258
-0.071317755 0.055607334 0.14580902 0.085957624 -0.089375734 0.094784096 0.061822634 -0.10130558
-0.06281945 -0.07719993 -0.1323001 0.11792121 -0.16361372 0.004081281 -0.04224865 0.07282809
-0.023701273 -0.061514784 0.08212996 -0.014437206 -0.006339255 -0.050469134 -0.0054193093 -0.09827891
-0.12630962 -0.14271139 -0.01810619 -0.008782698 0.04286885 0.08911541 0.07037826 -0.04285899
0.090541765 0.02887823 0.09075019 -0.034362916 -0.052821342 -0.041319665 0.005742539 -0.07673553
-0.004452359 -0.08964922 -0.057004612 -0.12896062 -0.11721054 0.009852116 0.15340611 0.030643446
0.10633448 0.053040225 -0.05796097 -0.0014226445 -0.07874493 0.08882284 0.027792208 0.04646377
0.020672278 -0.051602285 -0.02098136 -0.0048645525 0.13102514 0.11482861 -0.11838937 0.023803465
0.097552255 0.05080338 0.12644672 0.038686868 0.086643636 0.07796419 0.07405676 -0.012327088
0.007268209 0.033046626 0.075161316 0.106259964 -0.027181959 0.12657529 0.068023086 -0.0077485065
-0.07816619 -0.09251218 -0.111558944 0.011474839 0.12736583 0.08679701 -0.020024642 -0.007377116
0.0064289863 -0.054980278 -0.007883676 0.054604895 0.06570324 0.009244252 -0.0973136 -0.026463157
-0.11933263 -0.10122208 0.033075936 0.009036011 0.10495965 -0.0049345987 -0.037710473 0.020490637

encoder.conv1.concepts__rev_links__materials.lin_l.bias f4 [64]
00000000: b36d 8e3e 768f c63c fb89 01be b63f cebd
00000010: c887 ee3b 4cd4 83bd 4fe3 433d e881 9a3d
00000020: 8041 f43d 8fa5 4c3d 3e45 0dbe c562 98bc
00000030: c9f0 a13d 8120 14bc f294 0e3d 7436 4bbd
00000040: 3e45 0abd cad0 e7bd 80cf b2bd a72d 8cba
00000050: 61fe 2c3c 1913 053e ad96 a1bd 12d9 da3c
00000060: 9c6e 003f 36c5 9fbd f789 41bc fd67 903c
00000070: 3138 5fbc 2424 8bbd d5ae a63d 9733 edbc
00000080: 7d9d 113e 9612 68bd b95d 0c3d 0cc4 873c
00000090: 1860 213c 37da db3c f6a6 ecbd 2cdb a3bd
000000a0: f5ef b0bd 5c85 d3bc ea9d 92bd 739e 99bd
000000b0: 43b9 23bd fbeb ffbd 9943 a33c 1ca1 46bd
000000c0: 6bc5 af3e 6447 bc3c f149 2e3d 1071 12be
000000d0: abe2 c03e 8442 2f3d 1052 243e 6201 08be
000000e0: 4cff 07bd b375 843c dff2 933e da8f 4cbd
000000f0: 9472 03be ad4b 443c a096 ce3c 099b 28bd
0.2781807 0.02423833 -0.12650292 -0.10070746 0.00727937 -0.06436977 0.0478242 0.07544309
0.11926556 0.049962576 -0.13795945 -0.018601784 0.07907254 -0.009040953 0.034810014 -0.049612477
-0.03375744 -0.1131912 -0.08730984 -0.0010694758 0.0105586955 0.12995566 -0.07890067 0.026714835
0.50168777 -0.07801287 -0.011812679 0.01762771 -0.013624237 -0.06794003 0.08138815 -0.028955264
0.14220233 -0.05665835 0.03426907 0.016572975 0.009849571 0.026837451 -0.11555283 -0.08000788
-0.08639518 -0.025820427 -0.07159026 -0.07500925 -0.0399716 -0.124961816 0.019929694 -0.04849349
0.34330305 0.02298326 0.042550985 -0.14300942 0.37672934 0.042788044 0.1604693 -0.13281778
-0.033202454 0.016169405 0.28896233 -0.049941875 -0.12836677 0.011980933 0.025218308 -0.041163478

encoder.conv1.concepts__rev_links__materials.lin_r.weight f4 [64, 128]
00000000: 6481 453e b95a 03be a261 e1bd d38d 773c
00000010: 0402 af3d 6517 23bd b03c a5bd 9334 343d
00000020: 42a1 d4bd 4c27 3a3e 06f5 93bd d91c cabd
00000030: 8d62 04bd 3461 38be 5e8c 33bc 1080 903d
00000040: 0a4d c53d b016 68bd cb95 aabd ce17 483d
00000050: d94a cf3d 0149 693d f6e9 b3bd 946d 1ebe
00000060: 3127 16bd bd1a 02bf a2ad 44be 37f0 debc
00000070: bbad 4a3e 3cf4 40bd a0a9 eabd 1a8a 0b3e
00000080: b1d1 f0bd d938 2a3d 06f3 c8bd e26b bd3d
00000090: 4a82 0d3e c0ba 203d a4fc a0bc 33c0 56be
000000a0: 163d fcbd 172b 543e fb47 c23d 8a28 52be
000000b0: 97b1 8a3c dab5 16bf 2c2c 2c3e 9afc 9bbd
000000c0: 191f 4e3c 42b9 a2be 40b9 3c3e 3abb da3d
000000d0: 17ad 8bbd 3035 cb3d 9d0e 753c 74ef 49be
000000e0: 0081 933c 81c4 cdbe ae19 39bd 1122 77bc
000000f0: c07f 203e 679c a2be 7bc1 413d c1d9 e53d
00000100: 6094 733d 4746 cdbd bedb 213e 616a 243e
00000110: a622 25be c7ad 41be 6d71 48be 3f24 0fbe
00000120: 4f6d 2fbe d009 13bd 03b9 dd3d 7c32 c73e
00000130: 6736 e1bd 3900 013d a4c6 cabd e737 9e3d
00000140: 9da2 11be c5b0 d93e 3050 2c3e 9efa 003d
00000150: 01e6 ca3d 3e18 993d f900 2cbd dde2 2fbe
00000160: 62b8 e9bd 178e d73d 8b50 b7be c621 503e
00000170: ab9a b6bd f533 5abd b309 8d3d 017f 423e
00000180: 1bd4 fbbd 5267 26be e106 96be 1f12 cc3b
00000190: 5ddd 5dbc 13fa d23e 362d 043d 4684 673c
000001a0: 3a17 f6bd e955 633e ac3c e13c f319 02be
000001b0: afad 6f3b 1807 dcb9 6766 d43d 8274 03be
000001c0: d2cb 5abe 1e5e ba3d 93c3 543d e818 8b3e
000001d0: 95f1 85bc f2cc cc3d 6bb2 f43d 75ce a43d
000001e0: 9517 d93d 195c 753d 062a b53d 6703 073e
000001f0: 76d4 863e 0239 15be 0802 cc3c 4702 1cbe
00000200: f9b5 ffbd c5e3 a73c 569f c73d a74c 013c
00000210: b477 babd d5ba 10bc 4b7a c93d 5266 0dbe
00000220: f491 883d a1e6 adbd 3435 debd e667 953c
00000230: 98f8 fbbb f293 b4bc ba7f 7dbd 3865 93bd
00000240: 46fb 8abc aa32 0fbd 7d98 cd3d bfa5 85bd
00000250: bd12 cbbd bd77 abbd 8147 dd3c 5eeb fd3c
00000260: c1bc bf3d f617 f5bd 5467 a93d cee0 08be
00000270: 354c 40bd 39fb 313d 4f9f 093e 3dc9 88bd
00000280: 1e02 933c 2b9b b8bb 0332 c93c 6a97 8abd
00000290: c6cc 29bd 5f38 733d 05ca febb 6339 cd3d
000002a0: d9f1 fa3d 61b1 2e3c 4762 f7bd 6872 753d
000002b0: 1f67 03be e1c4 913d d4c9 073d 5aa2 debc
000002c0: aef7 743d 324a 3bbd 49f1 05be 1ac2 e03c
000002d0: 9f2d 70bd 6328 9abd 00a0 ad3c 3bf7 703d
000002e0: 5991 b53c 629f 7abb 9069 133d 9564 683d
000002f0: 8fbc b63c ea72 59bd 5983 00bd 4200 05be
00000300: 0fea 413c 7ad2 193d 4e25 dcbd 0687 0abe
00000310: 5c3a 933d f4cf f53d c903 033e f74d e43d
00000320: c00c 123d 02f8 0a3e ab6a 4fbc 28e6 01be
00000330: a2c5 413d 13f4 603d d9ab a7bb 5a57 b3bd
00000340: 4e04 413d c0fd 7fbd ab1f c0bc 5118 01be
00000350: 6121 27bd a30c 04be baf9 cabc 4370 0c3c
00000360: 4f75 b43c f13b 0abe 4034 82bc 8e7d 88bd
00000370: 8914 9d3d 6c91 453d 1e50 a33c 92a7 abbd
00000380: 0dcb eb3d 669d d53d ae14 c3bc 094c 463c
00000390: 082d e63b 8ce2 d93c 5f72 4a3b f774 c43c
000003a0: b480 7ebc aef7 17bd 6f84 743d 247d 8dbc
000003b0: 1eea 2e3d a688 4dbc 1d4a ccbd 096c 8a3d
000003c0: 3799 c0bd b69c 02be edbb e5bd eb64 46bb
000003d0: a70c cf3d 97b6 e83c af02 90bd e3c9 a23c
000003e0: 79db 04bc cb73 b4bd 231a 033e 4828 11be
000003f0: 0b22 e83d 94c7 bcbb 8905 3cbd 136d a03d
0.1928764 -0.12827577 -0.1100495 0.015109497 0.08545306 -0.039817233 -0.08068216 0.04399545
-0.1038232 0.18179053 -0.07224469 -0.098687835 -0.032320548 -0.1800583 -0.010958759 0.07055676
0.09633835 -0.05666226 -0.08329352 0.048850827 0.10121698 0.056954388 -0.08784859 -0.15471488
-0.03665847 -0.5082205 -0.1920686 -0.027214153 0.19792835 -0.04710792 -0.11458135 0.136269
-0.117587455 0.04155812 -0.09811978 0.09249093 0.13819233 0.0392406 -0.019651718 -0.20971756
-0.12316339 0.20719562 0.094863854 -0.20523277 0.016930385 -0.58871233 0.16813725 -0.07616539
0.012580656 -0.31781965 0.18430042 0.10680242 -0.06820124 0.09922254 0.014957097 -0.1972025
0.018005848 -0.40188983 -0.045190506 -0.015083806 0.15673733 -0.3175995 0.047303658 0.11223174
0.059467673 -0.1002317 0.15806481 0.16056205 -0.16126499 -0.18913947 -0.19574519 -0.1397867
-0.17131542 -0.03589803 0.10826304 0.38905704 -0.109967045 0.031494353 -0.09901169 0.07725506
-0.14222188 0.42517677 0.16827464 0.031489007 0.09907151 0.07475327 -0.041993115 -0.17176385
-0.11412121 0.10525148 -0.35803637 0.20325384 -0.08916219 -0.053272206 0.068866156 0.1899376
-0.12296315 -0.16250351 -0.29302123 0.006227746 -0.013541547 0.41206416 0.03226968 0.014130658
-0.12016149 0.22200741 0.02749475 -0.12705211 0.003657203 -0.00041966955 0.10371094 -0.12837413
-0.21366814 0.09099983 0.051944327 0.2716744 -0.016350547 0.10000028 0.11948093 0.08047191
0.10600201 0.059902284 0.08845906 0.13184892 0.2633397 -0.14572528 0.024903312 -0.15235244
-0.124858804 0.020494351 0.09747188 0.0078918105 -0.09104863 -0.008833607 0.09837779 -0.13808563
0.06668463 -0.084912546 -0.108499914 0.01823802 -0.007689547 -0.022043202 -0.061889388 -0.0719704
-0.01696552 -0.034960426 0.100388505 -0.06525754 -0.099156834 -0.08372448 0.027011635 0.03099602
0.09362174 -0.11967461 0.082716614 -0.13367006 -0.046947677 0.043452475 0.13439678 -0.06679008
0.017945345 -0.005633732 0.02455998 -0.06767161 -0.041455053 0.05937993 -0.0077755474 0.10020711
0.1225316 0.010662408 -0.12079292 0.05992356 -0.12832306 0.0711763 0.033151463 -0.027177025
0.05980652 -0.045725055 -0.13080324 0.027436305 -0.058637258 -0.075272344 0.021194458 0.058829527
0.022164034 -0.0038241972 0.035989344 0.056736547 0.022306709 -0.053088106 -0.031375263 -0.1298838
0.011835589 0.03755424 -0.10749303 -0.1352807 0.071888655 0.120025545 0.12794413 0.11147683
0.03565669 0.1357117 -0.012659709 -0.12685454 0.047307618 0.054920267 -0.0051169214 -0.08756895
0.047123246 -0.062497854 -0.0234526 -0.12606932 -0.040803317 -0.12895446 -0.024777282 0.008571687
0.022028593 -0.13499428 -0.015894055 -0.06664573 0.076699324 0.04823439 0.019935664 -0.08381571
0.11513338 0.10430412 -0.023813572 0.012103089 0.007024411 0.026597284 0.0030890924 0.023981554
-0.015533615 -0.03710144 0.05969661 -0.017271586 0.04270374 -0.012544787 -0.099750735 0.06758887
-0.094042234 -0.12755093 -0.112174846 -0.0030272554 0.10109835 0.028407378 -0.07031762 0.019871658
-0.008108967 -0.08811148 0.12802939 -0.14175522 0.11334618 -0.0057610963 -0.045903716 0.07833304

encoder.conv2.materials__links__concepts.lin_l.weight f4 [32, 64]
00000000: 0b3a a93e fecc cdba 1c9a 7bbd 1c75 e13b
00000010: 2251 5abd bfbc e13c 658d c63d a01a 4dbe
00000020: cf6f 7cbd 9207 6e3c 4210 0e3a 5d1f 13bd
00000030: 9471 0abd 24fb 6f3d ef57 edbd 1bd7 2a3d
00000040: ffb1 09be 1b86 7dbc 43f2 adbd 4186 813e
00000050: 9e45 2f3b 101a 44be 4c78 28be 7b95 063d
00000060: 20fb f63e 0d2a 4c3d 52de 053d cde7 bebb
00000070: 72ff d0bd 6336 14be 7ac0 8e3d 7b39 583d
00000080: 4d94 16bd 0064 a0bd a04c 9ebd 3a9c d2bd
00000090: ac02 193c 4284 06be dcff 203c 66e5 383d
000000a0: 7f7e 8dbb 9332 f23b 5035 2cbe 4c21 cfbd
000000b0: dac0 283f f96c 7a3c 266a 743e bf57 9ebd
000000c0: 896e 023f 7e5b 1cbe 51dc 613d f1ef 043d
000000d0: 13b6 243f 472f b63e 8714 8a3b fab6 14be
000000e0: 88ac d63d 99a1 3cbe ff26 b8bd 7c80 7ebc
000000f0: 7dd2 09be 9478 05be 1bb9 88bd f2a2 823d
00000100: eeea cebe e354 283d f850 91bc 4489 153e
00000110: a401 683e ae42 293e f1e1 ab3c ec96 983e
00000120: dd65 e33d 9b9c 1dbd 2df9 1a3d f861 a93d
00000130: 2fea 34be 88b6 37be 6e78 39bd 77e5 0b3e
00000140: 6ee4 4f3e e1a3 963d ff4a a2bc 163e 1b3e
00000150: 22ab 6d3b b138 883e 36e2 45bd ff33 b4bd
00000160: 865c b1be 9c19 1a3e 6c77 6a3d 69e5 243e
00000170: bb22 d13d d9b3 133c abac 8b3d cece ff3d
00000180: 0471 443e 375e d1bd a581 dc3d 8f76 6b3e
00000190: 8965 1b3e 4fe2 083e ee48 033e b586 a53d
000001a0: 2a14 6ebe b7c2 d6bd 3af8 203e 8053 143e
000001b0: a1d4 c6be 1912 d23d c086 c9be 7835 803d
000001c0: 3679 8fbe 7e65 083e 60f2 eb3d 3616 333d
000001d0: e545 f0be c9e5 20bf 9361 043e ac9e 403e
000001e0: 149a 153e acca 2e3e 3afb cd3a 51d2 e33b
000001f0: 658a 093e 807c 163e b680 bfbc d9db 343e
00000200: 1914 253d 8b7f 02bd 784d 983c 6e1e 02be
00000210: cc52 ccbc 66a9 18bd 18f2 133e 61a4 033d
00000220: 77d0 8abd 91f8 c1bc 0014 36bd 620e 05be
00000230: 35a6 4bbe 8aa0 90be 9b5b 89be aa24 03be
00000240: 5a7b f8be 452a 34be 4436 f2bd 204a 753e
00000250: 57e8 0ebd 2d6e 90be 05ba b9bd 354d 5cbe
00000260: 9b83 9c3e 387c 4dbd 7d63 b0bd 1957 e1bd
00000270: b671 24be 4e6d 8abd 607f 94be afbd 28be
00000280: 6e26 c2bc 7b86 aebe 04e3 42bd badf 64bb
00000290: 10d4 1fbe 5ffa 1a3e 6ae7 a93d 41c3 513d
000002a0: 49b4 10be 7719 b23d 93d3 ebbd ddd2 84bd
000002b0: 1a6e 083e 8be4 f33c ca51 65be d937 23be
000002c0: e91f 753d a052 bcbd 9373 153e 4818 febd
000002d0: d7eb 8c3e 4f8d 8cbd c34b 0ebd c5ef c5bd
000002e0: 975e 6c3e 43ba ecbd 06e3 64be 4faa 0bbe
000002f0: fb12 52bd 6c6d aabd 71a7 0cbe 0f6c 793e
00000300: 0584 6fbe bbcb 37be de4d d1bc 9f2b 43bc
00000310: aef9 353e 8ba9 eabd 27bd 87bd 7eb4 31bc
00000320: c329 98bd 28dd 19be 813c 14be c4de aabd
00000330: cfd7 cebe a192 44be b3a7 8abe 4db5 f5bd
00000340: 05f1 10be 0fd5 213d 8274 1bbe 14d2 d63c
00000350: fde9 c1bd 2d06 4cbe d502 3bbe 6df1 dabe
00000360: 97f9 01be 6d01 94bd ba1a 4cbe 8540 5b3c
00000370: 1525 8dbd 9b72 3d3d 002b 85be 2f99 febd
00000380: ce7a e23d d368 eabe 21e9 a2bc a39e a3bc
00000390: 3f48 10be a69b ba3d 68bf 2a3d 5875 f9bd
000003a0: d1d5 8ebe 5c53 0bbd 2916 bbbd b16e 61bd
000003b0: 8f7c 963d e605 17bd 11fd 60be 7acd 80be
000003c0: 7a19 7abe f208 8dbc 4739 f23d 5325 45bd
000003d0: d7fc 9dbd 5428 18bf 2b68 c3bd 4335 2bbe
000003e0: 04b3 8ebd 549c ccbc 7145 4bbe 9710 22bd
000003f0: 9106 513d 0c0c bf3c 12a3 00be e783 873b
0.33052096 -0.0015701351 -0.061426267 0.0068804156 -0.05330003 0.027555821 0.096949376 -0.20029688
-0.061630066 0.014528172 0.0005419293 -0.035918582 -0.033799723 0.058589116 -0.115890376 0.041709047
-0.13446806 -0.015473868 -0.084934734 0.2529774 0.0026744376 -0.19150567 -0.1645214 0.0328574
0.48238468 0.04984479 0.032682724 -0.0058259727 -0.10204972 -0.14473872 0.06970306 0.052789193
-0.036762524 -0.078315735 -0.07729459 -0.10283704 0.009339016 -0.1313639 0.009826627 0.045140646
-0.004318058 0.007391283 -0.16817212 -0.10113773 0.6591927 0.01528477 0.23868617 -0.0773158
0.50949913 -0.15269276 0.05514175 0.03245539 0.64340323 0.35582945 0.004213873 -0.14522925
0.104821265 -0.1842102 -0.08991813 -0.015533563 -0.13459201 -0.13034278 -0.06675931 0.063787356
-0.40413612 0.04109658 -0.017738804 0.14603144 0.22656876 0.16529343 0.02098176 0.29802644
0.11103413 -0.03847943 0.03783529 0.08270639 -0.17667459 -0.17940724 -0.045280866 0.13661753
0.20301983 0.07355476 -0.019811152 0.15160403 0.0036265333 0.26605752 -0.048311435 -0.0879898
-0.34640902 0.15048832 0.057242796 0.16103138 0.102117024 0.009015047 0.06820043 0.12490617
0.19183737 -0.10223048 0.10766915 0.22994445 0.15175451 0.1336758 0.12820789 0.08082334
-0.2324988 -0.10486358 0.15719691 0.14484978 -0.38834098 0.10257358 -0.3936062 0.06260198
-0.28022164 0.13319966 0.11520839 0.043722354 -0.46928325 -0.62850624 0.12927847 0.18810529
0.14609557 0.170695 0.001571513 0.006952562 0.134317 0.1469593 -0.023376804 0.1766199
0.04030237 -0.031859916 0.018591627 -0.1270692 -0.024941824 -0.037270926 0.1444782 0.032139186
-0.06778043 -0.023678096 -0.044452667 -0.12993768 -0.19887622 -0.28247482 -0.26827702 -0.12806955
-0.4853161 -0.1759425 -0.118267566 0.23954058 -0.034889545 -0.28209057 -0.090686835 -0.21513827
0.30569157 -0.050167292 -0.08612726 -0.11002941 -0.16059002 -0.067591295 -0.2900343 -0.16478609
-0.023699965 -0.34086975 -0.04757978 -0.003492339 -0.15608239 0.15134571 0.08296092 0.0512116
-0.14131273 0.08696263 -0.11514964 -0.064855315 0.1332325 0.029772064 -0.22394481 -0.15939273
0.059844885 -0.09195447 0.1459487 -0.12406975 0.27523682 -0.0686289 -0.03474022 -0.09664873
0.23082958 -0.11558964 -0.22352228 -0.13639186 -0.051287632 -0.08321652 -0.13735749 0.24357627
-0.23390205 -0.17948811 -0.025549825 -0.011912256 0.17771026 -0.11458119 -0.06627875 -0.010846255
-0.074298404 -0.1502577 -0.14476205 -0.083432704 -0.40399024 -0.1919656 -0.2708107 -0.11997471
-0.14154442 0.03950983 -0.15181163 0.02622322 -0.09468458 -0.19924231 -0.18262799 -0.42762318
-0.12692867 -0.072268344 -0.1993207 0.013382082 -0.068918385 0.046251874 -0.2600937 -0.12431561
0.110585794 -0.457831 -0.019886555 -0.019973105 -0.1409006 0.09111719 0.041686445 -0.12180585
-0.27897504 -0.034015045 -0.09135086 -0.055037204 0.073479764 -0.03687086 -0.21971537 -0.25156766
-0.24423781 -0.01721618 0.11827331 -0.0481313 -0.07714241 -0.59436536 -0.09541353 -0.16719536
-0.06967738 -0.024976887 -0.19850709 -0.039566603 0.051031653 0.023321174 -0.12562206 0.004135597

encoder.conv2.materials__links__concepts.lin_l.bias f4 [32]
00000000: f132 8cbc 9b7f e6bc 6b24 c53d a347 143e
00000010: 4580 643e d7e5 d6bd c539 003e 3589 673e
00000020: 2661 763c 1caf 333d f6c1 d3bd ec41 9b3c
00000030: 7a6e d23d ec91 1a3e 0f7d 093d 714a 61bd
00000040: 5406 debd 8185 513e bb45 2b3d 8263 42be
00000050: 75fd ffbd d4e1 2d3e acd0 15be d83a 22bd
00000060: 03dd 3b3c 5d80 693c 3a72 ba3d 6912 4f3d
00000070: 0591 e5bd fcd1 1b3d 97af b53d 15ed d03d
-0.017114135 -0.028137019 0.09626087 0.14480452 0.22314556 -0.10493057 0.12522037 0.22610934
0.01503781 0.04386817 -0.103397295 0.018952332 0.10274978 0.15094727 0.03356653 -0.055002633
-0.10841051 0.20461084 0.041814547 -0.18983272 -0.12499515 0.16980678 -0.14630383 -0.0396069
0.0114662675 0.014251796 0.09103818 0.050554667 -0.11209301 0.038042054 0.08871382 0.1020147

encoder.conv2.materials__links__concepts.lin_r.weight f4 [32, 64]
00000000: cb72 38be c7ab cdba 31d5 52bc c7ea 3f3c
00000010: 6e95 0fbd b6b2 02bf 593f 2ebe 8d13 443e
00000020: c3f1 653e 294f 22be 8b14 45be e3c2 d03d
00000030: b047 9dbe 35d2 8abe 6c07 0b3e 2628 18bd
00000040: d71a 38be 179d bf3b b876 9abe 7820 513c
00000050: 03bd febd 91bd f8bd f254 d8bd 42bb b03d
00000060: 00d7 523c e543 7d3d d3ed a03e 5613 afbe
00000070: 89bf 32be 6c9d 73bd 23a5 133e eae1 12be
00000080: a293 8d3e 16a8 0cbf 43fc 0b3d 4feb 8fbe
00000090: 17c4 86bd ba9a 803e a2e7 13be 8bb2 01bd
000000a0: e634 3bbc 11b7 123c 79e8 50bd bd9e 79be
000000b0: 2c8b 61be 1c48 4abd 59f4 84be 1ff9 273e
000000c0: 32ff e5bd 7e87 753c 9d04 133d 28e3 9b3e
000000d0: be17 033d bf85 a1bd 26d3 a9be 09ba 173d
000000e0: 4a32 ddbd 6748 0d3c 1ad5 91bd 2fb5 8fbd
000000f0: b604 81bc 466c 443d e44c 593e f24a 1dbd
00000100: f947 af3d 1579 cd3d a2d9 003e 4830 f5bd
00000110: 789c 0f3e 3d12 963e 06cc a83d d4e3 15be
00000120: 3d3e b0bd 6289 a53e 1bac c0ba 0236 cebe
00000130: 7dfb a43e 02e5 cb3e ecbb a3be d52c 1f3d
00000140: da60 2cbe 6033 16bd ded1 913e 4707 83bd
00000150: 7c81 68bd 75bb 9d3e 0308 c03d 37d7 df3a
00000160: 8640 003e 9e3c 89bd dc5a 0bbe e8f9 a33d
00000170: 44de 2c3d ba61 f93d ee78 8ebe 5882 583d
00000180: 7fb6 4cbd ffc4 663e c7af 533d c45d d73e
00000190: 5edd c8bd bf92 63be 591b 2ebd badf 353e
000001a0: 13b9 013d d5f9 693c 1e87 acbd 8205 033e
000001b0: 77f0 1e3e 1c81 de3d 5d58 bd3e 26a8 cabd
000001c0: af00 0d3e 99b1 153d c641 8c3c c15c 5cbe
000001d0: e37b 4fbd 693a 9c3d f420 ae3e 52c9 08bd
000001e0: 1b1f 0b3e 9507 073e e8f3 91bc 7249 d8bd
000001f0: 5ffc eb3c b75c 18bc 82c9 8bbe 54df 34bd
00000200: e18b 0c3b c400 ccbc 17c9 56bd 2d68 e03e
00000210: 25f5 15be 89be 083e e776 d63d 9a53 313e
00000220: efac 0d3e 62ca d6bc 2530 7bbd ad35 86be
00000230: a7bb 6f3e a9d5 f83d 4e96 4ebe d363 af3d
00000240: f283 14bc 35db 92bd 6593 d4be 2a2b e7bd
00000250: 98d7 413d 9d0f 363e 152f 583e 1ee0 f3bd
00000260: fc60 cabc 70f9 fd3d b3f2 01bb 71b7 e2be
00000270: 21e7 debc d29b acbc f8cb d0bc 5c7d 393e
00000280: 1661 90bd d207 2a3e 5bda c3bc bc7a 69bd
00000290: ebe6 ed3d a893 33be 25a3 1b3c 36c0 613e
000002a0: e015 6cbd 7040 82bd 8a61 72bd ffda cbbd
000002b0: 5527 f53d 5cdc e3bd f055 103e f5b7 1c3e
000002c0: d723 e9bc c000 f33d 61d3 413d 4aab efbd
000002d0: 35aa a9bd 4fee 633d 1003 fd3c 7194 383d
000002e0: dd42 08be 6352 853d 39b8 b43b fe58 82bd
000002f0: 971c ab3d 4f57 0d3e 019d b73d f7f9 ddbd
00000300: 18ef 0d3e b92b 2e3e da4b 2cbd 80cc 883e
00000310: f35f 303d 7fcd 9b3e cad6 403e dcd5 64bd
00000320: 387c 83bd 17da 263e 592e f03d 19d2 5fbe
00000330: b857 f93e 9f1b ee3d 854e cbbe 82aa 213d
00000340: 1ba4 8d3d 7789 3cbe ea8c 7ebe 1b71 1ebd
00000350: f8a8 98bd da41 88bd a052 8f3e 68f1 a7bd
00000360: 156f 1dbd 3fff 023d c99e 46be bebf eabd
00000370: 6657 29be 2e2e c33d ac31 b4bd 3b82 363d
00000380: 32b3 c9bd 86c6 713e c882 27be c9fd 4b3e
00000390: 4dcf 16be b469 39be 1fe1 663d 2976 2a3e
000003a0: 8169 893d 6fcf 96bd 4cc5 1dbd 591c 183d
000003b0: bd25 343e b5a1 01be 4fb5 a13e bba7 83be
000003c0: 6372 36bd 7908 253e 5d98 013e b04e 5bbe
000003d0: c8e6 fabd 6d3d 2abe 7cb2 063e 9bbf 2a3d
000003e0: e79c ff3c 4e15 13be 589d e23b 2744 c5bd
000003f0: b7c6 38bd 4a27 f7bc 444f 81be 826e babd
-0.1801254 -0.0015691452 -0.012868212 0.01171369 -0.035054617 -0.5105394 -0.17016353 0.19148083
0.22455506 -0.1585051 -0.19246118 0.10193422 -0.30718756 -0.271135 0.1357705 -0.037147664
-0.17978989 0.005847584 -0.301687 0.012764089 -0.12438395 -0.12145532 -0.10563077 0.086294666
0.012868643 0.061832327 0.31431445 -0.3419444 -0.17455877 -0.0594763 0.14418463 -0.14343992
0.27651697 -0.5494398 0.034176122 -0.28109214 -0.0658037 0.25118047 -0.1444383 -0.031664412
-0.011426186 0.008954779 -0.051002953 -0.2437696 -0.22025746 -0.049385175 -0.25967672 0.16403626
-0.11230315 0.014985917 0.03589307 0.30446744 0.032005064 -0.07886838 -0.33168906 0.03704265
-0.108006075 0.008623219 -0.07120724 -0.0701698 -0.015749317 0.04795482 0.21220738 -0.03840155
0.085586496 0.1003286 0.1258302 -0.119720995 0.14024532 0.2931079 0.082420394 -0.14637691
-0.08605621 0.32331377 -0.0014699729 -0.4027558 0.3222312 0.39823157 -0.3197931 0.038861115
-0.16833821 -0.03667009 0.28480428 -0.063978724 -0.05676411 0.3080708 0.09376528 0.0017077689
0.12524614 -0.06701015 -0.13608879 0.0800665 0.042204157 0.12176843 -0.27826637 0.05285868
-0.04997873 0.22536086 0.051681306 0.42063725 -0.098078474 -0.22223948 -0.04250655 0.17761126
0.03167064 0.014280756 -0.08424209 0.1279507 0.15521418 0.108644694 0.36981478 -0.09895353
0.13769792 0.036546323 0.017121207 -0.21519758 -0.050655257 0.07628328 0.34009516 -0.03339512
0.13586085 0.13186486 -0.017816499 -0.105608836 0.028806863 -0.009299449 -0.27302176 -0.044158295
0.002144568 -0.024902709 -0.052437868 0.4382948 -0.14644296 0.13353933 0.104718976 0.17317048
0.138355 -0.02621955 -0.06132521 -0.26212826 0.23411427 0.121501274 -0.20174524 0.08563962
-0.009064661 -0.07170717 -0.41518703 -0.1128753 0.047324747 0.17779393 0.2111171 -0.11907981
-0.024704449 0.12401092 -0.0019828498 -0.4428058 -0.02720982 -0.021070395 -0.025487885 0.18114227
-0.07049768 0.16604546 -0.023907831 -0.057001814 0.1161631 -0.17536795 0.009499346 0.22045979
-0.05763805 -0.06359947 -0.05917505 -0.099538796 0.119703926 -0.111260146 0.14095283 0.15304549
-0.028459473 0.118653774 0.047320727 -0.11702593 -0.082844175 0.05564719 0.03088525 0.04506344
-0.13306756 0.06509855 0.005515125 -0.0636463 0.083550625 0.13802837 0.08965493 -0.10838693
0.13860738 0.17008866 -0.042064525 0.2671852 0.043060254 0.3043022 0.18831936 -0.055868015
-0.06420177 0.16294132 0.1172759 -0.2185749 0.48699737 0.11626362 -0.39708343 0.03946925
0.06916066 -0.18411814 -0.24858442 -0.038682085 -0.07454103 -0.06653185 0.27992725 -0.082003415
-0.038436014 0.031981703 -0.19396509 -0.11462353 -0.16537246 0.095302925 -0.08798537 0.04455779
-0.09848632 0.23610887 -0.16358483 0.1992103 -0.14727516 -0.18106729 0.056367036 0.16646637
0.067095764 -0.073637836 -0.038518235 0.03713641 0.17592521 -0.12659343 0.3158364 -0.25713906
-0.04454268 0.16116513 0.12655778 -0.21416736 -0.12251049 -0.16624995 0.13154024 0.041686635
0.031202747 -0.14363596 0.0069157295 -0.0963214 -0.045111384 -0.030170102 -0.25255787 -0.09103109

encoder.conv2.concepts__rev_links__materials.lin_l.weight f4 [32, 64]
00000000: d57b a7bc 0f4d bbbd d8ad 053e 7d76 4a3c
00000010: 4836 0a3d 170c a6be 96b3 1dbe 8731 483e
00000020: 613e 293e 0589 74bd b212 d53c f1a6 08bc
00000030: c8d3 6bbe 6cd2 9ebe f173 753d e2af 053e
00000040: 6b82 85bd 1776 0ebe 6ab4 dfbc a9ec e6bc
00000050: 66c6 10be df4d 29be 1ffd 15be 28d1 b33c
00000060: 56f3 d7bd e005 373e 10f7 2cbe 717c fabd
00000070: 8ed0 9fbd 459a 7d3d 00f4 debd 7615 993d
00000080: 898b 8fbe 3d40 32be a56b bd3c b27c 943e
00000090: c67e 323d afdd 25be 19e5 76bd 0585 063e
000000a0: a06c e7bc f67e b33d 6871 72bc 7639 9ebd
000000b0: 18fb 50be f4d4 91bd f9c0 83bd 37c9 d63d
000000c0: fead 773d 516e c0bd 0df1 8cbd 0981 063c
000000d0: 1c0f febd 6499 e43d fde3 66be d308 d5bc
000000e0: 036b 7c3d 8a72 66bd da71 083a 5f11 0fbe
000000f0: c4e1 1ebe 001f c3bd 7cd8 1c3d 1f4a 8dbd
00000100: de58 42be 1fb9 45be 4fe6 20be c8ed d9bd
00000110: 7817 5abd 701f 94be 5a39 edbb 5901 fcba
00000120: a710 44bd db49 01be f13d 11bd 4de7 943e
00000130: 9897 80bc f678 28be c515 9a3c 9177 d5bd
00000140: 6e1a 0ebd 948d 63bc 25ea a9be 067c 1ebe
00000150: 50c9 90bd c21e 91be 073c 1dbe f3ef babd
00000160: bc7e 21bd 371e d2bd 9616 a63d 8772 afbe
00000170: 3983 24be 529d d0bd 13f4 d7bd 29e7 44be
00000180: eb4e 163e 50ed 21be cb30 47be bab9 dcbd
00000190: 3320 45be 2608 95bc 8efc 2a3d 44f1 20be
000001a0: a46e c3bd cf3f 11be be56 2abe 63bd aa3c
000001b0: c64c d9bd 4ec1 643d 052e bfbd 4a73 793c
000001c0: 4bb9 4dbe d239 12be 6954 7fbe 9c26 74bd
000001d0: 73d9 0abe 1d82 bdbd f37d 64be a29f f8b9
000001e0: 5054 73bd e56e 26bc b7ce eabd 36b4 13be
000001f0: 2e7a 07be 4db1 75bd 4966 19bd 524c 35be
00000200: d653 82bd 3f0d fa3c 4e9d 87bc 87c4 70be
00000210: ef70 bdbc b41c 7abc 80d6 c93c 5043 4bbd
00000220: e4f8 fbbd 73a6 abbd ffc7 09bd 868c 4d3d
00000230: e8fa 8bbe d385 20be 440b a33d 5283 9a3c
00000240: 4eda 5dbc 5d6c cf3d 94ef 0ebe 7cab 8ebd
00000250: c2a5 37be 74d9 c9bd f51d f3bd 2f65 ef3d
00000260: 3620 303c 1c24 a9bd cf8e 8fbd e1a7 94be
00000270: a87c 263d 63b1 00be 2a29 8a3b 1446 edbd
00000280: ccc3 d13d af94 393e cc7f 89bd b4f6 51be
00000290: 9171 8cbd 5e7b 5c3b 0b14 82bb 926f 6f3d
000002a0: f486 8ebc df68 18bd 7808 f2bd dd41 e9bd
000002b0: f8f5 ce3d a15d edbd 2279 ddbd 38a4 e1bc
000002c0: dc44 43be b8ba f9bc 8340 2bbe 7bd2 1dbe
000002d0: f40d d63c 760c 74bd 377e 65bd c86a 843d
000002e0: daf1 303d ef13 cbbd 0bac fbbc 4aae c9bc
000002f0: cf71 2e3d 815a a4bd 3bc5 4d3c 1c4a a6bc
00000300: c3cd 34bc c555 23be 7c01 a3bc 26a6 b8be
00000310: 9996 14be 7e29 9fbe 7eb6 39be 992f 24be
00000320: 1eef 8e3c d9b7 3f3d 1036 a5bd a5af cd3e
00000330: 06b0 f7bd 8d28 c3bd ec78 8cbd 8452 9ebc
00000340: 460c a13c 3d81 cf3d e7bc bdbe 7537 ad3c
00000350: 3b4f e03b d525 23be 42dc 07bd 646a 813d
00000360: e920 ffbd 5ce3 6e3d 8629 0a3e 8d5a f2be
00000370: 8ffc 2a3d 657f eabd dd56 843d 19a2 47be
00000380: 8e71 553d 9015 7a3d 6ff7 30be fa15 12bd
00000390: b246 a83d 563e 85bc 68b0 303e 891a c4bd
000003a0: a4d4 873c 8319 04be 2af5 e63d beb3 07be
000003b0: defc 0cbe 0f99 d9bd 773f d8bd 217e 8cbd
000003c0: 9ed6 8cbd a626 bcbd df7c ddbd 64cc 36be
000003d0: c4f4 f03c 5ea9 f7bc eb5d a8be 4fd9 9c3d
000003e0: 5d96 d13c 8dfd f53b e86c 253d 7802 593d
000003f0: 011c a33b 2334 fbbc dc7c 183e a31c 2fbe
-0.02044479 -0.09145557 0.13054597 0.012357351 0.033743173 -0.324311 -0.15400538 0.19550143
0.16527702 -0.059700985 0.026009891 -0.008340583 -0.23030007 -0.31019914 0.059925023 0.13055375
-0.06519016 -0.13912235 -0.027307708 -0.02818902 -0.14138183 -0.16533612 -0.1464734 0.02195032
-0.105444595 0.17873335 -0.16891122 -0.122307666 -0.078034505 0.0619147 -0.10886383 0.074747965
-0.28036144 -0.17407317 0.023122618 0.29001385 0.04357793 -0.16197847 -0.06027708 0.1313668
-0.028250039 0.0876445 -0.014797546 -0.077258036 -0.20408285 -0.07120696 -0.06433291 0.104875974
0.060468666 -0.09396041 -0.06881914 0.008209475 -0.12405226 0.111620694 -0.22547908 -0.026005184
0.06162549 -0.056261577 0.00052049535 -0.1397147 -0.1551581 -0.09527397 0.038292393 -0.06898903
-0.18979213 -0.193089 -0.15712856 -0.10641056 -0.053245038 -0.28930235 -0.007239503 -0.0019226476
-0.047867443 -0.1262583 -0.035459463 0.29082718 -0.015697286 -0.16452393 0.018809209 -0.10423196
-0.034693174 -0.013888735 -0.3318645 -0.15476999 -0.07069647 -0.2834378 -0.1535493 -0.09127798
-0.039427504 -0.10259669 0.08109777 -0.34267065 -0.16065682 -0.101862565 -0.105446 -0.19228806
0.14678542 -0.15813184 -0.19452207 -0.10777612 -0.19250564 -0.018192362 0.04174476 -0.15717036
-0.095425874 -0.14184497 -0.16634652 0.02084226 -0.106103465 0.055848412 -0.093349494 0.015225241
-0.20090215 -0.14279869 -0.24934544 -0.059607133 -0.13559513 -0.09253333 -0.22313671 -0.00047421182
-0.05940658 -0.010158275 -0.11465209 -0.14424214 -0.13230202 -0.05998354 -0.037451062 -0.17704895
-0.06363647 0.030523894 -0.0165545 -0.23512469 -0.02312514 -0.015265632 0.024638414 -0.04962474
-0.123033315 -0.08381357 -0.033637997 0.05018284 -0.27339864 -0.1567605 0.07961133 0.018861447
-0.013540817 0.101280905 -0.1395858 -0.06966302 -0.17934325 -0.09855929 -0.11870948 0.11689221
0.010749867 -0.082588404 -0.070096605 -0.2903433 0.040646225 -0.12567668 0.004216333 -0.11585632
0.102424234 0.18123125 -0.067138284 -0.20504266 -0.068575986 0.0033642869 -0.0039696745 0.05845601
-0.017398335 -0.037209388 -0.118180215 -0.113895155 0.101055086 -0.11590124 -0.1081412 -0.027544126
-0.19069237 -0.030484542 -0.16723828 -0.15412323 0.0261297 -0.059582196 -0.05602857 0.064656794
0.043199398 -0.099159114 -0.030721685 -0.02461924 0.042589005 -0.08025075 0.01255923 -0.02029901
-0.011035386 -0.15950687 -0.019898169 -0.3606426 -0.14510573 -0.31086344 -0.18136021 -0.16033782
0.017448004 0.04680619 -0.08066952 0.4017307 -0.12094121 -0.09529219 -0.068590015 -0.019326456
0.019659173 0.10132072 -0.37058184 0.021144608 0.0068453825 -0.159324 -0.03316904 0.063191205
-0.12457449 0.058322296 0.13492402 -0.4733471 0.041744765 -0.1145008 0.0646188 -0.19495429
0.052110247 0.06105572 -0.17281888 -0.03566549 0.08216609 -0.016265076 0.17254794 -0.09575374
0.016580887 -0.12900357 0.1127723 -0.1325216 -0.13768336 -0.10624897 -0.1055898 -0.06859995
-0.068768725 -0.09187059 -0.10814833 -0.17851406 0.029413588 -0.030232128 -0.32884154 0.07658636
0.025584394 0.0075070322 0.040387064 0.05298087 0.0049777036 -0.03066451 0.1489138 -0.17100768

encoder.conv2.concepts__rev_links__materials.lin_l.bias f4 [32]
00000000: 55f5 78be ec41 1f3e 2c53 0c3d 5c59 2d3c
00000010: dffd b3bc d88a 91bb 4354 a43d 6acc 00bc
00000020: 4b44 3dbd 4176 8abd dded a3bd 4699 2cbe
00000030: 7f44 0dbe 497a 5c3d 4642 93bd 94f7 f2bd
00000040: f30a 36bc 30a3 d33d 2232 e8bb c4de a4bd
00000050: 9058 9bbd 6cb4 dc3d 85a7 a3bd 9306 a53d
00000060: ddc5 87bd 72d3 0dbe fb1e b83d 0390 2ebc
00000070: f8c3 9cbc 2a5e 14be 29f3 b63c 7943 54be
-0.24312337 0.15552491 0.034259006 0.010580387 -0.021971641 -0.0044416003 0.08023884 -0.007861236
-0.046207707 -0.067608364 -0.08004353 -0.16855344 -0.1379566 0.053827558 -0.07190375 -0.11863628
-0.011111009 0.1033386 -0.0070860544 -0.08050302 -0.07585251 0.107766 -0.07990936 0.080578946
-0.06629536 -0.13850191 0.08990284 -0.010654452 -0.019136414 -0.14489046 0.022332745 -0.20728864
