model/model.pt (torch, 490509 bytes, 69 tensors)

encoder.conv1.materials__links__concepts.att_src f4 [1, 1, 48]
0.17640983 -0.28142712 -0.18442194 0.26063126 0.3018406 0.02809826 0.12393115 0.15113962
0.31851566 -0.20770486 0.19799423 -0.010573598 0.06776978 0.18992162 -0.0320094 0.058761187
-0.06621305 -0.10282257 -0.08165466 0.07210669 -0.08714612 0.016310593 0.25436977 -0.20394637
0.41254696 -0.2337742 0.39742994 0.13811763 -0.15158635 0.320428 0.2852636 0.010371361
-0.18602698 0.16564293 -0.11854354 0.25244024 -0.46093327 0.445283 -0.1669155 0.094276935
0.3107945 0.4846412 0.14406723 -0.027811218 0.031297058 -0.1278375 -0.13858189 0.19228002
00000000: c7a4 343e 3717 90be 1bd9 3cbe 7671 853e
00000010: da8a 9a3e 522e e63c 9dcf fd3d 58c4 1a3e
00000020: 7c14 a33e 95b0 54be 00bf 4a3e e23c 2dbc
00000030: e2ca 8a3d d07a 423e 4a1c 03bd 92af 703d
00000040: b59a 87bd a494 d2bd 8f3a a7bd acac 933d
00000050: aa79 b2bd cb9d 853c c13c 823e 51d7 50be
00000060: 5b39 d33e 8162 6fbe f07b cb3e b56e 0d3e
00000070: 7439 1bbe 240f a43e 120e 923e a4ec 293c
00000080: db7d 3ebe 4d9e 293e f5c6 f2bd d93f 813e
00000090: 72ff ebbe 22fc e33e e6eb 2abe 4414 c13d
000000a0: 7520 9f3e e422 f83e 5c86 133e 5ad4 e3bc
000000b0: 5831 003d d5e7 02be 69e8 0dbe 0ee5 443e

encoder.conv1.materials__links__concepts.att_dst f4 [1, 1, 48]
0.17070676 0.29324636 -0.06872101 0.26613978 0.04213465 -0.071310684 0.14705399 0.05013008
0.049470082 0.35071865 -0.10566998 0.21062244 -0.13738488 0.119017795 -0.102625005 -0.20654601
0.079516225 -0.15750583 0.09986693 0.27414897 -0.35003874 0.19254531 -0.28251156 0.11270313
0.13932101 -0.22672562 0.29815945 0.054186754 0.2862349 0.07295323 -0.29076838 -0.06445176
-0.03899701 0.0535895 -0.11827024 0.30706954 0.15448114 -0.13625236 0.03625341 -0.14245982
0.09815169 0.210479 -0.09812677 0.08185469 -0.1985929 0.28452283 0.31456277 0.020849627
00000000: c1cd 2e3e 6324 963e 9abd 8cbd 7943 883e
00000010: 6295 2c3d 560b 92bd 5295 163e 3355 4d3d
00000020: 24a1 4a3d 6591 b33e 8169 d8bd 69ad 573e
00000030: 9fae 0cbe 9abf f33d 0f2d d2bd cc80 53be
00000040: 67d9 a23d 3549 21be 0887 cc3d 415d 8c3e
00000050: 4738 b3be 992a 453e 5ba5 90be e6d0 e63d
00000060: 2baa 0e3e c32a 68be 5ba8 983e eef2 5d3d
00000070: 618d 923e 8168 953d 98df 94be 49ff 83bd
00000080: 54bb 1fbd aa80 5b3d ab37 f2bd 3838 9d3e
00000090: 4e30 1e3e bd85 0bbe 757e 143d fde0 11be
000000a0: c103 c93d cf87 573e b0f6 c8bd 6fa3 a73d
000000b0: f05b 4bbe faac 913e 5f0e a13e d6cc aa3c

encoder.conv1.materials__links__concepts.bias f4 [48]
-0.06864619 -0.06693735 -0.011242265 -0.035585865 -0.05696833 -0.05889514 -0.0107687125 -0.052742604
-0.02963899 -0.040738944 -0.05723153 -0.08303229 -0.014323839 0.0012638783 0.06352915 -0.057038162
-0.057984065 -0.09894897 -0.057663463 -0.001366914 -0.012599218 -0.057034723 -0.0359502 -0.02012172
-0.056857172 0.041766375 -0.0639899 -0.05710997 0.00990836 -0.057474434 -0.040447935 -0.020439504
-0.0026026922 0.05550677 0.025118938 -0.055983506 0.009044702 0.0 0.018077815 -0.0066269813
-0.025147986 -0.058891237 -0.062965676 -0.057511486 -0.05829651 -0.027679304 -0.057079162 -0.078283004
00000000: 6096 8cbd 7316 89bd 7a31 38bc 7cc2 11bd
00000010: a057 69bd 083c 71bd 416f 30bc a108 58bd
00000020: 78cd f2bc e1dd 26bd 9c6b 6abd d50c aabd
00000030: 89ae 6abc b8a8 a53a 921b 823d d9a0 69bd
00000040: b380 6dbd c2a5 cabd 8630 6cbd 062a b3ba
00000050: f36c 4ebc 3e9d 69bd 8440 13bd 4ed6 a4bc
00000060: 11e3 68bd 3813 2b3d 230d 83bd 25ec 69bd
00000070: ad56 223c 506a 6bbd bcac 25bd bf70 a7bc
00000080: ee91 2abb 115b 633d 3bc6 cd3c f64e 65bd
00000090: 3b30 143c 0000 0000 ed17 943c 2627 d9bb
000000a0: 2603 cebc f037 71bd 26f4 80bd 2a91 6bbd
000000b0: 52c8 6ebd b5bf e2bc d7cb 69bd d752 a0bd

encoder.conv1.materials__links__concepts.lin_src.weight f4 [48, 128]
-0.10132172 -0.10627815 0.031059267 -0.11501884 0.05845622 -0.098574035 0.17096776 -0.083334126
-0.036238056 -0.155124 0.119306654 0.03437629 0.038336195 -0.020975308 0.049561597 -0.2589174
0.04249455 -0.14350164 -0.001314571 -0.16046582 0.09917895 -0.15646787 0.06296291 0.23998043
0.0666906 -0.04165853 0.08204192 0.0023196558 0.040430706 0.14908652 0.1353119 -0.16829096
0.04889549 0.07586144 0.09399005 0.044265267 -0.073601075 0.1687864 0.073057435 0.23383342
-0.013078283 0.07057923 -0.056850616 0.03806943 -0.019304499 0.14432923 -0.017053066 -0.14345835
0.18502313 0.041696582 -0.085296914 -0.17181963 -0.17259517 -0.12261819 -0.13006577 0.21406241
0.0072490885 0.0470754 -0.1310459 0.11273147 -0.16480926 0.09895565 -0.15822555 -0.17989679
-0.12323628 0.074399695 -0.17919797 -0.007076406 0.007992438 0.23920588 0.015793819 0.22580194
0.051850535 -0.025065405 -0.093254626 0.020384846 -0.00491702 0.19549337 -0.05099085 0.07883351
0.09688871 -0.10345778 -0.06654718 -0.20463076 0.011487904 -0.042841647 -0.10246507 0.1683844
-0.05623789 -0.091345645 -0.044416204 0.1823842 0.03892184 0.13601886 0.082710646 0.11979153
-0.031135121 0.08557724 -9.1130496e-05 -0.07669298 0.21269801 0.053205322 -0.05275544 -0.22888549
-0.0015044587 -0.25509673 0.22563732 0.05167592 -0.022834994 -0.06719631 0.08315822 0.15773477
0.059017062 0.05315779 -0.20572601 0.14606915 -0.040029366 -0.053463325 -0.24608865 -0.06734942
-0.1286858 -0.11377315 0.043395847 -0.044951 -0.24840918 0.112569876 -0.24924348 0.2136074
-0.12626843 0.08929118 0.13728175 -0.1510526 -0.16152725 -0.02201037 0.073349915 -0.06748059
-0.07073563 -0.034818146 -0.053358246 0.11207271 -0.095706746 -0.033480324 -0.1280026 -0.07055781
-0.23480275 -0.042938747 0.014009271 0.09928412 -0.09154319 -0.031932343 -0.007406338 0.19677396
-0.08291238 0.09928802 -0.0483788 -0.19052052 0.028792057 0.033052415 0.2097474 0.10862136
-0.14859019 0.108911656 0.092976615 -0.01308249 -0.15519644 0.21570283 -0.07950465 0.14684717
-0.035709474 -0.18472213 -0.21110964 -0.05804691 0.076421864 0.23566186 -0.12994601 0.021925861
0.11734526 -0.19582224 -0.18246357 -0.0020957128 0.04963385 0.07571539 -0.00043875835 0.15953113
-0.13403629 -0.007678898 0.17996913 0.2210494 -0.04222444 0.09040523 0.032764047 -0.04634942
0.11181746 -0.06161994 -0.18212321 0.05309439 -0.013055366 0.11443088 -0.114215605 -0.07673614
0.017396517 0.15488398 -0.057270817 0.103758045 -0.06058103 0.09829905 0.14184709 0.04462313
-0.0035846115 0.12627783 -0.12699138 0.06717512 -0.03011863 0.07992024 0.08146137 0.050954092
-0.0028737178 0.02144457 0.0013969871 0.05561177 -0.03117978 0.19204175 -0.24086495 0.11002833
0.1907173 0.027706245 -0.08531202 -0.019748462 0.23228401 -0.08466217 0.06047343 0.06642899
0.026590208 -0.18186447 0.041362114 -0.01944251 0.18842721 -0.08119008 -0.14895406 0.091769144
-0.0043402635 0.004242345 -0.034584317 0.12761004 0.15151119 -0.19509117 0.0027710248 -0.14964835
0.061170407 0.06948226 0.061973333 -0.09344387 -0.049888447 0.1974408 -0.05287401 0.21748011
00000000: c381 cfbd 5ca8 d9bd 0170 fe3c ff8e ebbd
00000010: ca6f 6f3d 2fe1 c9bd 2c12 2f3e 15ab aabd
00000020: 5b6e 14bd d3d8 1ebe 0c57 f43d 27ce 0c3d
00000030: 6a06 1d3d 69d4 abbc 1a01 4b3d d290 84be
00000040: c40e 2e3d 18f2 12be af4d acba 2751 24be
00000050: 551e cb3d 1d39 20be b3f2 803d 6ebd 753e
00000060: 1595 883d 22a2 2abd 9805 a83d 5e05 183b
00000070: ab9a 253d 23aa 183e 348f 0a3e 7754 2cbe
00000080: a346 483d 3e5d 9b3d db7d c03d 7f4f 353d
00000090: 29bc 96bd 58d6 2c3e 239f 953d 0772 6f3e
000000a0: 4b46 56bc d88b 903d 31dc 68bd b1ee 1b3d
000000b0: 7824 9ebc 0bcb 133e dfb2 8bbc bfe6 12be
000000c0: b476 3d3e 09ca 2a3d 26b0 aebd 7cf1 2fbe
000000d0: cabc 30be 3f1f fbbd f62f 05be 2d33 5b3e
000000e0: c389 ed3b 22d2 403d e530 06be c2df e63d
000000f0: c2c3 28be 43a9 ca3d e105 22be dd36 38be
00000100: 4e63 fcbd de5e 983d ac7f 37be 32e1 e7bb
00000110: b7f2 023c 63f2 743e 0a62 813c a038 673e
00000120: 3a61 543d f755 cdbc 48fc bebd 1ffe a63c
00000130: f41e a1bb 6a2f 483e c8db 50bd 7773 a13d
00000140: 976d c63d ace1 d3bd e349 88bd ba8a 51be
00000150: c337 3c3c b97a 2fbd 35d9 d1bd f66c 2c3e
00000160: b459 66bd 6d13 bbbd c4ed 35bd ecc2 3a3e
00000170: 826c 1f3d 8748 0b3e 3364 a93d 4355 f53d
00000180: 150f ffbc 1f43 af3d 501d bfb8 3611 9dbd
00000190: 82cd 593e d3ed 593d 1716 58bd f560 6abe
000001a0: 4231 c5ba 0a9c 82be 780d 673e 21aa 533d
000001b0: 7410 bbbc 389e 89bd db4e aa3d 3985 213e
000001c0: e0bb 713d fcbb 593d d7a9 52be 2793 153e
000001d0: d5f5 23bd 5cfc 5abd aafe 7bbe 7eee 89bd
000001e0: 36c6 03be e601 e9bd d8bf 313d 8a1e 38bd
000001f0: fa5e 7ebe 098b e63d af39 7fbe e6bb 5a3e
00000200: 834c 01be 4bde b63d 9693 0c3e 88ad 1abe
00000210: 6667 25be 174f b4bc 7b38 963d 4333 8abd
00000220: d8dd 90bd 799d 0ebd 2d8e 5abd 6186 e53d
00000230: e601 c4bd aa22 09bd 1d13 03be 9d80 90bd
00000240: 2270 70be 8ae0 2fbd 2487 653c 7955 cb3d
00000250: ff7a bbbd 7dcb 02bd deb0 f2bb 1d7f 493e
00000260: f7cd a9bd 8457 cb3d d928 46bd d017 43be
00000270: 52dd eb3c f861 073d 06c8 563e e074 de3d
00000280: 0728 18be 130d df3d 866a be3d f157 56bc
00000290: d1eb 1ebe 34e1 5c3e 55d3 a2bd 1b5f 163e
000002a0: 1944 12bd cc27 3dbe 202d 58be 99c2 6dbd
000002b0: 1183 9c3d 5851 713e 9110 05be dd9d b33c
000002c0: b652 f03d a085 48be bbd7 3abe 3a58 09bb
000002d0: dd4c 4b3d ac10 9b3d 2609 e6b9 215c 233e
000002e0: cf40 09be 449f fbbb d449 383e c65a 623e
000002f0: 89f3 2cbd 6126 b93d 9833 063d e4d8 3dbd
00000300: 8d00 e53d 3165 7cbd 827e 3abe 8179 593d
00000310: 2de6 55bc bd5a ea3d dfe9 e9bd d627 9dbd
00000320: 2483 8e3c e899 1e3e ce94 6abd 197f d43d
00000330: d023 78bd 0351 c93d 5d40 113e bec6 363d
00000340: cdeb 6abb fa4e 013e 070a 02be 1c93 893d
00000350: 58bb f6bc 39ad a33d 38d5 a63d 3db5 503d
00000360: fc54 3cbb 86ac af3c 1c1b b73a 2bc9 633d
00000370: bd6c ffbc 98a6 443e 4da5 76be 8856 e13d
00000380: 654b 433e 35f8 e23c 11b8 aebd 87c7 a1bc
00000390: dcdb 6d3e 5c63 adbd fdb2 773d ec0b 883d
000003a0: b5d3 d93c ae3a 3abe 526b 293d e645 9fbc
000003b0: 10f3 403e fc46 a6bd 6a87 18be 76f1 bb3d
000003c0: c538 8ebb 5f03 8b3b 49a8 0dbd 35ac 023e
000003d0: c025 1b3e fbc5 47be 159a 353b 6b3d 19be
000003e0: d28d 7a3d b74c 8e3d c0d7 7d3d 805f bfbd
000003f0: d457 4cbd ec2d 4a3e 6b92 58bd 1bb3 5e3e

encoder.conv1.materials__links__concepts.lin_dst.weight f4 [48, 128]
0.10214584 0.13964698 0.21907383 -0.18289715 0.13461767 -0.1546796 -0.1492079 0.022441456
0.16961177 0.13385555 0.12990244 -0.0630506 -0.1888305 -0.17899686 0.059071228 -0.009700026
0.094755605 -0.09333557 -0.10069269 -0.12559456 -0.09671524 0.0065909647 -0.09664394 0.0031535309
-0.1726306 0.1259871 0.14182578 0.097401604 -0.1825042 0.06856253 0.13104105 -0.043867067
0.12400742 0.11354899 0.069996804 0.2325722 0.13925204 -0.092326716 0.06555794 -0.11207469
0.0029554365 -0.06947841 0.054044757 0.1939998 0.11591962 -0.20845576 0.07917482 0.041963473
-0.2330225 0.059889786 -0.05522457 0.10289396 0.040205292 -0.14381082 0.24351948 -0.013630447
0.03503261 0.027558334 -0.12674524 0.09629183 -0.19102968 0.059447836 -0.14603096 0.01146661
-0.09186521 0.013641602 -0.03475431 -0.15719151 -0.10094283 0.019868925 -0.13397464 0.04747492
0.1275069 0.19101144 0.16293742 -0.08889618 0.11274049 0.2429668 0.026600938 -0.036637846
-0.08098106 -0.1169559 0.0026283478 -0.0011151724 0.10921329 0.091607474 -0.01689263 -0.11548715
-0.06478818 -0.027892219 0.11843536 -0.17007782 0.17649217 0.21641925 -0.103777684 -0.14689904
-0.073686585 -0.020552719 -0.021286404 -0.07089279 0.23128042 -0.13243295 0.24095532 -0.17956217
-0.099599056 -0.027206883 -0.0034820815 0.08191156 0.09475879 0.13315336 0.08162801 0.028626034
-0.079400145 -0.0041066706 0.12926674 0.032965127 -0.106140494 0.05738134 -0.08122897 0.15884681
0.061665997 0.10833749 0.15093274 0.17300779 -0.05417443 0.11559412 -0.03257872 -0.014272162
0.07491357 0.053639136 0.038563494 -0.02166522 0.04755752 -0.18885662 0.1832063 -0.13319676
-0.10149199 0.08375555 -0.024114758 -0.17784914 0.056364562 -0.034833115 0.22768353 0.054676335
0.11875841 0.10094022 0.041722164 -0.17990518 -0.055145912 0.16857326 0.015479503 0.07442496
-0.0031204675 -0.038594943 -0.035611205 -0.017738784 -0.1434204 0.070971295 0.19238807 0.06988457
0.07016726 -0.060670648 0.08380379 0.09114419 -0.042351473 -0.0371782 -0.02781251 0.21139257
0.062389076 -0.10286169 0.11956321 -0.027072208 -0.0748703 -0.1927585 0.16989237 0.1717613
0.09065284 -0.16208644 -0.074282475 0.023783082 -0.079361826 0.07016041 0.2471868 0.12616469
0.04699888 -0.1166683 0.16683534 0.110832006 -0.22664267 -0.012098037 -0.042559605 -0.042107586
-0.06607757 -0.041891064 -0.19589172 -0.24453291 -0.21716651 0.014919727 -0.009915165 0.05271371
-0.06355277 0.17699094 -0.04996103 -0.19347706 0.08107414 -0.078107834 -0.16264659 0.048850972
0.020920709 -0.061667684 0.14866963 -0.21152444 0.09740692 0.06411357 -0.01283711 -0.006203808
0.08074675 -0.040901165 -0.06924462 -0.20882867 0.09391762 0.1402814 0.016877798 -0.029341428
0.21659496 0.16783294 -0.13014135 -0.021032127 -0.12010548 -0.04495337 -0.032626923 -0.19699581
0.022677157 -0.20302494 -0.06127519 -0.20408969 -0.03939474 0.18505844 -0.046327394 -0.10402494
0.03288288 0.108185425 0.17850682 -0.11152012 -0.04755982 0.05746264 0.15152027 0.10525454
0.101812996 -0.06856921 0.07613123 0.12467592 0.13828503 0.11272241 -0.0064137257 -0.028486297
00000000: d731 d13d 9eff 0e3e e454 603e 6449 3bbe
00000010: 37d9 093e 5464 1ebe f5c9 18be 25d7 b73c
00000020: b5ae 2d3e 6e11 093e 2505 053e ac20 81bd
00000030: c85c 41be f44a 37be acf4 713d dcec 1ebc
00000040: 3a0f c23d b826 bfbd f837 cebd dc9b 00be
00000050: a412 c6bd 05f9 d73b 42ed c5bd 78ab 4e3b
00000060: 13c6 30be c302 013e c73a 113e 7e7a c73d
00000070: 62e2 3abe 836a 8c3d a02f 063e f4ad 33bd
00000080: 9af7 fd3d 5f8c e83d 7c5a 8f3d 6827 6e3e
00000090: 1698 0e3e ca15 bdbd 3e43 863d 6a87 e5bd
000000a0: ffaf 413b b24a 8ebd 095e 5d3d e2a7 463e
000000b0: 4467 ed3d 6d75 55be 6826 a23d e4e1 2b3d
000000c0: 739d 6ebe fe4e 753d 2933 62bd 12ba d23d
000000d0: 4eae 243d 2543 13be 2c5d 793e 3d52 5fbc
000000e0: 5b7e 0f3d 04c2 e13c 81c9 01be a734 c53d
000000f0: 499d 43be 937f 733d 2489 15be 73de 3b3c
00000100: d423 bcbd 0781 5f3c 895a 0ebd d0f6 20be
00000110: 1dbb cebd 28c4 a23c a630 09be 1075 423d
00000120: 2b91 023e 8198 433e 11d9 263e 330f b6bd
00000130: 7ce4 e63d 4acc 783e 36ea d93c 9111 16bd
00000140: 66d9 a5bd 9386 efbd 5c40 2c3b fa2a 92ba
00000150: 38ab df3d b39c bb3d 6a62 8abc 8784 ecbd
00000160: aaaf 84bd 397e e4bc 3d8e f23d e128 2ebe
00000170: 5dba 343e 029d 5d3e 6589 d4bd b46c 16be
00000180: fee8 96bd 2d5e a8bc d360 aebc 3d30 91bd
00000190: c6d4 6c3e 819c 07be febc 763e 25df 37be
000001a0: 97fa cbbd f8e0 debc a233 64bb 3fc1 a73d
000001b0: e610 c23d 5b59 083e 962c a73d 2581 ea3c
000001c0: 8b9c a2bd 4091 86bb 805e 043e 7106 073d
000001d0: 3060 d9bd b208 6b3d 605b a6bd bda8 223e
000001e0: 7c95 7c3d 0ce0 dd3d 1d8e 1a3e f428 313e
000001f0: 02e6 5dbd 9cbc ec3d 4471 05bd c9d5 69bc
00000200: 496c 993d b6b4 5b3d c1f4 1d3d 427b b1bc
00000210: adcb 423d a163 41be 6f9a 3b3e bb64 08be
00000220: 08db cfbd 0888 ab3d 508c c5bc 161e 36be
00000230: 87de 663d 2bad 0ebd df25 693e 4bf4 5f3d
00000240: 9c37 f33d bfb9 ce3d dce4 2a3d 1039 38be
00000250: aee0 61bd 789e 2c3e be9d 7d3c 1d6c 983d
00000260: c280 4cbb bb15 1ebd 0edd 11bd ed50 91bc
00000270: ccdc 12be 6659 913d 6101 453e a41f 8f3d
00000280: dab3 8f3d c981 78bd 52a1 ab3d cea9 ba3d
00000290: bd78 2dbd 2b48 18bd 10d7 e3bc 4b77 583e
000002a0: b08b 7f3d 26a9 d2bd 8edd f43d 89c6 ddbc
000002b0: 9a55 99bd 7c62 45be 44f8 2d3e 32e2 2f3e
000002c0: 32a8 b93d fdf9 25be 6921 98bd bdd4 c23c
000002d0: 7488 a2bd 43b0 8f3d 891e 7d3e 5131 013e
000002e0: e681 403d caef eebd e2d6 2a3e e4fb e23d
000002f0: 0415 68be d836 46bc fb52 2ebd 0179 2cbd
00000300: ad53 87bd f795 2bbd d797 48be d666 7abe
00000310: e660 5ebe df71 743c 3773 22bc 55ea 573d
00000320: f427 82bd 1d3d 353e f0a3 4cbd da1e 46be
00000330: 330a a63d 00f7 9fbd d48c 26be f517 483d
00000340: e861 ab3c 4197 7cbd da3c 183e dd99 58be
00000350: 477d c73d fa4d 833d be52 52bc 5049 cbbb
00000360: 8d5e a53d fb87 27bd 20d0 8dbd 2fd7 55be
00000370: e257 c03d eda5 0f3e 4f43 8a3c 6f5d f0bc
00000380: 12cb 5d3e 66dc 2b3e c643 05be 914b acbc
00000390: ddf9 f5bd 0621 38bd cfa3 05bd 45b9 49be
000003a0: 72c5 b93c c5e5 4fbe b2fb 7abd e3fc 50be
000003b0: 615c 21bd f67f 3d3e cbc1 3dbd 070b d5bd
000003c0: 33b0 063d 5290 dd3d 7eca 363e a964 e4bd
000003d0: 16ce 42bd f25d 6b3d 2128 1b3e b18f d73d
000003e0: 5583 d03d 046e 8cbd b1ea 9b3d 1756 ff3d
000003f0: 979a 0d3e 02db e63d 3b2a d2bb 185c e9bc

encoder.conv1.concepts__rev_links__materials.att_src f4 [1, 1, 48]
0.32666096 -0.016759155 0.07527837 0.15982898 -0.23826009 0.18025051 0.2357009 0.07047919
0.16794243 -0.15865435 -0.21482605 -0.03662099 -0.1598711 0.102585614 0.15741748 -0.0630625
-0.09661107 0.19719887 0.2257194 -0.40097392 -0.16379103 -0.29333067 0.11839728 0.20076424
0.02770091 -0.026072172 -0.20927656 -0.2725605 -0.01997362 0.098128825 -0.28159517 -0.11097554
-0.047132954 -0.2906895 0.067592606 -0.16642861 0.11276016 0.2344111 -0.27392113 -0.2337949
-0.00033536623 0.2623208 0.24689932 -0.10787898 -0.11841691 -0.21337193 -0.33653548 -0.12316815
00000000: 1b40 a73e 7f4a 89bc 8c2b 9a3d 35aa 233e
00000010: 74fa 73be 9793 383e 945b 713e 6557 903d
00000020: 1af9 2b3e 4976 22be 5cfb 5bbe e4ff 15bd
00000030: 40b5 23be 6818 d23d 0c32 213e e926 81bd
00000040: 06dc c5bd 80ee 493e fd22 673e 744c cdbe
00000050: d6b8 27be 702f 96be 467a f23d 2495 4d3e
00000060: 05ed e23c 4f95 d5bc 984c 56be 0d8d 8bbe
00000070: b89f a3bc c4f7 c83d 3e2d 90be 2547 e3bd
00000080: 7c0e 41bd 41d5 94be fe6d 8a3d 436c 2abe
00000090: ccee e63d 7709 703e 643f 8cbe ee67 6fbe
000000a0: 18d4 afb9 e94e 863e 2dd3 7c3e a8ef dcbd
000000b0: 9184 f2bd 2c7e 5abe 614e acbe 953f fcbd

encoder.conv1.concepts__rev_links__materials.att_dst f4 [1, 1, 48]
-0.12408591 -0.23030871 0.06984353 -0.28499302 -0.26444632 0.11420048 0.32537103 0.2501554
-0.24596399 -0.02141273 0.22114679 -0.11444026 0.21193776 0.09764336 0.25550947 -0.30159688
-0.11193441 0.06342205 -0.310079 0.029625459 -0.017770553 0.13750283 -0.07067474 -0.17100997
-0.032973617 -0.19743972 -0.1735774 -0.19934765 0.15536009 0.17223483 0.19100554 0.27083254
0.031691752 -0.10599764 0.076425925 0.21309777 0.2105127 -0.38709074 0.25737056 -0.10205814
0.23558508 -0.26237753 0.32581034 0.18161422 -0.13379781 0.15255533 0.041470207 -0.10605991
00000000: c120 febd 0cd6 6bbe 200a 8f3d 9bea 91be
00000010: 8265 87be f1e1 e93d 0897 a63e 5e14 803e
00000020: fcdd 7bbe c069 afbc 4e74 623e a85f eabd
00000030: 3606 593e 3ef9 c73d 23d2 823e e86a 9abe
00000040: de3d e5bd 6be3 813d adc2 9ebe 17b1 f23c
00000050: 8d93 91bc 8bcd 0c3e ebbd 90bd 3d1d 2fbe
00000060: 580f 07bd a32d 4abe 46be 31be ca21 4cbe
00000070: b716 1f3e 545e 303e f596 433e 90aa 8a3e
00000080: 36cf 013d 4a15 d9bd 3285 9c3d 4d36 5a3e
00000090: a490 573e c230 c6be 13c6 833e dc03 d1bd
000000a0: 373d 713e 5956 86be 9dd0 a63e 14f9 393e
000000b0: 4b02 09be 7737 1c3e aadc 293d f035 d9bd

encoder.conv1.concepts__rev_links__materials.bias f4 [48]
0.05154403 0.016933562 -0.042143587 -0.075980365 -0.0026607905 -0.005730602 0.004534279 -0.032356195
0.0008776192 -0.070611715 0.004642056 -0.06838401 -0.022226557 -0.066077486 -0.07398918 -0.032257695
-0.018873464 -0.07652031 -0.0097506745 -0.024519265 -0.062034365 -0.1059625 -0.048077654 -0.06953237
-0.08515574 0.017741362 -0.06542284 -0.10202273 -0.058415107 -0.06871544 -0.10770711 -0.054017026
-0.06148544 -0.056749936 -0.0686663 -0.00934867 -0.05574017 -0.007565155 -0.056497376 -0.058037557
-0.062142868 -0.019408185 -0.017118812 -0.053846393 -0.077516 -0.0039310274 0.044305786 -0.09135578
00000000: d51f 533d 41b8 8a3c c19e 2cbd 989b 9bbd
00000010: a860 2ebb c6c7 bbbb 4a94 943b ee87 04bd
00000020: 0710 663a e09c 90bd 631c 983b ea0c 8cbd
00000030: 7814 b6bc a253 87bd a487 97bd a520 04bd
00000040: 869c 9abc aeb6 9cbd 4bc1 1fbc a0dc c8bc
00000050: bf17 7ebd de02 d9bd 13ed 44bd fd66 8ebd
00000060: 2266 aebd 5556 913c 69fc 85bd 4bf1 d0bd
00000070: ae44 6fbd aeba 8cbd 8c95 dcbd f540 5dbd
00000080: 28d8 7bbd 9f72 68bd eba0 8cbd 2a2b 19bc
00000090: ce4f 64bd 1fe5 f7bb cb69 67bd cab8 6dbd
000000a0: 8589 7ebd eafd 9ebc c03c 8cbc 098e 5cbd
000000b0: b5c0 9ebd d9cf 80bb fc79 353d bd18 bbbd

encoder.conv1.concepts__rev_links__materials.lin_src.weight f4 [48, 128]
-0.17389983 0.0019485981 0.03481096 -0.10336823 0.17088044 -0.17779294 -0.09749568 -0.082844965
0.039613783 -0.14285904 0.15243934 -0.10928424 -0.074004464 0.027169337 -0.084794216 -0.13526458
0.14704336 0.02173293 -0.093303904 0.19810359 0.25390685 -0.12106188 0.033571 -0.09646926
-0.08499363 0.08070067 -0.042646006 -0.10528587 -0.15632398 -0.099641606 -0.07577482 0.0726017
-0.013508381 -0.08728227 -0.08156915 0.18212667 0.16309515 0.2168655 0.13636468 -0.07422866
-0.0047260677 -0.11357592 -0.051665094 -0.14803386 -0.23061602 0.14209 0.0037992774 -0.17564024
-0.037624635 0.053662345 -0.070296645 0.15171038 -0.15091665 -0.110198855 0.04642889 -0.21095754
0.1675635 -0.0076981047 -0.03336318 -0.011189265 0.14473672 0.06531133 0.2632054 0.22403912
-0.025635913 0.10477785 -0.083297916 -0.22319905 -0.01279923 0.020508235 0.0497542 0.029079247
0.017010655 -0.14984404 -0.025275184 0.06593524 0.09713749 0.11185846 -0.17726307 0.04982707
0.18287644 -0.07261415 0.19894044 0.18197423 0.09335008 -0.13690881 -0.22678167 -0.0033039735
-0.079233386 -0.082277246 -0.07388609 -0.028569927 0.10281947 -0.05952544 0.19732799 -0.07808324
-0.0058290423 -0.07413762 0.0651679 -0.217658 -0.04543382 0.023787046 -0.16917844 -0.04232139
0.056429572 0.048489727 -0.050238837 -0.09539081 0.03699966 -0.020460356 0.13825561 -0.13416998
-0.045364633 0.052603472 0.09584405 -0.042816088 -0.045586858 -0.011925907 -0.1969526 0.0036536686
0.20337817 0.003931752 0.16250895 0.1421307 0.16362514 -0.14788692 -0.1473714 0.08602731
-0.068909705 -0.040208664 0.1257065 0.1204035 -0.12374972 -0.038876723 0.040912833 0.13677518
-0.16403762 -0.13243899 0.096569754 0.09762589 0.14461447 -0.055444133 0.005765305 -0.15896694
-0.13191491 -0.13005061 -0.044030428 0.26509044 0.016102357 0.023131475 -0.0006462005 0.08507636
0.1449921 0.08521289 0.028510451 -0.06403912 0.105441876 -0.026778374 0.100445926 0.08631253
-0.062651254 -0.057065085 0.14300993 -0.052239135 0.0017563391 0.10567723 -0.017601617 -0.04695282
0.14145933 0.00587663 0.052409686 0.11559857 0.047434915 0.16081747 -0.10935267 0.20841423
0.14961453 0.109818004 -0.20778726 -0.22160286 -0.055751577 0.060217682 -0.15847243 -0.15328878
-0.15454704 0.049884122 0.090406165 0.021404536 0.13666046 0.18406546 -0.12679316 0.13423392
-0.09194585 -0.12666067 -0.053087305 -0.04037888 0.15492631 0.18656987 0.09666016 -0.051919386
-0.04585739 -0.1387846 -0.07793215 -0.08098033 0.15806635 -0.0052981135 -0.038951516 -0.07267225
0.09501743 0.10128191 -0.11289589 0.16952778 -0.10879538 -0.10247991 0.057122726 0.116408296
-0.11110572 0.06452231 0.0064596273 -0.03942775 0.0016851872 0.005398145 -0.064495645 0.03660337
0.063114434 0.030126138 -0.14205569 0.14765249 0.025839863 0.06286619 0.0296595 -0.009924185
0.0735983 0.18463989 0.050445095 -0.16794002 -0.0031645603 -0.08228896 -0.108571336 -0.049709048
0.036353946 -0.08876031 0.094259374 0.044621598 0.04916283 0.009362227 0.159613 -0.00443771
-0.020606983 -0.027913649 -0.028610209 -0.037455097 -0.1903622 0.11197966 0.10717644 -0.086507395
00000000: cc12 32be 1a68 ff3a f095 0e3d b9b2 d3bd
00000010: 48fb 2e3e 5a0f 36be d1ab c7bd 9faa a9bd
00000020: 1042 223d a449 12be 0f19 1c3e 6ad0 dfbd
00000030: a78f 97bd 3b92 de3c 97a8 adbd cc82 0abe
00000040: 8992 163e 4209 b23c 1e16 bfbd abdb 4a3e
00000050: 1400 823e 4aef f7bd bf81 093d ad91 c5bd
00000060: 2411 aebd 6546 a53d 94ad 2ebd 1ea0 d7bd
00000070: 6513 20be e610 ccbd d42f 9bbd 33b0 943d
00000080: 4252 5dbc 0cc1 b2bd ba0d a7bd 6a7f 3a3e
00000090: 6a02 273e fd11 5e3e 2fa3 0b3e 3205 98bd
000000a0: 21dd 9abb 7e9a e8bd c79e 53bd 3096 17be
000000b0: 9b26 6cbe 0a80 113e 4cfd 783b 09db 33be
000000c0: 4a1c 1abd 0ccd 5b3d b0f7 8fbd f759 1b3e
000000d0: e589 1abe f0af e1bd 382c 3e3d 4105 58be
000000e0: c495 2b3e 6240 fcbb d4a7 08bd 2e53 37bc
000000f0: dd35 143e f2c1 853d dcc2 863e 836a 653e
00000100: 6802 d2bc c595 d63d 1998 aabd 4b8e 64be
00000110: ddb3 51bc e300 a83c 0fcb 4b3d 9a37 ee3c
00000120: ee59 8b3c b770 19be e70d cfbc 0e09 873d
00000130: 05f0 c63d 0c16 e53d 7384 35be 7817 4c3d
00000140: f643 3b3e bab6 94bd 0bb7 4b3e 7457 3a3e
00000150: 542e bf3d d331 0cbe 7439 68be 7a87 58bb
00000160: 1d45 a2bd f980 a8bd 9751 97bd 7b0b eabc
00000170: 0493 d23d f3d0 73bd 5910 4a3e 1bea 9fbd
00000180: 8d01 bfbb 77d5 97bd bf76 853d bde1 5ebe
00000190: d018 3abd 0ddd c23c 1d3d 2dbe 3259 2dbd
000001a0: b222 673d 2a9d 463d 3dc7 4dbd 425c c3bd
000001b0: f58c 173d 7a9c a7bc e192 0d3e db63 09be
000001c0: 44d0 39bd bd76 573d e349 c43d ec5f 2fbd
000001d0: 49b9 3abd e164 43bc f1ad 49be 6372 6f3b
000001e0: 5e42 503e edd5 803b bf68 263e b68a 113e
000001f0: 598d 273e ab6f 17be 87e8 16be 162f b03d
00000200: 8820 8dbd d7b1 24bd 34b9 003e 1c96 f63d
00000210: 7e70 fdbd 333d 1fbd 3794 273d cb0e 0c3e
00000220: 7af9 27be 169e 07be 5dc6 c53d 15f0 c73d
00000230: d115 143e 6319 63bd e2ea bc3b 3bc8 22be
00000240: b414 07be fd2b 05be 4059 34bd efb9 873e
00000250: 17e9 833c 387e bd3c c865 29ba 843c ae3d
00000260: cf78 143e 1884 ae3d c08e e93c f126 83bd
00000270: e9f1 d73d 525e dbbc 98b6 cd3d a0c4 b03d
00000280: 4d4f 80bd 14bd 69bd 3271 123e b4f8 55bd
00000290: f634 e63a 4e6d d83d 4431 90bc 9a51 40bd
000002a0: b7da 103e bf90 c03b 8aab 563d f1be ec3d
000002b0: 1d4b 423d 56ad 243e 4bf4 dfbd 8a6a 553e
000002c0: 8d34 193e 43e8 e03d 2fc6 54be dceb 62be
000002d0: c45b 64bd d1a6 763d 9946 22be bcf7 1cbe
000002e0: 9441 1ebe 4b53 4c3d de26 b93d 9158 af3c
000002f0: b8f0 0b3e a87b 3c3e 11d6 01be 9e74 093e
00000300: 1b4e bcbd 56b3 01be 1372 59bd 5364 25bd
00000310: 01a5 1e3e 2c0c 3f3e c3f5 c53d 6ca9 54bd
00000320: f5d4 3bbd 8d1d 0ebe e49a 9fbd 04d9 a5bd
00000330: 25dc 213e cc9b adbb a08b 1fbd 30d5 94bd
00000340: 8098 c23d e46c cf3d f635 e7bd b198 2d3e
00000350: 1dd0 debd fde0 d1bd 85f9 693d 7967 ee3d
00000360: 658b e3bd 4624 843d 48ab d33b fe7e 21bd
00000370: 80e1 dc3a ece2 b03b 4b16 84bd 6aed 153d
00000380: 2442 813d 17cb f63c 0c77 11be 3732 173e
00000390: 1fae d33c fdbf 803d 7bf8 f23c 0d99 22bc
000003a0: b5ba 963d 3d12 3d3e 849f 4e3d 78f8 2bbe
000003b0: 8364 4fbb 1d87 a8bd a65a debd b79b 4bbd
000003c0: e0e7 143d f7c7 b5bd 0f0b c13d 23c5 363d
000003d0: f75e 493d 0764 193c 9771 233e 366a 91bb
000003e0: facf a8bc 2aab e4bc f55f eabc 846a 19bd
000003f0: 4fee 42be 9855 e53d 527f db3d ca2a b1bd

encoder.conv1.concepts__rev_links__materials.lin_dst.weight f4 [48, 128]
0.0627836 -0.19559352 0.007893464 -0.10868402 0.020451145 -0.11611528 -0.05793294 0.088383846
-0.23087335 0.010516512 0.19526973 -0.09481531 0.02481614 -0.07374571 0.04748456 0.20355836
0.17146711 0.10299189 -0.03119482 0.20131114 0.121200286 0.21632047 -0.11796213 0.050438024
-0.049440082 0.06995435 -0.08778702 0.037904974 -0.12815243 0.025558341 -0.10601553 0.19461124
0.19357361 -0.12552921 -0.015646812 0.12320099 -0.11852794 -0.19535573 -0.12227687 -0.0460581
0.09300432 -0.12521596 0.078520745 0.070078366 0.221592 0.10031671 0.16441412 0.15498564
-0.214608 0.022414591 0.16460171 0.1586933 -0.1288331 -0.12797071 -0.12879701 0.06134638
-0.07298644 0.1104972 0.020872978 -0.15922439 0.2106226 -0.037247833 0.2212842 0.0446284
0.030419668 0.11890074 0.22831428 0.0055884193 0.070573814 -0.21236886 0.08980758 -0.05747262
-0.034663934 -0.10715356 -0.15277003 0.026489805 -0.11986792 -0.11912022 -0.16562758 0.063420035
0.07131364 0.14928806 -0.059812136 0.15826352 0.08305445 0.03150353 -0.059805755 0.04035673
0.019896096 0.19217204 -0.17426151 -0.16913565 -0.12606534 0.07260288 -0.059559915 0.022263736
-0.11561729 0.031502485 -0.061905406 0.13917693 0.010919685 -0.18365471 0.054310285 -0.06078511
-0.07201032 0.20964405 0.011497883 -0.21302515 -0.117129184 0.11415904 0.02183939 0.061426487
0.21163212 -0.09213128 0.030124472 -0.066328816 0.108657986 0.14190565 -0.12991072 -0.03793863
-0.008875196 -0.08997297 0.093220435 0.15921076 0.06400807 -0.09384601 0.11679434 0.09038802
0.19544896 -0.10385495 -0.15888917 0.1657414 0.008288232 0.03941837 0.027320687 0.19869119
-0.17855062 0.22679639 0.14135936 -0.20221694 -0.13202462 -0.05007131 -0.043239105 0.2344798
-0.010155511 0.22326946 -0.02530102 -0.12132106 0.19455844 0.057964597 0.04819746 0.011856808
-0.063547164 0.14450987 -0.057962973 -0.09302925 0.1421153 0.040572494 -0.17169242 0.043057416
-0.052330185 0.18376234 0.1637178 0.04265185 0.019517574 -0.046282604 0.15676752 -0.022602597
-0.16489466 -0.012214506 0.061735284 -0.118982516 -0.06133079 0.0259018 0.1057988 -0.06546865
-0.20574205 0.15397273 0.05624361 -0.0120326765 -0.083269216 -0.07390101 0.13284783 -0.17179558
-0.09518082 0.18355893 -0.009794013 -0.013086098 0.20989937 0.22615653 0.1913363 -0.09096293
-0.1013621 -0.07039299 0.10855123 0.01703465 -0.06445024 -0.22923046 -0.1339704 -0.12325204
-0.23636451 -0.21591325 -0.19389185 -0.09714099 0.062500075 -0.16927783 -0.0730107 -0.016994122
-0.11372862 0.20808472 0.102803335 0.2316717 0.22534688 0.05555268 -0.116021186 0.098172486
0.087681666 -0.034470223 0.1098017 -0.11056696 0.024010632 0.000656593 0.1723776 -0.09530319
0.04197865 0.03640667 0.04467186 -0.06520366 0.061305787 -0.20387958 -0.22865316 -0.019027082
-0.04364915 0.13133158 -0.16315028 -0.17379852 0.09657837 0.107909344 0.12293734 -0.23815478
0.15506575 -0.06924295 0.22490168 -0.13707015 -0.08438654 -0.071450986 0.21177512 -0.07407021
0.0122246845 0.09716322 -0.042247288 0.15058933 -0.079938404 0.04927496 -0.12083408 0.03830157
00000000: b094 803d ab49 48be 9653 013c ba95 debd
00000010: 2989 a73c d9cd edbd 174b 6dbd 9702 b53d
00000020: 106a 6cbe 734d 2c3c caf4 473e 872e c2bd
00000030: 384b cb3c fe07 97bd 2c7f 423d 9a71 503e
00000040: 1395 2f3e 69ed d23d 478c ffbc 8224 4e3e
00000050: db37 f83d 1d83 5d3e 2196 f1bd 1a98 4e3d
00000060: af81 4abd 3a44 8f3d aec9 b3bd 3f42 1b3d
00000070: 643a 03be ba5f d13c ac1e d9bd 2b48 473e
00000080: 2938 463e bb8a 00be be2d 80bc cd50 fc3d
00000090: c7be f2bd 550b 48be 4c6c fabd 6ba7 3cbd
000000a0: 0d79 be3d 9d38 00be 7ccf a03d 3f85 8f3d
000000b0: 03e9 623e d972 cd3d 2d5c 283e 8eb4 1e3e
000000c0: 33c2 5bbe ce9e b73c 5a8d 283e 7f80 223e
000000d0: d3ec 03be c10a 03be 5de3 03be 5746 7b3d
000000e0: ea79 95bd 5b4c e23d cffd aa3c b80b 23be
000000f0: 73ad 573e 2f91 18bd 5398 623e 45cc 363d
00000100: ab32 f93c 3b82 f33d 38cb 693e 0f1f b73b
00000110: 0189 903d 3977 59be 09ed b73d 6968 6bbd
00000120: c5fb 0dbd 5373 dbbd bf6f 1cbe 2601 d93c
00000130: 507d f5bd 4df5 f3bd 479a 29be 5de2 813d
00000140: e30c 923d f8de 183e 92fd 74bd d50f 223e
00000150: 7418 aa3d d809 013d e1f6 74bd 194d 253d
00000160: 23fd a23c bfc8 443e 9c71 32be e531 2dbe
00000170: 4617 01be d2b0 943d 19f5 73bd 7062 b63c
00000180: c2c8 ecbd c008 013d 8690 7dbd 6684 0e3e
00000190: 7ae8 323c fb0f 3cbe 7674 5e3d cff9 78bd
000001a0: 267a 93bd eeac 563e 9e61 3c3c 4423 5abe
000001b0: 6de1 efbd 37cc e93d 85e8 b23c 579a 7b3d
000001c0: 17b6 583e 53af bcbd 99c7 f63c 67d7 87bd
000001d0: 1488 de3d b74f 113e 5107 05be 8965 1bbd
000001e0: 4569 11bc c043 b8bd 5bea be3d 2508 233e
000001f0: aa16 833d 5632 c0bd df31 ef3d 5b1d b93d
00000200: c623 483e e7b1 d4bd d8b3 22be 1db8 293e
00000210: 5dcb 073c 2875 213d a2cf df3c b475 4b3e
00000220: f9d5 36be 503d 683e 82c0 103e f511 4fbe
00000230: 7631 07be 9317 4dbd 7d1b 31bd 791b 703e
00000240: 4d63 26bc c0a0 643e 1644 cfbc 2d77 f8bd
00000250: 543a 473e 496c 6d3d b36a 453d 0f43 423c
00000260: 0425 82bd 65fa 133e 956a 6dbd 1f86 bebd
00000270: ac86 113e 582f 263d 23d0 2fbe f95c 303d
00000280: 2d58 56bd 322c 3c3e a4a5 273e b5b3 2e3d
00000290: 52e3 9f3c d492 3dbd aa87 203e 1529 b9bc
000002a0: 25da 28be 5a1f 48bc 23de 7c3d 1bad f3bd
000002b0: ff35 7bbd 0330 d43c 0bad d83d 6d14 86bd
000002c0: 0bae 52be 07ab 1d3e b35f 663d b424 45bc
000002d0: 0d89 aabd 6a59 97bd 4309 083e 2eeb 2fbe
000002e0: 29ee c2bd dff6 3b3e 1177 20bc 1367 56bc
000002f0: dcef 563e 9495 673e aaed 433e c64a babd
00000300: ef96 cfbd 332a 90bd 1b50 de3d 408c 8b3c
00000310: 7dfe 83bd 64bb 6abe 892f 09be 916b fcbd
00000320: 8a09 72be 5d18 5dbe 968b 46be dbf1 c6bd
00000330: 0a00 803d 2b57 2dbe a286 95bd 4237 8bbc
00000340: 8dea e8bd 2914 553e 8e8a d23d 593b 6d3e
00000350: 55c1 663e 358b 633d 849c edbd a80e c93d
00000360: 7292 b33d a630 0dbd b7df e03d ee70 e2bd
00000370: f2b1 c43c 361f 2c3a c183 303e 522e c3bd
00000380: cef1 2b3d 291f 153d d7f9 363d 7f89 85bd
00000390: c71b 7b3d cfc5 50be 0e24 6abe afde 9bbc
000003a0: 73c9 32bd c97b 063e de10 27be 3df8 31be
000003b0: e1ca c53d 93ff dc3d 92c6 fb3d d9de 73be
000003c0: 8ec9 1e3e 3fcf 8dbd a04c 663e 1e5c 0cbe
000003d0: dad2 acbd e554 92bd 94db 583e 1fb2 97bd
000003e0: 0b4a 483c 83fd c63d 7e0b 2dbd 1734 1a3e
000003f0: bfb6 a3bd 8ad4 493d dc77 f7bd 1be2 1c3d

encoder.conv2.materials__links__concepts.att_src f4 [1, 1, 48]
-0.15102218 0.12700798 0.37867054 -0.23132601 0.18997443 -0.13029262 -0.17102581 -0.0057305293
-0.27505478 0.1276923 -0.328864 -0.030426327 0.28641495 0.08515848 -0.12856305 0.21834736
0.01637661 0.10768942 -0.03125929 0.23180352 -0.11130018 -0.1865939 -0.22093235 -0.21211147
-0.18507725 0.19357258 0.0848101 0.31081745 0.16996503 -0.32348108 -0.1934499 0.19530152
0.30648443 -0.17702433 0.0130006205 0.0742794 -0.26789752 0.25407273 0.31376746 0.32949692
0.29936787 -0.08753045 -0.029835261 -0.13881555 -0.24243253 0.05744918 0.09338383 -0.2207495
00000000: 8fa5 1abe 610e 023e 1be1 c13e bae0 6cbe
00000010: a888 423e 6e6b 05be 6421 2fbe 2ac7 bbbb
00000020: fbd3 8cbe c5c1 023e dd60 a8be a240 f9bc
00000030: fba4 923e 9267 ae3d 08a6 03be 7396 5f3e
00000040: 3e28 863c 458c dc3d be09 00bd e75d 6d3e
00000050: 59f1 e3bd 7912 3fbe 173c 62be c033 59be
00000060: e484 3dbe e437 463e ebb0 ad3d 7723 9f3e
00000070: 500b 2e3e 509f a5be bb17 46be 1ffd 473e
00000080: 87eb 9c3e de45 35be 8e00 553c cc1f 983d
00000090: dd29 89be d215 823e 21a6 a03e d2b3 a83e
000000a0: bf46 993e 2a43 b3bd 1469 f4bc aa25 0ebe
000000b0: 3c40 78be d54f 6b3d 0540 bf3d 280c 62be

encoder.conv2.materials__links__concepts.att_dst f4 [1, 1, 48]
0.10737617 0.08441652 -0.11309421 0.05259785 -0.2696937 0.05412959 -0.40428403 0.099046975
0.04257464 0.30671608 -0.09622924 0.22444962 -0.17220466 -0.11548374 0.23798917 -0.24443698
0.18738449 -0.0964813 0.045929164 -0.17982942 -0.32077417 0.041926533 -0.04665055 0.15207629
0.16529763 0.39457238 -0.23075551 -0.073551066 -0.38068053 0.26025543 -0.23558196 0.06990277
-0.2271448 0.05810096 -0.020893157 -0.2063025 -0.12825958 -0.080756485 -0.1892165 -0.010808757
-0.21248002 0.12839568 -0.3754397 0.24692999 0.16812713 -0.040950183 -0.1004498 0.08196306
00000000: 0ae8 db3d 92e2 ac3d f09d e7bd d870 573d
00000010: 4b15 8abe fdb6 5d3d 51fe cebe 24d9 ca3d
00000020: bf62 2e3d e409 9d3e d613 c5bd 1fd6 653e
00000030: 6b56 30be bd82 ecbd 6fb3 733e b04d 7abe
00000040: b8e1 3f3e fd97 c5bd 3820 3c3d 3425 38be
00000050: 833c a4be 28bb 2b3d a614 3fbd e3b9 1b3e
00000060: c843 293e 6405 ca3e 2c4b 6cbe f1a1 96bd
00000070: 8fe8 c2be 3340 853e 663c 71be 2f29 8f3d
00000080: a598 68be 46fb 6d3d 2028 abbc f640 53be
00000090: 7b56 03be a863 a5bd f8c1 41be 3617 31bc
000000a0: 5d94 59be 287a 033e a239 c0be 37db 7c3e
000000b0: 8529 2c3e 61bb 27bd a0b8 cdbd 40dc a73d

encoder.conv2.materials__links__concepts.bias f4 [48]
0.032508373 0.03021601 -0.018722527 -0.02936304 0.046937138 0.012063061 0.02289498 0.010630309
0.015702114 0.006112577 0.04808381 -0.033975903 0.007525373 -0.02517164 -0.02868914 0.026963346
-0.015222189 0.032454174 0.011255086 -0.019928167 -0.040584687 0.03923196 -0.03207743 0.0023148477
0.022202237 0.03770504 -0.038670525 0.030686324 -0.010694388 0.031835936 -0.040710997 0.054811515
0.008842587 -0.011308161 -0.0032959746 -0.019862458 0.0024553107 -0.0482149 0.040075008 0.022876507
-0.04217209 -0.028647508 -0.0005148493 -0.004767447 0.017380642 -0.06350858 0.010736081 -0.018807407
00000000: 8027 053d 9187 f73c fc5f 99bc c28a f0bc
00000010: 2841 403d 25a4 453c 418e bb3c bf2a 2e3c
00000020: b8a1 803c 034c c83b 87f3 443d 512a 0bbd
00000030: 6797 f63b c134 cebc 7d05 ebbc 3ce2 dc3c
00000040: 7d66 79bc abee 043d 4167 383c 6540 a3bc
00000050: 213c 26bd b1b1 203d a063 03bd b3b4 173b
00000060: 77e1 b53c 9a70 1a3d fc64 1ebd e361 fb3c
00000070: 8437 2fbc 6666 023d 93c0 26bd 0a82 603d
00000080: 7fe0 103c dd45 39bc 4701 58bb 98b6 a2bc
00000090: 47e9 203b fd7c 45bd b125 243d 8367 bb3c
000000a0: a4bc 2cbd 2eae eabc f4f6 06ba 3e38 9cbb
000000b0: d961 8e3c c910 82bd 63e6 2f3c fe11 9abc

encoder.conv2.materials__links__concepts.lin_src.weight f4 [48, 48]
-0.22444321 0.11552268 0.092276655 0.19655244 -0.034779906 -0.1789195 -0.18651828 0.10584491
0.108795695 -0.032227088 -0.19630851 -0.11719921 0.096025266 0.08804167 0.16097616 0.17059234
0.02901738 -0.23870388 -0.13390194 0.19960146 0.16499142 0.02397376 -0.22857215 0.10189649
-0.21458952 -0.06521192 0.10320443 -0.12942334 -0.16620523 0.06739868 0.25207636 -0.1414427
-0.032087673 -0.042143643 -0.1308829 -0.15492178 0.05909302 0.21723029 0.21101725 0.2540091
-0.06397011 0.13904051 -0.24967961 -0.039864168 0.18568386 0.1278173 0.0054591186 -0.23130226
0.22512273 -0.15958609 0.051360983 0.013161102 0.056092497 0.06662782 -0.033935376 -0.020285567
-0.021749422 -0.17531528 -0.01591481 -0.11908644 0.21109852 -0.16141695 0.005104343 0.037701074
-0.065545544 0.18805741 0.18598758 0.23433757 -0.11238617 -0.097781904 -0.06574526 -0.045482215
0.16851434 -0.06990837 0.23987308 0.06365514 0.10648388 0.0135222385 0.09140263 -0.11175846
-0.04331354 -0.018939352 -0.15566391 0.23416443 -0.123699516 -0.09850165 0.26714915 -0.14596413
0.09910758 0.27140877 0.036253713 -0.019152287 0.2057694 -0.16356502 0.1035247 -0.12017265
0.07113524 0.2268868 -0.16470334 -0.27910784 -0.20988318 -0.15800187 -0.18228202 -0.12527372
-0.18708332 0.050029475 -0.055555895 -0.25933802 -0.09386628 0.15764678 0.18587379 -0.017136935
0.20727473 -0.16520943 -0.17625086 0.09033414 -0.12921788 -0.16296487 -0.18552734 0.11439064
0.17997158 -0.24662854 0.055674314 0.05806778 -0.113746464 0.08138714 0.18459451 -0.150438
-0.1794003 -0.07972359 0.22059697 -0.110531785 -0.025230175 -0.16020621 0.044029642 0.03710113
-0.10158325 -0.19248359 0.0475984 0.016443774 0.1499652 -0.19349486 0.1767381 -0.06441861
-0.11984636 -0.23224445 0.18859155 -0.1529285 -0.25281653 0.18521975 0.047715776 0.110182755
0.15613063 -0.12310087 -0.1221515 -0.03711111 0.09173827 -0.06533202 -0.017157236 0.1562599
-0.00975854 0.13945837 -0.15211946 0.14962672 0.19121903 -0.19415346 0.010227336 0.043812595
0.05216841 0.07911536 -0.113467515 -0.1130297 -0.080051534 -0.05382451 -0.28959313 0.02193126
0.15328684 -0.053672913 0.11889098 -0.22065374 0.14023653 -0.12269456 0.036300536 -0.14491874
-0.028613456 -0.07816531 0.23918347 0.31071874 -0.09420072 -0.019411625 -0.17533788 0.14511937
0.21721332 -0.17734563 -0.09980418 0.18130578 -0.0680534 0.11960438 0.13527106 -0.086605676
0.110435754 -0.037242163 0.21007006 -0.03958936 0.08992811 0.1392952 0.25129542 -0.2050393
0.11166833 -0.031092301 -0.07758314 0.16155234 -0.084318526 0.0127066625 -0.1425998 -0.16612233
-0.13541767 0.14926046 -0.105318815 0.054305624 0.1073795 -0.20896167 0.3081513 0.281735
-0.25025144 -0.12683189 0.2523051 0.08208451 -0.14694487 0.035022065 0.15279756 -0.12498644
-0.09854098 -0.0714252 -0.016674424 0.20440859 -0.025721578 0.11938581 0.1961924 -0.11404105
0.20892915 -0.03663344 0.04047301 -0.2593336 0.1405081 -0.2215149 0.24564831 0.1605067
0.06076278 -0.011250912 0.20516495 0.16378891 -0.15166225 0.20672815 -0.2339944 0.10237355
00000000: 71d4 65be 2897 ec3d 8bfb bc3d 0b45 493e
00000010: 6075 0ebd ac36 37be a6fe 3ebe 37c5 d83d
00000020: 47d0 de3d 8d00 04bd 1905 49be 2406 f0bd
00000030: e5a8 c43d 314f b43d efd6 243e c2af 2e3e
00000040: dbb5 ed3c ca6e 74be 971d 09be 5364 4c3e
00000050: 83f3 283e 9e64 c43c d10e 6abe 1baf d03d
00000060: 5bbd 5bbe d48d 85bd d85c d33d 8d87 04be
00000070: b431 2abe 5208 8a3d 2710 813e 5bd6 10be
00000080: 5d6e 03bd d09e 2cbd 2b06 06be d1a3 1ebe
00000090: 860b 723d 9e71 5e3e e814 583e 7b0d 823e
000000a0: c302 83bd a360 0e3e 03ac 7fbe 9c48 23bd
000000b0: e923 3e3e 8ae2 023e 68e2 b23b 80da 6cbe
000000c0: 9386 663e 896a 23be e55f 523d aaa1 573c
000000d0: 3fc1 653d 2b74 883d d2ff 0abd eb2d a6bc
000000e0: d82b b2bc d985 33be c75f 82bc 97e3 f3bd
000000f0: 362a 583e 7c4a 25be 5542 a73b 716c 1a3d
00000100: be3c 86bd 1f92 403e 8773 3e3e 30f6 6f3e
00000110: b82a e6bd e141 c8bd 73a5 86bd 8f4b 3abd
00000120: 068f 2c3e 1f2c 8fbd 4aa1 753e a05d 823d
00000130: 3814 da3d 618c 5d3c 4d31 bb3d 9fe1 e4bd
00000140: 8a69 31bd b326 9bbc 5c66 1fbe cdc8 6f3e
00000150: 2c56 fdbd 3cbb c9bd c6c7 883e 9f77 15be
00000160: eaf8 ca3d 17f6 8a3e c67e 143d 42e5 9cbc
00000170: 37b5 523e 977d 27be c204 d43d 141d f6bd
00000180: 5aaf 913d 0355 683e fea7 28be 39e7 8ebe
00000190: 9eeb 56be 3ecb 21be 23a8 3abe c147 00be
000001a0: c592 3fbe b5eb 4c3d 948e 63bd f4c7 84be
000001b0: f73c c0bd 286e 213e b355 3e3e c262 8cbc
000001c0: d43f 543e a92c 29be 1b7b 34be 1b01 b93d
000001d0: b151 04be 43e0 26be e1fa 3dbe a445 ea3d
000001e0: 784a 383e 318c 7cbe c00a 643d 7bd8 6d3d
000001f0: e8f3 e8bd 4dae a63d 5806 3d3e 6b0c 1abe
00000200: b6b4 37be 1f46 a3bd 2ce4 613e 7d5e e2bd
00000210: 83af cebc 190d 24be 6d58 343d 5bf7 173d
00000220: e10a d0bd 6b1a 45be 8af6 423d 18b5 863c
00000230: 7a90 193e 8423 46be d5fa 343e e7ed 83bd
00000240: 0272 f5bd 7dd1 6dbe 251e 413e 4a99 1cbe
00000250: 2b71 81be 3faa 3d3e 9e71 433d 7fa7 e13d
00000260: b5e0 1f3e 4f1c fcbd 912a fabd d201 18bd
00000270: 46e1 bb3d cbcc 85bd 558d 8cbc 9802 203e
00000280: 49e2 1fbc 2dce 0e3e 34c5 1bbe bf37 193e
00000290: ecce 433e 2ad0 46be 8e90 273c d674 333d
000002a0: 8bae 553d 3c07 a23d a861 e8bd 1e7c e7bd
000002b0: 0ff2 a3bd 1777 5cbd 8d45 94be 30a9 b33c
000002c0: 3af7 1c3e 21d8 5bbd 1d7d f33d 0ef3 61be
000002d0: 2a9a 0f3e 4947 fbbd dfaf 143d 9465 14be
000002e0: c466 eabc 2215 a0bd 83ec 743e 8716 9f3e
000002f0: 4fec c0bd 2105 9fbc c68b 33be 2c9a 143e
00000300: 2b6d 5e3e 189a 35be 2266 ccbd 39a8 393e
00000310: 955f 8bbd 24f3 f43d 7f84 0a3e 515e b1bd
00000320: 242c e23d 3d8b 18bd 9b1c 573e 7428 22bd
00000330: 3b2c b83d 67a3 0e3e cba9 803e d2f5 51be
00000340: 5eb2 e43d 48b5 febc e9e3 9ebd fa6d 253e
00000350: 31af acbd 9b2f 503c af05 12be f91b 2abe
00000360: eeaa 0abe bcd7 183e 64b1 d7bd 936f 5e3d
00000370: c9e9 db3d 0cfa 55be 02c6 9d3e 923f 903e
00000380: f520 80be 38e0 01be 222e 813e ec1b a83d
00000390: b778 16be 4c73 0f3d f776 1c3e e4f8 ffbd
000003a0: dacf c9bd 6047 92bd cd98 88bc 7c50 513e
000003b0: 0fb6 d2bc 8c80 f43d a9e6 483e 5b8e e9bd
000003c0: 86f1 553e f20c 16bd 07c7 253d 60c7 84be
000003d0: 5be1 0f3e cdd4 62be 3b8b 7b3e de5b 243e
000003e0: 65e2 783d bf55 38bc c316 523e 48b8 273e
000003f0: 594d 1bbe 8bb0 533e 3a9c 6fbe 39a9 d13d

encoder.conv2.materials__links__concepts.lin_dst.weight f4 [48, 48]
-0.1397861 -0.019943206 0.04182636 0.22047772 0.1649144 0.18813509 0.104496986 0.08597729
-0.17966126 -0.07173629 -0.00482779 -0.07085945 -0.0018558364 0.14950292 0.29233235 -0.12391371
0.05557671 -0.09167435 0.16389112 0.15006667 0.18095353 -0.093784854 -0.11514696 -0.020213528
0.22648641 -0.035301555 -0.079021685 -0.0019343937 0.15661578 -0.26846293 -0.124296054 0.0023550047
0.07956962 0.23249298 0.14795882 0.20848784 0.12002365 0.23875126 0.14367606 -0.08352118
-0.16518058 0.14202066 -0.008777362 -0.2409447 -0.1472404 0.040159173 -0.18968712 0.20598707
-0.12119501 -0.20861197 0.07937917 0.064219765 -0.10303982 0.008041393 0.17847194 -0.03709996
0.108783826 0.02781674 -0.18747132 0.10920376 0.08758124 0.08392885 0.18275478 0.088852994
0.13361076 0.0966259 -0.1097953 -0.1188464 -0.035541296 0.19507843 0.2915728 0.22487037
-0.061077 0.28338632 0.11526397 0.13225795 -0.13637339 -0.019014582 -0.12863769 -0.013602215
-0.062548615 0.035903275 0.041253466 -0.18345621 0.0956475 -0.03523323 0.16054663 -0.16225563
0.22503768 0.21903053 -0.089117706 -0.25150892 0.16238461 -0.029848604 -0.28625774 0.047297336
0.11374746 0.18671004 -0.08557557 -0.18576528 0.29160672 -0.108996294 0.16156422 0.036583006
0.14694408 0.013503947 -0.029596351 0.06609592 -0.2977626 -0.006887186 -0.06915702 0.084182315
0.1685351 0.11394157 0.10063354 -0.08452349 0.13964081 -0.07682076 -0.2463252 -0.102742724
0.20965707 -0.120808005 -0.17779154 -0.1510942 -0.2679936 0.04931633 0.100792676 -0.12643088
-0.0798783 -0.12034997 0.015303768 -0.08444489 -0.2515196 -0.1641255 0.04811034 -0.056468543
-0.010965417 0.25616178 0.02015466 -0.043480523 0.07946964 -0.029842528 -0.18044448 0.09622058
-0.053992514 0.00577222 -0.3198123 0.065286204 0.08764905 -0.13333409 -0.10123849 -0.23633078
0.036579143 -0.10520645 -0.19411835 0.1878816 -0.26536205 0.13866018 0.16468474 -0.060052946
-0.029903237 0.1341678 0.006778973 -0.27135855 0.22296628 0.17218296 -0.26923174 -0.012825165
0.013598025 0.119007595 0.045490887 -0.10613975 -0.16956861 0.07640013 -0.17121203 -0.10896982
-0.153696 0.15855226 0.048463795 -0.07060313 -0.026365329 0.13027212 -0.3247079 0.16291189
0.065268554 -0.047187015 0.23507595 0.008043387 0.040043265 0.15191056 0.067438886 -0.20254667
0.014885264 0.22354248 -0.29272604 0.10686417 -0.10269562 0.18359272 -0.17189632 -0.18257554
-0.16330929 0.03790189 -0.09461585 -0.19028799 -0.298554 0.05102791 0.16126241 0.0010516963
0.018768566 -0.20339586 0.12089615 -0.31527755 0.122905344 -0.16806246 -0.04760897 -0.26781565
-0.20469943 -0.2726936 0.23309353 -0.0390901 0.04802101 -0.001968671 0.21625008 0.18360943
-0.3191099 0.12671712 0.110045806 0.13590622 -0.016567707 0.22733888 -0.01742477 0.10216613
0.0352973 0.16463615 0.106575325 0.08156988 -0.0042004613 -0.11071797 -0.064336166 0.08075775
-0.038162988 0.020370573 0.111002944 0.2630787 -0.24903364 0.13084826 0.15276554 0.118283026
0.13289501 0.20562328 -0.060369324 -0.04802687 -0.14401914 0.25824702 0.2723585 0.21009642
00000000: 1624 0fbe ef5f a3bc 1e52 2b3d e9c4 613e
00000010: 52df 283e 7ca6 403e 8402 d63d dd14 b03d
00000020: 1ff9 37be 7aea 92bd 7032 9ebb c21e 91bd
00000030: 893f f3ba 4b17 193e 96ac 953e 79c6 fdbd
00000040: 67a4 633d c3bf bbbd 13d3 273e 14ab 193e
00000050: e24b 393e 4612 c0bd 2bd2 ebbd d796 a5bc
00000060: 0eec 673e 5d98 10bd 1fd6 a1bd 7b8b fdba
00000070: e35f 203e f973 89be ee8e febd 6c56 1a3b
00000080: 66f5 a23d a412 6e3e 8482 173e d67d 553e
00000090: f6ce f53d 367b 743e d11f 133e 270d abbd
000000a0: 1925 29be dd6d 113e edce 0fbc 35ba 76be
000000b0: 30c6 16be f27d 243d 573d 42be 46ee 523e
000000c0: 1735 f8bd 609e 55be 8c91 a23d a785 833d
000000d0: 8b06 d3bd 0cc0 033c 59c1 363e 21f6 17bd
000000e0: 0eca de3d efdf e33c 7bf8 3fbe 39a6 df3d
000000f0: cb5d b33d e4e2 ab3d 1224 3b3e 8ff8 b53d
00000100: 42d1 083e cde3 c53d 5cdc e0bd be65 f3bd
00000110: c093 11bd a4c2 473e 0849 953e 6b44 663e
00000120: e02b 7abd 0318 913e 840f ec3d a16e 073e
00000130: 77a5 0bbe 78c4 9bbc 99b9 03be d3db 5ebc
00000140: 7d19 80bd 500f 133d 65f9 283d f2db 3bbe
00000150: d6e2 c33d b850 10bd 5666 243e 5726 26be
00000160: 4770 663e 8a49 603e 5883 b6bd c7c5 80be
00000170: 2748 263e 0f85 f4bc 6090 92be daba 413d
00000180: 6ef4 e83d eb30 3f3e 3f42 afbd 4139 3ebe
00000190: 7a4d 953e 7339 dfbd 1771 253e 10d8 153d
000001a0: 8278 163e a93f 5d3c 0c74 f2bc 4c5d 873d
000001b0: 5774 98be e7ad e1bb 32a2 8dbd c767 ac3d
000001c0: 7794 2c3e 335a e93d f518 ce3d a71a adbd
000001d0: 00fe 0e3e 3454 9dbd ac3c 7cbe c76a d2bd
000001e0: 58b0 563e 306a f7bd fc0e 36be 70b8 1abe
000001f0: 7536 89be ecff 493d 646c ce3d 1977 01be
00000200: 3c97 a3bd 0c7a f6bd a8bc 7a3c 71f1 acbd
00000210: 2dc7 80be 8410 28be 590f 453d 8f4b 67bd
00000220: 4ba8 33bc a327 833e 631b a53c a218 32bd
00000230: fbc0 a23d 5178 f4bc 70c6 38be 4c0f c53d
00000240: 4127 5dbd e424 bd3b 70be a3be c6b4 853d
00000250: 5881 b33d bb88 08be 2056 cfbd b200 72be
00000260: 03d4 153d 7b76 d7bd f6c6 46be 0964 403e
00000270: 89dd 87be effc 0d3e 1ea3 283e 14fa 75bd
00000280: a2f7 f4bc 4963 093e 2622 de3b 82ef 8abe
00000290: 4651 643e bb50 303e bed8 89be a420 52bc
000002a0: 40ca 5e3c 41ba f33d a754 3a3d cc5f d9bd
000002b0: 65a3 2dbe ac77 9c3d 3552 2fbe 922b dfbd
000002c0: 7c62 1dbe 865b 223e f981 463d 6098 90bd
000002d0: 1afc d7bc 0e66 053e 1d40 a6be 60d2 263e
000002e0: 85ab 853d 2c47 41bd c0b7 703e 69c8 033c
000002f0: 6804 243d 718e 1b3e 661d 8a3d 6568 4fbe
00000300: 53e1 733c 52e8 643e 30e0 95be 9adb da3d
00000310: 1552 d2bd bbff 3b3e 9705 30be 15f5 3abe
00000320: 8d3a 27be 033f 1b3d f4c5 c1bd dbda 42be
00000330: 12dc 98be a402 513d f921 253e 12d9 893a
00000340: 89c0 993c 0147 50be 6798 f73d 0f6c a1be
00000350: ccb5 fb3d 9118 2cbe a001 43bd 221f 89be
00000360: ba9c 51be 7f9e 8bbe 12b0 6e3e f11c 20bd
00000370: aeb1 443d d204 01bb a970 5d3e 1c04 3c3e
00000380: 5f62 a3be 22c2 013e b25f e13d 002b 0b3e
00000390: 00b9 87bc 86cb 683e 64be 8ebc 7a3c d13d
000003a0: e793 103d 6196 283e 2a44 da3d 1c0e a73d
000003b0: 06a4 89bb 1ac0 e2bd aec2 83bd 5264 a53d
000003c0: cb50 1cbd 30e0 a63c 8355 e33d 40b2 863e
000003d0: ad02 7fbe 16fd 053e 926e 1c3e 5f3e f23d
000003e0: a115 083e e98e 523e d345 77bd d3b7 44bd
000003f0: c179 13be f438 843e 9372 8b3e 8423 573e

encoder.conv2.concepts__rev_links__materials.att_src f4 [1, 1, 48]
0.100830995 -0.2584802 0.12608343 -0.3109965 -0.26299414 -0.23248497 -0.25389972 0.3613646
0.30279177 0.17594138 0.3053313 0.20561668 -0.28485376 0.16842571 -0.17340413 -0.12335352
0.10436392 0.118033566 -0.29022178 0.05764339 0.41566795 0.3387149 -0.32974014 0.245508
0.18184316 0.0045235306 -0.18619566 0.18773979 0.3576184 0.12343349 0.34016258 -0.33583564
0.08521412 0.3370859 -0.042025056 0.17816344 -0.09906114 -0.1569993 0.026827851 -0.43269342
0.15268332 -0.27331927 0.25802037 0.22358695 0.09104512 -0.035421725 0.2365579 0.08222714
00000000: 7b80 ce3d 8457 84be 041c 013e ef3a 9fbe
00000010: 2ba7 86be 8a10 6ebe 25ff 81be c804 b93e
00000020: 8607 9b3e fa29 343e 6254 9c3e 2e8d 523e
00000030: 5ad8 91be ca77 2c3e da90 31be c5a0 fcbd
00000040: c0bc d53d 95bb f13d f397 94be 7a1b 6c3d
00000050: 6ed2 d43e 0a6c ad3e b3d3 a8be 7366 7b3e
00000060: 1835 3a3e 203a 943b 13aa 3ebe dc3e 403e
00000070: c219 b73e b3ca fc3d ca29 ae3e a6f2 abbe
00000080: be84 ae3d 8696 ac3e 7722 2cbd 7a70 363e
00000090: 91e0 cabd 6dc4 20be 15c6 db3c fe89 ddbe
000000a0: 0459 1c3e 81f0 8bbe 3f1b 843e faf3 643e
000000b0: dd75 ba3d 5f16 11bd 3c3c 723e b466 a83d

encoder.conv2.concepts__rev_links__materials.att_dst f4 [1, 1, 48]
0.37272432 -0.0025683115 0.09662367 0.3579273 0.044595595 -0.0870428 0.018248253 -0.21633272
0.013449923 0.16277355 0.09106759 0.099343665 -0.16701749 0.07375695 0.05846734 0.045985866
-0.25595862 -0.22884218 -0.17937306 -0.056477968 0.040140692 0.33544707 0.20214146 -0.11190978
0.19646025 -0.23971528 -0.12577583 -0.35175386 0.07360714 0.23109254 0.026833966 -0.10685775
0.2651261 0.1881258 0.28408745 0.16851349 0.19632185 -0.2579509 0.008414511 0.22039796
0.20139314 -0.2408867 -0.16010351 0.1154641 -0.1550987 -0.12894875 -0.40444222 -0.15460312
00000000: b9d5 be3e 1e51 28bb a1e2 c53d 3f42 b73e
00000010: dfa9 363d 7f43 b2bd 5c7d 953c 5386 5dbe
00000020: 115d 5c3c 1cae 263e a581 ba3d b174 cb3d
00000030: a206 2bbe e20d 973d 737b 6f3d ad5b 3c3d
00000040: 020d 83be 9b55 6abe 92ad 37be 7155 67bd
00000050: 916a 243d b8bf ab3e 2cfe 4e3e f430 e5bd
00000060: e02c 493e ec77 75be 61cb 00be 1519 b4be
00000070: 57bf 963d 86a3 6c3e e8d2 db3c 3cd8 dabd
00000080: 9cbe 873e 0da4 403e e973 913e cd8e 2c3e
00000090: 9808 493e 2412 84be 04dd 093c 01b0 613e
000000a0: 013a 4e3e 01ab 76be 2df2 23be 7178 ec3d
000000b0: 32d2 1ebe 240b 04be 0d13 cfbe 4850 1ebe
